RNN_GRU.pt (torch, 157411 bytes, 10 tensors)

gru.weight_ih_l0 f4 [96, 300]
000000 de 5c 55 3f 7a f7 fc 3e 00 4b 8b 3e 67 2c 12 be
       0.8334483 0.4940756 0.27205658 -0.1427475
000010 ac a4 3d bf 89 fb ef be e6 27 f5 3d 59 43 b4 be
       -0.74079394 -0.46871594 0.11970501 -0.35207632
000020 64 e1 ec 3e 4b d2 25 bf 80 ac cb be cc 58 ca 3d
       0.4626571 -0.64774007 -0.39780045 0.09880218
000030 91 64 9d 3e ef 9d 07 bf fa 1b 7f 3e a5 71 eb 3e
       0.3074079 -0.5297536 0.24913016 0.4598514
000040 d6 4a 65 3d 8f 90 0b bd d0 89 97 bd 53 46 0c 3f
       0.055979572 -0.03407341 -0.073993325 0.54794806
000050 1e 12 71 3e a6 c6 1f 3d df c3 90 3c 82 bf 11 3f
       0.23542067 0.039007805 0.017671524 0.5693284
000060 5a ec fa 3c a9 34 17 3a 49 67 9b 3e 18 00 c4 be
       0.03063028 0.000576804 0.30352238 -0.38281322
000070 14 c5 15 3f f5 bc 65 3f 4c 34 a7 bd 5b aa 0d 3f
       0.5850384 0.8974145 -0.08164272 0.55338067
000080 e7 76 17 bf c2 7d e0 3e 77 33 b7 3b 6d 40 85 3f
       -0.59165806 0.43845946 0.005590852 1.0410286
000090 5c f6 80 bc b2 60 c5 be c0 ed de be 9d 84 69 3d
       -0.015742473 -0.38550335 -0.43540764 0.057011236
0000a0 75 1e aa be 45 89 b4 3d 6f 95 61 3e a3 16 0c bf
       -0.33226362 0.088152446 0.2202966 -0.5472204
0000b0 45 bd 18 3d 23 3f 27 be 41 8f 77 be c8 40 20 bf
       0.037289876 -0.16332678 -0.24175741 -0.6259885
0000c0 6e a1 be 3e c0 6c 04 bd 30 be 39 3d 52 7f 71 be
       0.37232536 -0.032330275 0.045347393 -0.23583725
0000d0 6a 28 86 3e 17 f9 33 3e 5f 15 f0 3e 97 53 b4 3e
       0.26202708 0.17575489 0.46891305 0.35220024
0000e0 15 92 2b bc af a6 28 3f 6a 69 c5 3d c8 60 2c 3f
       -0.01047184 0.6587934 0.09639247 0.67335176
0000f0 0b 34 cf bd 46 b1 28 3b 91 37 1e 3d c0 b3 e6 3e
       -0.10117348 0.0025740429 0.03862721 0.45059013
000100 3e 01 0f 3e 5e 78 3e 3f c3 ec 28 3f 94 a6 5a bc
       0.13965318 0.74402416 0.6598627 -0.013345379
000110 cb 5f 92 3e c2 d5 16 3d 2e a7 87 3e b5 ea 02 bf
       0.2858871 0.03682495 0.26494735 -0.51139385
000120 dc 41 c6 3e af 54 bb be de ee fb 3e 6f a8 c7 bd
       0.38722122 -0.36588046 0.4920568 -0.09748923
000130 1e ef 13 bf 61 ad c2 be ee 48 f8 be b6 47 27 3f
       -0.5778674 -0.38022903 -0.4849314 0.653438
000140 98 0f 17 bf 90 37 54 bf c4 5c 05 3e 23 d7 c3 be
       -0.5900817 -0.8289728 0.13023669 -0.38250074
000150 49 94 83 3e 36 50 e5 3d b4 93 af 3e 56 c9 0c 3f
       0.2569907 0.1119694 0.34292376 0.54994714
000160 88 b3 ad 3e 71 a9 be 3e 9a 1e 6f 3f 99 e5 9c be
       0.33926034 0.3723865 0.9340607 -0.3064392
000170 35 03 8f be 68 ea 89 3f ff fa 44 bf a6 1a c1 bd
       -0.27932134 1.077466 -0.7694549 -0.09428911
000180 01 64 a4 3f 24 68 1b 3f d2 05 84 3f 58 f6 0c 3f
       1.2843019 0.6070578 1.0314276 0.5506339
000190 28 ff 53 be aa e4 0e 3e 6e ae 4e 3f bc 27 5d 3f
       -0.20702803 0.13954416 0.8073491 0.86388755
0001a0 6e 17 46 3f 63 61 02 3e e1 03 13 3d 0f de 73 be
       0.773795 0.12732463 0.03589237 -0.23815177
0001b0 47 50 49 bc d0 b9 05 be 93 2d e1 be be b0 23 3f
       -0.012287206 -0.13059163 -0.43980083 0.6394156
0001c0 c4 8b 75 3c 34 cd 94 3f 9d 0f d4 3e 82 f3 a5 3e
       0.014986936 1.1625123 0.41418162 0.32412344
0001d0 83 66 fa bd bf df 83 bd 6f de 84 3e cc 59 f8 3e
       -0.12226584 -0.064391606 0.25950953 0.4850601
0001e0 77 a0 93 3e 13 03 02 3f f1 ba 0d bf 98 08 23 3f
       0.28833362 0.5078594 -0.55363375 0.6368499
0001f0 ef bf 3a 3e 16 8a 4b be 85 ce a5 3e fd ef 9a 3e
       0.1823728 -0.19876894 0.32384124 0.30261222
000200 7a 2d e8 3e 6f 0c b4 bd cf c8 51 bf 00 1d 52 3e
       0.45347196 -0.08791434 -0.81947035 0.20518875
000210 ed 5e 9b 3f d5 04 9f bd 25 0f 27 bf 7a 90 56 3e
       1.2138344 -0.077645935 -0.65257484 0.20953551
000220 da 6d 55 be 95 0a 43 bc 92 58 1a 3f 46 2b 81 3f
       -0.20842686 -0.011904378 0.602914 1.0091331
000230 6c 54 48 3e 83 57 12 3f 04 cb 37 3f ec 34 1b 3f
       0.19563454 0.5716478 0.7179415 0.6062763
000240 41 f5 1c 3f 4c 6d f0 3e ec b1 84 3e 67 1e 80 3f
       0.6131173 0.46958387 0.25916994 1.0009278
000250 5e 7a 1b bc a3 ae 96 3e a2 22 6e 3f 85 64 6d 3f
       -0.009489624 0.29430112 0.93021595 0.92731506
000260 37 1f 8a 3e 66 91 75 be 41 8f e0 3d 0d c7 0d 3f
       0.2697694 -0.23981246 0.109648235 0.5538185
000270 07 9c a0 be 2b 61 34 3f 5e 64 30 bf ae 04 63 be
       -0.3136904 0.70460767 -0.6890315 -0.22169754
000280 d6 b4 9f 3e 01 1a 0e 3d ef 7f df be 4c df a0 3e
       0.31192654 0.034692768 -0.43652293 0.31420362
000290 4c f8 f4 3c c2 a9 1c be b1 10 b3 be 77 6f c8 be
       0.029903553 -0.15299132 -0.34973672 -0.3914754
0002a0 7e 80 08 3f 2f aa 71 3e d7 06 16 be 5e 9a 75 be
       0.53321064 0.23600076 -0.14651047 -0.23984668
0002b0 f3 e6 84 3d ce 4a 73 bd b2 89 e3 be 58 01 30 3e
       0.064893626 -0.05939751 -0.4444099 0.17188013
0002c0 14 94 11 3f d4 04 a7 be 4c f5 78 3d 38 a0 3c 3d
       0.56866574 -0.3262087 0.06078081 0.046051234
0002d0 6c 75 97 3e 41 81 b3 bd a0 c5 23 3f de 04 1a 3f
       0.29581773 -0.087648876 0.63973427 0.60163677
0002e0 29 92 7b 3f 66 c5 16 3f 04 9c 16 be e4 26 3b 3e
       0.982699 0.58894956 -0.14707953 0.18276554
0002f0 4f 9d 75 bf bb 8c 74 3e 8b ae 75 bd c7 b5 59 3f
       -0.9594316 0.2388181 -0.05998091 0.85042995
000300 b5 3f 90 3e 66 ed 9f 3e af 22 a9 3b b7 dd 89 bd
       0.28173605 0.31235808 0.0051616053 -0.06731742
000310 62 c6 81 3e e7 5b cb 3e 60 e9 c7 be 5f 77 ee 3e
       0.25346667 0.39718553 -0.39045238 0.46575448
000320 a9 8b f4 3e c3 4a f9 3d d5 ee 28 3d 0b 31 0c bf
       0.47762802 0.12172463 0.041243393 -0.54762334
000330 b8 2e 42 3f 37 fa 56 3f 70 45 97 be 39 0c 97 bd
       0.7585254 0.8397555 -0.29545164 -0.07375378
000340 fa 34 4f 3f 9a 95 b5 be fa bc dc bd d9 47 8d 3e
       0.8094021 -0.354657 -0.10778232 0.27593878
000350 5d 83 0c 3e 8b 14 f4 be 61 0c f5 3d 97 8b 3c 3c
       0.13721986 -0.47671923 0.11965252 0.01150789
000360 6a 11 39 bd 35 e8 27 bd 0c fc 3d 3e cb 2d 3c bf
       -0.045182623 -0.040992934 0.1855318 -0.73507375
000370 05 4e 9f bf 83 ba 23 be db 10 b7 bd 85 18 41 bf
       -1.2445685 -0.15989117 -0.08938762 -0.7542804
000380 50 87 f9 bd 18 7d c9 be e4 5e c7 be 0d 59 25 3e
       -0.12184012 -0.3935325 -0.38939583 0.16147251
000390 6c cc 86 be 23 3d 9c be 92 6c 3a 3f 6f 34 8e be
       -0.26327837 -0.30515394 0.72821915 -0.2777438
0003a0 07 94 6a bf 12 3a 23 bf e0 98 f6 3e 4c 19 b7 be
       -0.9163212 -0.63760483 0.4816351 -0.35761487
0003b0 1b 6c bc 3d ca b0 3a 3f 1d d0 cd 3e 44 49 04 3f
       0.09200307 0.7292601 0.4019784 0.51674294
0003c0 db 7c 15 be 6f 9b e2 3d 5f 42 f6 bd 5d d4 bb 3e
       -0.1459841 0.11064803 -0.12024378 0.36685458
0003d0 85 be 63 3e 87 dd 53 be 24 ff f3 be c1 c6 9c be
       0.22240646 -0.20689975 -0.47655594 -0.30620387
0003e0 ad 1e 31 3f 32 95 08 3f 01 46 33 3f 29 47 ad be
       0.6918743 0.53352654 0.7002869 -0.33843353
0003f0 40 4f c6 3d 1c b4 ea bc 8b f6 0f 3f c9 d1 46 3d
       0.096830845 -0.028650336 0.5623557 0.04853991

gru.weight_hh_l0 f4 [96, 32]
000000 aa 0c 3f 3d 7f 27 22 3e 01 53 0d be e3 a3 a4 bd
       0.046642937 0.15835379 -0.13801195 -0.080390714
000010 b3 d6 1c 3f 8a ae 17 3f 72 4f 12 3f 46 42 26 3e
       0.61265105 0.592507 0.57152474 0.16236219
000020 a3 22 43 bf 5a f9 55 3f c4 11 ed be 06 92 39 be
       -0.76224726 0.83583605 -0.46302617 -0.1812211
000030 70 27 85 3e f4 43 28 bf 11 8b e7 be f6 1a 3e bf
       0.2600665 -0.6572869 -0.45223287 -0.7425989
000040 b9 cc fe be c7 f4 fa 3e 4a 2c ae 3e d1 be a5 3b
       -0.49765566 0.49014875 0.34018165 0.0050581475
000050 db 75 de 3d 10 d0 08 3f f2 28 cb 3d 79 11 33 3d
       0.10862323 0.5344248 0.09919919 0.043717835
000060 c3 f7 58 3e 39 da 18 be 32 a1 c5 3d 93 9a 25 bf
       0.21188264 -0.14926995 0.09649886 -0.64688987
000070 d9 75 4c 3e 15 e7 b7 3e fc ff 96 3d 38 72 9b 3c
       0.1996683 0.3591849 0.07373044 0.018975362
000080 1a 8c 60 3e c8 d2 18 be bb d0 61 bd 64 c3 0e 3f
       0.21928445 -0.14924157 -0.0551307 0.5576689
000090 3c 4d 96 bd 4e b0 c1 be bd 67 6b 3d 7d b7 0b bf
       -0.0733895 -0.37829822 0.05747198 -0.54576856
0000a0 4b f8 c0 bd 62 ac 07 bd cb 7a 0b bf 15 34 a8 be
       -0.09422358 -0.03312338 -0.5448424 -0.32852235
0000b0 f6 28 1b 3f bc f4 c8 3e d3 f6 b4 be 21 3e 35 3f
       0.60609376 0.39249218 -0.35344562 0.70797926
0000c0 22 52 7b be d4 a2 06 bf 43 77 1a bf d3 d8 23 bf
       -0.2454305 -0.52592206 -0.6033823 -0.6400272
0000d0 53 0d 21 bf 4f 5f 4e be 61 f8 c6 be d8 db ad 3e
       -0.62910956 -0.20153545 -0.38861373 0.3395679
0000e0 6d a7 95 be b6 11 e0 3e d3 3c ed 3e 10 fa 9e bf
       -0.29229298 0.43763512 0.46335468 -1.2420063
0000f0 8f 34 01 be 16 59 02 bc 81 41 8e bd 02 d0 ba be
       -0.12617706 -0.00795581 -0.06946088 -0.36486822
000100 50 97 df 3e 27 8f 6e 3d e1 54 6a bd f4 23 d3 bd
       0.4367013 0.05824199 -0.057209853 -0.10309592
000110 f8 3c d9 bd 8c 32 90 be fc 0e 0e 3f ae 0f 0d be
       -0.10607332 -0.28163564 0.55491614 -0.13775513
000120 00 84 18 3f 68 87 2a bf 40 e5 99 3e 45 77 97 bd
       0.59576416 -0.66612864 0.30057716 -0.07395796
000130 d3 d7 1c be f1 71 da 3e 0f c0 26 bf 87 2c 5c bf
       -0.15316705 0.42665055 -0.6513681 -0.86005443
000140 fb 7a 06 bf db a9 d8 3e f5 17 ae 3e 10 b5 0b be
       -0.52531403 0.4231709 0.34002653 -0.13643289
000150 73 e9 d1 3e 59 9b b0 be 73 c0 ae 3e 46 90 28 bc
       0.4099842 -0.3449352 0.34131202 -0.010288304
000160 b0 94 41 3e 9c 3c 43 be 07 cb 7a 3e 88 68 29 3f
       0.18904376 -0.1906609 0.24491511 0.6617513
000170 bf 32 9d bd ac d0 07 bc bf 76 4a be 9e 47 bc 3e
       -0.07675695 -0.008289497 -0.1977186 0.3677339
000180 82 06 1b 3e 41 76 ee be e3 dc cb 3e d3 9c 89 be
       0.15139201 -0.46574596 0.3981696 -0.2687746
000190 87 b1 9d bf 40 46 c3 bd 65 56 55 3f c7 87 0d 3f
       -1.2319802 -0.095348835 0.8333495 0.55285305
0001a0 b3 19 11 bf a6 d3 4b be 5b 0f 29 bf 66 52 94 3c
       -0.5667984 -0.19904956 -0.66039056 0.018105697
0001b0 2a ec 25 bf dc 78 1d 3f df a7 f2 3d 6e 5e f1 be
       -0.6481348 0.6151254 0.11848425 -0.47142357
0001c0 44 ec 33 3f fa b9 d6 be 14 ab 05 bf 52 75 2e 3f
       0.7028239 -0.41938764 -0.5221417 0.68147767
0001d0 d1 f3 70 bc 43 30 94 3e 62 72 65 3f f6 7e 69 3f
       -0.014706568 0.2894307 0.8962766 0.9120935
0001e0 90 c6 61 3e 97 a1 a8 be a4 bb a6 be 96 ec 4e 3e
       0.22048402 -0.32935783 -0.32565033 0.20207438
0001f0 f6 38 8e 3e 06 98 9c be 5d da 7c be 51 74 33 be
       0.27777833 -0.30584735 -0.24692674 -0.1752484
000200 6b 27 2e 3e 6c 56 47 3c b2 6c 66 bd 74 8b b6 be
       0.17007224 0.012166601 -0.056256004 -0.3565327
000210 ec d7 53 be 28 be 52 3f 80 1d 9b 3f 84 22 69 3e
       -0.20687836 0.82321405 1.2118378 0.22767073
000220 2c 43 18 bf 38 0b 42 3f d5 78 04 bf ee 07 18 be
       -0.59477496 0.7579837 -0.51746875 -0.14846775
000230 d1 cf 5e be 79 ce 6f 3e 92 dd bc 3e 4c c6 73 3e
       -0.21758963 0.23418607 0.36887795 0.23806113
000240 82 fa 33 3f 3a 45 a7 be 1a 12 33 3f 68 19 84 be
       0.7030412 -0.32670003 0.69949496 -0.25800633
000250 2f f8 1b bf d7 1c 67 3f 2f cf 9f 3e dc 94 f7 3e
       -0.60925573 0.9027838 0.31212756 0.48355758
000260 c1 63 e8 be 0e 73 41 bf 35 80 b4 bd 12 09 61 be
       -0.45388606 -0.75566185 -0.08813516 -0.21976116
000270 0c 3c 83 be 7a 1c 8e bd 7e 58 2c be 9d f6 e0 be
       -0.2563175 -0.06939025 -0.16830632 -0.4393815
000280 60 af 69 3f 61 f4 bb 3d 48 38 9b 3f 7e bb 6b bf
       0.91283226 0.09177471 1.2126551 -0.92082965
000290 96 76 0a bf 74 1a 9d be 7e 2d 4e bf b1 e0 07 bf
       -0.540872 -0.30684245 -0.80538166 -0.53077227
0002a0 ee cb ec bc 7c ae 72 3f 9b 05 93 be 13 2d 5a 3f
       -0.028905835 0.9479749 -0.28715214 0.8522503
0002b0 7b 77 98 bd a7 6e 3e 3e 68 3f 76 3c f6 3a ce be
       -0.07444664 0.18596898 0.015029766 -0.4027936
0002c0 22 cd 2a 3d 2a f2 fb 3e 32 d3 c5 be 7f b5 fa 3e
       0.041699536 0.49208194 -0.38637692 0.48966596
0002d0 fa 41 4c 3f 40 aa 64 bf 25 5f a2 3e 32 60 f7 bd
       0.7978817 -0.8932228 0.31713215 -0.12078895
0002e0 ca 19 b3 3e 0b bc fd be 5f 51 13 bf 47 47 da 3e
       0.34980613 -0.49557528 -0.5754604 0.42632505
0002f0 0c dd 99 be 4d 10 47 3e d6 6b 4f 3e 9a 4b 1c bf
       -0.30051458 0.19439812 0.2025598 -0.6105286
000300 63 f8 9c 3e fe ef fa be ad 1b 2d 3f 35 2d b4 3e
       0.30658254 -0.49011225 0.67620355 0.3519074
000310 e2 39 8d be ed 01 1a bf 49 82 64 bc 77 bc 00 3e
       -0.27583224 -0.6015919 -0.013947078 0.12571894
000320 e8 dd 20 bf 2a 9a b6 3e 0d 34 81 be e9 ad 4d 3f
       -0.628386 0.35664493 -0.25235024 0.8034349
000330 b4 13 09 3e 50 cf bc bd 3b 3a 18 3f 06 dd 9b 3e
       0.13386422 -0.09219229 0.5946385 0.30442065
000340 6c 38 4d 3d a5 df 98 3e 50 80 7a 3e 40 81 fb be
       0.050102636 0.29858127 0.2446301 -0.49122047
000350 e7 1a a5 be d4 ed 19 bd 30 6b 03 be 65 79 20 3f
       -0.32247087 -0.037580326 -0.12833858 0.62685233
000360 e5 c9 6b be 69 b6 c8 3e d0 c2 12 3d 11 0b 4e bd
       -0.23026235 0.39201668 0.03583032 -0.050303522
000370 aa f2 95 3e 22 e8 54 bf f9 cd 69 3e 24 bd 88 bf
       0.292867 -0.83166707 0.22832479 -1.0682721
000380 c8 b0 cb be f1 69 90 3f c4 fd 21 3e d2 b1 fc bc
       -0.3978331 1.1282331 0.1581946 -0.03084651
000390 9a 48 f5 be 2b ad 59 3f 8c 57 86 3e c2 90 4e 3e
       -0.47906953 0.8502986 0.26238668 0.20172408
0003a0 b4 38 44 3e 79 50 e6 be 86 e3 57 3f a3 6d ca bc
       0.19162256 -0.4498327 0.8433155 -0.024710482
0003b0 95 48 90 3d 20 41 de be d0 20 12 3f ea 9e 0e be
       0.07045094 -0.4340906 0.5708132 -0.13927808
0003c0 a1 5d 7a bd d7 c4 5d 3e f2 92 0e 3f f3 65 03 3f
       -0.061124448 0.2165712 0.5569297 0.5132744
0003d0 47 22 1d 3f e8 a7 9a 3e 87 43 91 3f 10 b3 96 3e
       0.6138043 0.30206227 1.1348733 0.2943349
0003e0 0b 1e d7 3e 65 5c 13 bd a4 0f dc 3d 29 40 1b bd
       0.42015108 -0.035976786 0.10745171 -0.037902985
0003f0 3c ae 67 bf 96 28 53 3e 6e 80 3d bd d8 5c 2e 3b
       -0.90500236 0.20620951 -0.04626506 0.0026605632

gru.bias_ih_l0 f4 [96]
000000 64 d8 9a be f4 f0 1d be f4 9b 30 3f 8f fd d7 3d
       -0.30243218 -0.15423948 0.68987966 0.10546409
000010 da c7 f0 be e3 06 16 3d b9 ea 5e 3f a8 88 9c 3e
       -0.47027475 0.03662766 0.8707691 0.3057301
000020 3b 9f 0a bf 6b d4 46 3f 99 45 b0 3f 45 aa 0e 3f
       -0.54149216 0.77667874 1.377124 0.5572856
000030 2c cd 13 3f 27 e5 f2 bb 05 10 3a 3e 07 10 ab 3e
       0.5773494 -0.007412571 0.18170173 0.33410665
000040 0d b9 eb be 6c 02 cc 3e c5 02 a3 3e b3 d8 f7 3e
       -0.4603962 0.39845598 0.3183805 0.48407516
000050 3c 1d a3 be ee bf 1e bf ad 8b c2 3d 4a 22 57 bd
       -0.31858242 -0.6201161 0.09499297 -0.052522935
000060 37 d5 31 bf 73 c0 05 3f 2c a4 30 bd 23 bc aa 3e
       -0.69465965 0.5224678 -0.043125317 0.33346662
000070 98 9f f4 3e f4 17 aa 3e b3 2f 07 bd f7 53 eb be
       0.4777801 0.332214 -0.033004474 -0.45962498
000080 ab 10 9f bf 92 6f 85 bf ea f4 ff 3e c7 f9 90 bf
       -1.2426962 -1.0424674 0.49991542 -1.1326226
000090 01 c5 f6 3c 76 63 62 bf 04 d2 f6 3e b0 d6 aa be
       0.030123236 -0.88433015 0.48207104 -0.3336692
0000a0 03 64 be bd b9 96 80 be ac ba cb 3d af f9 14 bd
       -0.092964195 -0.25114992 0.09947714 -0.03637093
0000b0 2c 94 d7 3c 5d 92 0a bf 4d 48 dd be 87 72 34 bf
       0.026315771 -0.5412958 -0.43219224 -0.70487255
0000c0 15 59 3b be 36 11 b7 be 55 6c 29 bf 04 49 22 bf
       -0.18295701 -0.35755318 -0.66180927 -0.63392663
0000d0 72 42 ab bf f2 96 e2 bf 55 60 7f 3f 17 87 13 c0
       -1.3379653 -1.7702315 0.99756366 -2.3051202
0000e0 27 62 d0 bf c9 08 90 be 9f 83 f0 bf 0d 8d 7b bf
       -1.6279954 -0.28131703 -1.8790168 -0.982621
0000f0 15 60 5b bf 06 c6 8b bf 11 c1 87 bf 61 db 83 be
       -0.85693485 -1.0919807 -1.0605794 -0.2575331
000100 41 1e 82 3f e1 e6 2a 3f 16 09 7c 3d 6f e6 06 be
       1.0165483 0.66758543 0.061532103 -0.13173841
000110 b6 d0 ab 3d 14 59 59 be 42 a6 38 bf 8c 92 ae 3e
       0.08389418 -0.21225387 -0.7212869 0.3409618
000120 0b 3a 13 3e 74 74 3d be 24 ac 9e be b9 4c e2 3e
       0.1437761 -0.18501455 -0.30990708 0.4419916
000130 ca 6e 92 3d 67 cc a0 be 2d c0 16 3f cd c9 0f 3f
       0.071500376 -0.31405947 0.58886987 0.561673
000140 37 49 11 bf ea 00 13 3f 38 4b a9 bb 90 1f 2c bf
       -0.5675234 0.5742327 -0.0051664375 -0.6723566
000150 4d 9c 84 3d 94 8d 8e be a3 53 91 3e 84 2e 3f 3f
       0.064751245 -0.2784239 0.28384122 0.7468035
000160 95 73 a3 3e c7 fc 14 bf 37 3b f0 3d be e6 02 3f
       0.3192412 -0.5819821 0.11730044 0.51133335
000170 41 a6 3a be 12 40 d7 be c7 01 7c 3f a9 5f 4b be
       -0.18227483 -0.4204107 0.9844021 -0.1986071

gru.bias_hh_l0 f4 [96]
000000 45 9d 83 be fd 7b a0 bc e8 9f 1c 3f 2b da 78 3e
       -0.25705925 -0.019590372 0.611815 0.24301974
000010 ff 03 ed be 12 22 71 bb a9 fb 25 3f 25 4b eb 3e
       -0.4629211 -0.003679399 0.6483713 0.45955768
000020 43 7a 16 bf 8b 5a 80 3f 8f 97 a3 3f 3f d5 3d 3f
       -0.58780307 1.0027632 1.2780627 0.7415351
000030 42 47 90 3e b8 bc 8f 3e ac 6f 20 3e 27 f9 84 3e
       0.28179365 0.28073668 0.156676 0.25971338
000040 ce 0e 07 bf d4 4a 94 3e f6 4d 92 3e b0 ef fb 3e
       -0.52756965 0.2896334 0.28575104 0.49206305
000050 cd 66 d3 be 7d e7 33 bf 72 b6 5b 3e 24 1d b3 3c
       -0.41289368 -0.702751 0.21456316 0.021864481
000060 f3 f7 50 bf a8 8a 10 3f c1 68 dc bd 18 98 d5 3e
       -0.8162834 0.5646157 -0.10762168 0.417176
000070 ba 7d c5 3e f1 85 02 3f 80 c4 be be c6 ee 93 be
       0.38572484 0.5098563 -0.37259293 -0.28893107
000080 d1 ac 9b bf 81 b9 5c bf 87 bb e7 3e 0a 25 6b bf
       -1.2162114 -0.86220556 0.4526026 -0.9185339
000090 2f 20 18 bd f9 3e 29 bf d8 66 57 3e 5e 7e 8d be
       -0.037140068 -0.66111714 0.21035326 -0.27635473
0000a0 8a 67 37 be e6 cc c2 be 70 d7 ec 3d c1 e5 22 bd
       -0.17910591 -0.3804695 0.11564529 -0.03976989
0000b0 cd a4 03 3e d8 e6 2b bf a8 35 20 bf 50 f2 2e bf
       0.12855835 -0.67149115 -0.6258187 -0.6833849
0000c0 0c d0 9d be c7 c3 81 be 63 3b 24 bf ef 96 20 bf
       -0.3082279 -0.2534468 -0.64153117 -0.62730306
0000d0 e3 a7 cd bf dc 3b f9 bf 19 dd 99 3f ed 1f 1e c0
       -1.606686 -1.9471393 1.2020599 -2.4706986
0000e0 f8 c0 c9 bf c4 80 fb be ef 8d 0d c0 68 ed 55 bf
       -1.5762014 -0.49121678 -2.211788 -0.8356538
0000f0 12 4e 56 bf 30 7a 8a bf db 03 8b bf b5 df 91 be
       -0.83712876 -1.0818539 -1.0860552 -0.28490987
000100 3a 3d 76 3f 47 4d 1e 3f f6 27 f7 bc 1e 1b 6e be
       0.96187174 0.61836666 -0.030170422 -0.23252532
000110 12 f4 b6 3d 94 c7 16 bf 58 75 d9 be bc b6 c2 3e
       0.089332715 -0.5889828 -0.4247234 0.3803004
000120 58 67 05 3c a6 aa 17 be af 4f 01 bf cd 83 ab 3e
       0.008142315 -0.14811191 -0.5051221 0.33498994
000130 67 a9 90 3c 5e 5c 97 3d 5c 9d 4c 3f 5e 17 c0 3c
       0.017658902 0.073906645 0.7992761 0.023448642
000140 f5 55 84 be fb e3 2b 3c 18 ea cb 3d 08 82 51 be
       -0.2584683 0.0104913665 0.09956759 -0.20459759
000150 f7 56 77 3d f7 1c 3b be d9 4b 38 3f f8 4c ce 3e
       0.06038567 -0.18272768 0.71990734 0.40293097
000160 1b 2a 6d 3b 49 0e 2a be 29 0b b2 3e 05 6c 97 bd
       0.0036188427 -0.16607012 0.3477414 -0.0739365
000170 6d fb 7d be ca 77 01 bf fd e1 94 3f 82 95 20 be
       -0.24802943 -0.5057341 1.1631466 -0.15682033

gru.weight_ih_l1 f4 [96, 32]
000000 ce f8 a8 3f 2f db 1e bf db e1 a7 3e 4c 12 b1 3d
       1.3200929 -0.620532 0.32789502 0.08646068
000010 74 3a fb 3d 86 e6 00 bf 73 da ca 3e ad 98 fa 3e
       0.122670084 -0.5035175 0.3961979 0.48944607
000020 91 87 75 3f 47 0b c5 3d a6 3a 71 3f 72 97 2f 3e
       0.9590998 0.096212916 0.94230115 0.17147616
000030 55 af 30 bd 85 00 f7 be c1 48 c1 bd df ac 05 bf
       -0.04313596 -0.48242584 -0.09437705 -0.52216905
000040 fd 3e bd bd 83 1f 32 3f e5 93 a7 3d 36 97 7d be
       -0.0924053 0.69579333 0.081825055 -0.24764714
000050 34 22 2c bd cf 66 2b bf a5 e0 2b bf 00 b0 a5 3e
       -0.042024806 -0.6695375 -0.67139655 0.3236084
000060 01 4e 1f bf 53 e8 ad be 93 5e 8c be 1c 4b 48 be
       -0.622284 -0.33966312 -0.27415904 -0.19559902
000070 94 c8 b2 be 2a c8 2f bf d1 62 c7 3e 40 ae 40 3f
       -0.34918654 -0.686648 0.38942578 0.75265884
000080 24 e6 a6 3e 8c d9 fe 3e e7 5b 07 bd 12 6a 5a bd
       0.32597458 0.4977535 -0.03304663 -0.053323813
000090 58 d5 fa 3e b1 da 4f bf 43 58 3f 3e fc fa e4 be
       0.48990893 -0.8119307 0.18686013 -0.44722736
0000a0 82 f7 3c bc 69 dc 34 be 00 33 28 3f aa a1 9c bd
       -0.01153362 -0.17662205 0.6570282 -0.076480225
0000b0 62 dc 56 be 1b 44 9b be 6c ef 41 3f 5a 31 d8 be
       -0.20982507 -0.30325398 0.75755954 -0.42225152
0000c0 57 2f 8d be b3 5d 9a 3e a1 dd 83 be 05 39 69 be
       -0.2757518 0.30149612 -0.25755027 -0.22775657
0000d0 a7 7a 11 3e c6 74 38 be 47 f3 00 bf c9 ca 26 bf
       0.14206944 -0.18013296 -0.5037121 -0.65153176
0000e0 d5 40 a9 3e e3 be 50 be 5b 90 7b 3d d4 a2 03 3f
       0.33057275 -0.20385318 0.061416965 0.5142033
0000f0 6e b1 86 3d af fd 7e bf f3 89 87 3f 47 37 38 be
       0.06576811 -0.9960584 1.0588974 -0.17989837
000100 88 3a 07 bf 88 12 2e bf a3 60 d3 3e 8d 63 58 3f
       -0.52823687 -0.67997026 0.41284665 0.845269
000110 4a 80 42 3d 9b 88 d2 3e c8 ea bf be 75 5e 00 bc
       0.047485627 0.41119847 -0.3748381 -0.00783502
000120 7a cf 79 be 23 9c 32 bf c4 6c 83 3f f3 62 f1 3e
       -0.24395552 -0.69769496 1.0267568 0.47145805
000130 d2 c4 9e 3e 70 eb c6 bd bd 0d df be e4 ad 34 3f
       0.31009537 -0.09712875 -0.4356517 0.70577836
000140 6c b6 d4 be 0d 96 0c 3f 3c 20 9a 3e f4 4a 24 bf
       -0.41545427 0.5491646 0.30102718 -0.6417687
000150 23 5b aa be 44 61 28 bf 8a 57 da 3d 45 c6 3b be
       -0.33272657 -0.65773416 0.10661228 -0.18337353
000160 bb ed 8c be d5 dc 99 bc 04 4e 0e bf 57 40 2f bf
       -0.27525124 -0.018782059 -0.5558779 -0.6845755
000170 e3 47 33 be 5d 1a 97 bd 27 ce 59 3e fd ef 54 3f
       -0.17507891 -0.07378075 0.21270047 0.83178693
000180 3f fe 3a bf c1 c8 a7 3e b1 66 12 3e 01 97 a8 be
       -0.730442 0.3277035 0.14296986 -0.32927707
000190 8a bb 29 be 78 4f 09 bf c0 f5 ee 3d c8 b0 c3 3e
       -0.16575447 -0.53636885 0.11667967 0.3822081
0001a0 c2 fe 60 3e fb c2 16 3f 2c 34 c8 3e 36 77 16 3e
       0.21972182 0.58891267 0.39102304 0.14693913
0001b0 c8 80 6b be 27 f4 15 bf 20 13 cc 3e 93 78 fa bd
       -0.22998345 -0.5857567 0.3985834 -0.12230029
0001c0 1b af 8a 3e 53 81 9d 3c c2 a5 20 3f 5b e4 66 3f
       0.2708672 0.019226706 0.62752926 0.9019219
0001d0 b0 f6 a7 3e e6 32 ab bd b8 1b e3 3c a0 d2 9e be
       0.32805395 -0.083593175 0.027723178 -0.3102007
0001e0 91 ea 1f be 6c 36 3a 3d e4 e5 a8 be df 12 1e 3f
       -0.15616824 0.045462057 -0.32987893 0.61747545
0001f0 83 61 88 3f 31 5c db 3e fe e5 1d 3e df e8 08 bf
       1.0654758 0.42843774 0.15419766 -0.53480333
000200 67 26 6b 3f 2a e6 03 bf 6b d2 dc be 01 ce 85 3f
       0.9185547 -0.5152308 -0.43129286 1.0453492
000210 91 a4 81 3e 16 a2 ac 3c 1b 6e 1e 3e 1e 25 85 3d
       0.25320867 0.021073382 0.1547169 0.0650122
000220 3f 0d f0 bc 86 d2 02 bf fa 48 1d 3f d4 54 72 be
       -0.029303191 -0.51102483 0.6143948 -0.23665172
000230 b8 dc e6 be 2e 88 2a 3f 81 65 19 bc ba fd b1 3e
       -0.4509027 0.66614044 -0.009362579 0.3476389
000240 cc 4a 3f bf b9 60 00 be 24 2c 16 bf 81 94 01 be
       -0.74723506 -0.12536897 -0.58661103 -0.12654306
000250 e3 81 6a 3e 93 18 3e bf 65 f2 39 3e cc bd eb be
       0.2290111 -0.7425625 0.18158872 -0.4604324
000260 cb f7 0d 3f 6e ac 1d bf dd 01 04 3f a6 ea 01 3f
       0.5545623 -0.6159123 0.51565343 0.5074867
000270 5d 58 a2 3e ec c3 08 3f bc 61 a3 be bd cd 8b bd
       0.3170804 0.53423953 -0.31910503 -0.06826351
000280 bd 70 30 be a3 e6 6b 3d b4 82 84 bf ef 49 b8 3d
       -0.17230506 0.057593 -1.0352387 0.08998477
000290 c8 a7 9d 3e bf 18 05 bf e2 61 c7 3d 47 21 44 3c
       0.3079207 -0.51990885 0.097354665 0.011970825
0002a0 8c 1c 14 3f df 31 ac 3e 16 b3 97 3e 66 7d 98 be
       0.5785606 0.336318 0.2962882 -0.2978317
0002b0 5a 97 30 bf 79 28 8a bd 1c a7 4e bf c2 ea 13 bf
       -0.68980944 -0.06746001 -0.8072374 -0.57780087
0002c0 6b 10 02 bd f2 cb a7 be a9 3c ca be c0 c8 c7 3d
       -0.03175394 -0.32772785 -0.39499405 0.09755087
0002d0 07 09 a7 3e 24 d4 1e 3e 78 83 13 3e 31 0e 18 3e
       0.32624075 0.15510613 0.1440562 0.14849164
0002e0 4f 0b 4b 3e 19 45 0a 3f b4 ba e9 be 69 9a a4 bd
       0.19828533 0.54011685 -0.45650256 -0.08037264
0002f0 85 e4 43 3e 98 40 8d be d5 f1 b3 be 4f c3 14 39
       0.19130142 -0.27588344 -0.3514544 0.00014187138
000300 d7 51 c8 3e 19 a4 a2 be 58 bd 22 bd fd b6 a2 be
       0.3912494 -0.31765822 -0.039731354 -0.31780234
000310 fe 99 e3 3e 86 f4 c0 bd eb 18 73 3f 33 06 9c 3e
       0.44453424 -0.09421639 0.94959897 0.3047348
000320 2e c1 f1 3e 00 6a cd be 24 e3 a1 bc 82 ad 3b 3e
       0.47217697 -0.40119934 -0.01976163 0.18327907
000330 20 4a b4 be a0 05 b9 be 5a 41 0d bf 48 b7 84 3d
       -0.35212803 -0.36137104 -0.55177844 0.064802706
000340 b5 ad a6 3d 95 e1 25 3f 58 1f 48 3e de 4d 8d 3d
       0.08138601 0.64797336 0.19543207 0.068996176
000350 bb c5 6a be 74 39 d4 be ac 71 93 be af c0 1e 3f
       -0.2292699 -0.41450083 -0.28797662 0.6201276
000360 e2 2f c3 be e1 50 0b 3f 81 69 d6 3d 5f 76 1a be
       -0.3812247 0.54420286 0.10469342 -0.15084217
000370 14 04 00 bf 25 d6 e3 3e 14 ad ab 3c 2d fd 0f bf
       -0.5000622 0.44499317 0.020956554 -0.5624569
000380 08 15 ee 3d 3f 9a 87 3f a3 c5 19 bf 69 55 29 3d
       0.11625105 1.0593947 -0.60067195 0.04134122
000390 04 18 69 be 1d 45 5c 3e b4 91 aa be d4 6d 0a 3f
       -0.22763067 0.2151074 -0.33314288 0.54073834
0003a0 64 44 01 3c e9 75 8f 3e a1 66 5c 3e 82 10 9d be
       0.007889841 0.28019646 0.21523525 -0.30676657
0003b0 b6 92 33 3e a1 99 a4 3d e0 7a d8 be 23 d1 97 be
       0.17536435 0.08037115 -0.42281246 -0.29651746
0003c0 d4 02 ab 3e 61 52 04 3f 66 ce ac 3d f4 07 72 3e
       0.33400595 0.516882 0.08437805 0.23635846
0003d0 ef cb 4d 3f 4e 1b 3a bf fd 12 c0 3e e4 d4 65 bf
       0.803893 -0.72697914 0.37514487 -0.8977797
0003e0 4d f1 92 3f 81 b3 c2 3e be 30 5b 3e 50 12 ab 3e
       1.1479889 0.38027576 0.21405312 0.3341241
0003f0 65 f2 6d bf 95 14 57 3d fe fd 91 3e c6 ba 54 bf
       -0.9294799 0.052509863 0.28514093 -0.83097494

gru.weight_hh_l1 f4 [96, 32]
000000 71 3c 78 3f 5f 6b 44 be 55 33 f2 be 72 b4 94 be
       0.96967226 -0.19181584 -0.47304788 -0.2904392
000010 de d2 af be aa 46 52 3e 25 2e fe bd 40 df 5e 3e
       -0.34340566 0.20534769 -0.12411145 0.2176485
000020 05 a8 24 3f 55 47 15 be c7 5f 08 be 24 9c 9d be
       0.6431888 -0.14577992 -0.13317786 -0.30783188
000030 e5 ad 75 bd ea b3 9a 3e 56 f0 9f 3e 98 c7 69 be
       -0.059980292 0.3021539 0.3123805 -0.22830045
000040 f5 92 99 be 88 94 c4 bf 76 7e 92 be 4c e8 6e bf
       -0.29994932 -1.5357828 -0.28612107 -0.93323207
000050 12 2f f3 be 9d 9c 3e be ce 0a db bd 46 7e f5 3e
       -0.4749685 -0.1861443 -0.1069542 0.479479
000060 48 6b bb 3e f0 87 0a 3f e4 45 5a be ad d9 eb bd
       0.36605287 0.54113674 -0.21315724 -0.11516128
000070 f6 82 60 be 4b e8 0e 3f ea 9c 83 be 52 72 2c bf
       -0.21924958 0.558232 -0.25705653 -0.6736194
000080 db 29 0b bf 8b a9 8a 3e 70 58 7f 3e f8 ce d8 3e
       -0.5436074 0.27082476 0.2493608 0.42345405
000090 4c 4f 1c bd c6 d4 d4 be d5 43 cd 3e 1b b7 97 be
       -0.03816156 -0.41568583 0.40090814 -0.29631886
0000a0 16 e0 03 bf 9b a6 dd bc 4b e6 1a be 27 d0 c5 be
       -0.51513803 -0.027056983 -0.15126912 -0.3863537
0000b0 5b 6d e1 3d f0 be 2e 3f 28 9d 33 be 0e 33 3b 3f
       0.11007186 0.682601 -0.17540419 0.7312478
0000c0 8d 15 c3 bd e6 88 98 be 45 be b1 be d1 1d f3 3e
       -0.09525595 -0.29791945 -0.34715477 0.47483686
0000d0 9d 30 93 3e d8 9d c0 be 45 87 4b bf 2d ec 96 be
       0.28748026 -0.37620425 -0.7950328 -0.29477063
0000e0 51 37 22 3f e5 61 8a 3d bb f5 84 be 47 f0 31 3e
       0.63365656 0.06756953 -0.25968727 0.17376815
0000f0 48 a8 6b bd 5d 00 2e 3f 5e 65 da be 43 ef 2e bf
       -0.057533532 0.67969304 -0.42655462 -0.68333834
000100 f1 29 e8 3e a4 98 e6 3d 52 30 25 bf 30 6c 3b bf
       0.453445 0.11259583 -0.64526856 -0.73211956
000110 cc 27 3a bb fa 13 c9 be 1c ac 0c be 8c e7 50 bf
       -0.0028405068 -0.39273053 -0.1373753 -0.8160331
000120 69 5f 88 3d 2d e4 97 3e b0 ec c1 3e e8 63 10 3f
       0.06658823 0.29666272 0.3787589 0.56402445
000130 a4 a9 09 bf 61 77 f0 bd e6 8b 80 3e fb fd 15 be
       -0.53774476 -0.1174152 0.25106734 -0.14647667
000140 31 d4 70 3f 70 b4 e9 be 4f 1e cf bd 71 a2 58 bf
       0.9407378 -0.45645475 -0.10113203 -0.84622866
000150 e1 1c a1 3e 94 7b b3 be f2 9a 79 3b 5e 88 ba 3d
       0.31467345 -0.3505522 0.003808674 0.09108041
000160 17 ea 80 3d 68 b9 b3 be 90 d3 e8 3d b9 47 75 be
       0.06294649 -0.3510239 0.11368477 -0.23953141
000170 26 ff 0b bd 06 8e 3a be 50 d9 98 be 35 9c 9e be
       -0.034178875 -0.1821824 -0.29853296 -0.30978552
000180 44 56 92 be aa 2c 18 3d 32 c1 47 3f c8 12 c1 be
       -0.2858144 0.03715197 0.7802917 -0.3770964
000190 04 ca bd bd 35 b9 3e 3e db 27 db bd 6e 01 ea be
       -0.09267047 0.18625338 -0.10700961 -0.45704216
0001a0 16 d4 3a be e1 68 2f 3f d4 7a 4c bf 5d 13 ce 3e
       -0.18244967 0.6851941 -0.7987492 0.40249148
0001b0 f8 dd 97 bd 7b de 31 3f e7 f3 47 bd 37 e4 fe 3e
       -0.07415384 0.69480103 -0.048816588 0.4978349
0001c0 bb d0 8d bf 73 0a 33 3d b6 06 9d bc ca af af 3e
       -1.1079324 0.043711137 -0.01916824 0.34313804
0001d0 57 ef af 3e b6 53 de 3e c0 ba 62 3f 70 fb 9b 3e
       0.3436229 0.4342324 0.8856621 0.3046527
0001e0 2a 9c b0 3d 39 c7 0e bf 2d 2e 25 be ad eb ab 3e
       0.08623536 -0.5577274 -0.16130896 0.33578244
0001f0 de d0 87 3e ca 6d 54 3e 16 e4 b0 3e 3e a2 f5 3e
       0.2652654 0.20745006 0.34549016 0.47975343
000200 26 42 1c be b5 8e a8 be 9d 98 00 be 72 87 9c bf
       -0.15259609 -0.32921377 -0.12558217 -1.2228835
000210 d5 43 a2 be 47 1d ed 3e cc de bc 3d b7 06 93 3e
       -0.31692377 0.463114 0.09222183 0.2871606
000220 72 81 c2 be 22 13 e7 be 1f d5 0e 3f bd ce 10 3e
       -0.37989384 -0.45131785 0.55793947 0.14141364
000230 dc 16 26 3f 6d 25 f8 be 51 62 5b bf d2 ef 88 3e
       0.6487863 -0.48466054 -0.85696894 0.26745468
000240 c0 e8 d4 bd ca f4 0b 3f 14 c6 2a bf 12 a9 51 bf
       -0.10395956 0.54670393 -0.66708493 -0.81898606
000250 d0 c9 2e 3f b7 da d3 bc 46 d5 c7 be 78 1f 0d bd
       0.6827669 -0.025861127 -0.39029902 -0.03445384
000260 5c 3d 58 3f 22 69 80 3d 44 65 95 be f9 26 53 3e
       0.84468627 0.062700525 -0.29178822 0.20620336
000270 9c ab c6 be 7d e5 9b 3e ee c3 7c bd e4 22 f1 be
       -0.38802803 0.30448523 -0.06171029 -0.47096932
000280 0b 3e 03 3e b2 7c a7 3d 8b a4 62 3f cd 55 e6 bd
       0.12816636 0.081780806 0.8853232 -0.11246834
000290 01 49 04 3f 08 7d 77 be ac d6 8d 3e 34 be 61 3f
       0.51673895 -0.2416879 0.27702844 0.8818085
0002a0 a5 63 44 bf 78 74 8e 3e ce 93 15 be 8b 31 9c be
       -0.76714545 0.27823234 -0.14607164 -0.30506548
0002b0 df ed ac 3f 0f ec 64 bf 41 c2 b6 be ba 24 88 3e
       1.3510092 -0.89422697 -0.3569508 0.2659052
0002c0 e8 44 72 be 8b 6b cc 3e a6 c2 f4 3e 3c c7 34 bf
       -0.23659098 0.399258 0.47804755 -0.7061651
0002d0 35 21 00 3f 81 07 ed 3f c8 b3 cd 3e 85 16 d8 3e
       0.5005067 1.8517915 0.40176225 0.4220468
0002e0 bb 87 fa bd 9f 8d 95 3e 7c f1 1c bf c5 7a f8 3c
       -0.1223292 0.2920961 -0.61305976 0.030331979
0002f0 7f c6 87 bd e3 de a7 3c 2e 7b 3a bf 35 e5 80 3d
       -0.06629657 0.020492023 -0.7284421 0.06293718
000300 ba ab e1 3e 63 12 b3 3e f4 28 e5 bd e2 8d ca 3d
       0.4407633 0.34974965 -0.11189452 0.09890343
000310 00 25 9c bf 97 ee 96 be 88 17 08 bf 34 16 ed be
       -1.2198792 -0.29478905 -0.53160906 -0.46306002
000320 1d ca 4f 3e 86 61 40 3d 1e d3 d5 3e b7 fc cf be
       0.20291944 0.046968006 0.41762632 -0.40622494
000330 d2 bd 43 3e 35 a7 b8 3e 93 31 80 3e cd e1 ae 3f
       0.1911538 0.3606507 0.25037822 1.3662659
000340 75 b3 31 3f 21 56 d5 be bf c4 8c be 47 9f e4 bc
       0.69414455 -0.41667274 -0.27493855 -0.02790798
000350 dd 87 9b be a7 7b 0a bf 18 22 3b bf b1 bd e1 3c
       -0.30377093 -0.5409493 -0.730989 0.027556272
000360 83 aa 09 bf 06 89 24 3f b5 0e 93 3d 84 dc 0d bf
       -0.53775805 0.6427158 0.071805395 -0.55414605
000370 0e a3 a2 3e 8d fd 92 bd ea b7 fd be 8d e7 92 be
       0.31765026 -0.07177267 -0.49554378 -0.28692284
000380 f6 f9 fe be b4 cc 88 bf a9 9b 5e bf 52 ff 41 3f
       -0.4980008 -1.068747 -0.8695627 0.7578021
000390 02 e8 02 bf 25 8f 94 be be 8a 89 be 2c 3f a2 3e
       -0.51135266 -0.2901546 -0.26863664 0.3168882
0003a0 6a 50 1c 3f 03 7a 19 be 0e 4f 81 bd db cc 48 3e
       0.610602 -0.1498795 -0.063139066 0.19609396
0003b0 45 88 1a be 1d a0 69 3e 53 d9 85 be 9b 94 a5 be
       -0.15091045 0.22814985 -0.26142368 -0.3233994
0003c0 31 3b ba be df 27 7b bf 69 c6 b7 3e e7 ed e3 3e
       -0.36373284 -0.98107713 0.35893562 0.44517443
0003d0 26 24 49 be 0d 48 41 3e 5a e2 18 bf fe e0 25 bf
       -0.19642696 0.18875141 -0.59720385 -0.64796436
0003e0 88 82 30 bd ef e1 ee 3e 7a 72 89 be 3a 90 3a 3d
       -0.043093234 0.4665675 -0.2684515 0.0455477
0003f0 50 58 79 bf 10 e1 fe 3e a4 99 b4 be b9 51 90 3e
       -0.9740038 0.49781084 -0.35273468 0.2818735

gru.bias_ih_l1 f4 [96]
000000 ea 1d a1 be 05 01 4b 3e 22 d6 9c 3e 04 ec 0e 3d
       -0.31468135 0.19824608 0.3063212 0.03489305
000010 c4 33 00 3f a6 2e 1c 3f c8 41 6a 3f 12 a9 48 bd
       0.5007899 0.6100868 0.91506624 -0.048989363
000020 0a f8 24 3f 4d e1 45 3e e8 59 87 be fb 41 81 be
       0.6444098 0.19324227 -0.2643578 -0.25245652
000030 71 40 99 bf 7c 92 5e 3d 23 fe 43 3f 75 e7 31 bf
       -1.1972791 0.054338917 0.76559657 -0.694938
000040 d0 27 9f bd 3d 3b 6d 3e f2 20 d0 be 79 41 9d 3e
       -0.077712655 0.23167129 -0.40650135 0.30714014
000050 b6 71 29 3f 77 b4 32 3f ca ed b8 bc 18 8e 08 bf
       0.66189134 0.6980662 -0.022574324 -0.5334182
000060 50 ec d9 3e 99 b8 70 be 90 49 fa 3d 70 02 0b 3f
       0.42563105 -0.23507918 0.12221062 0.54300594
000070 80 5a 8b 3e bc 08 94 3d 67 97 ef bd 74 23 31 bc
       0.27217484 0.072282284 -0.116987996 -0.010811675
000080 07 d1 b9 bd 37 23 81 bd d0 e9 28 3f 56 04 2c 3f
       -0.09073072 -0.06305545 0.6598177 0.67194116
000090 d0 c4 be bd 40 71 2a be 26 28 70 3d 46 da d2 3e
       -0.09314883 -0.16644764 0.05863204 0.41182154
0000a0 bf 6c 2d bf c6 91 03 3d cb 01 ab 3b 09 8a e1 be
       -0.6774406 0.032121442 0.0052187196 -0.44050625
0000b0 88 15 8b be 9a 16 bc bd b1 26 2f bf f5 79 b5 3f
       -0.27164865 -0.091839984 -0.68418413 1.4177843
0000c0 46 37 86 3f 7d dd 0f bd 63 59 92 3e d4 8c 7e 3f
       1.0485618 -0.035123337 0.28583822 0.99433637
0000d0 d8 a4 f7 be 52 ad 86 3f 5e 27 8d 3d 43 41 e6 be
       -0.48367953 1.0521643 0.06892274 -0.44971666
0000e0 aa 93 cd be 84 c4 a5 be be 56 a5 be ff b4 28 bf
       -0.4015172 -0.32376492 -0.32292742 -0.6590118
0000f0 94 14 63 be 9f f7 74 3f 43 ff 75 3e 56 d5 01 bc
       -0.22175819 0.9569034 0.24023156 -0.007924398
000100 40 c6 c9 bd e2 e6 7a 3c e5 10 55 bd 35 00 a6 3e
       -0.09852266 0.015313836 -0.052018065 0.32422033
000110 42 e0 17 bf 7b 73 81 3e 9d 4d a9 be aa db 47 be
       -0.59326565 0.25283417 -0.33067027 -0.19517389
000120 a0 8f f8 3d 7c f2 f2 3d 97 08 a0 bd 02 3e 8f 3e
       0.12136769 0.118626565 -0.078141384 0.27976996
000130 9f 74 62 be 58 3a 62 be 1d 22 77 be 5f 9d a9 3e
       -0.221148 -0.22092569 -0.24134107 0.33127877
000140 58 23 31 3f 02 83 be 3e 19 41 ac bd c8 6b 8a 3e
       0.69194555 0.37209326 -0.08410854 0.27035356
000150 4b 56 16 3e 9b cf 2f be 79 9b e9 bd 06 01 00 bf
       0.14681356 -0.17169039 -0.11406607 -0.5000156
000160 de 6a 03 3e b0 1a e0 3d 7f e8 56 3e 4d b7 5f be
       0.12833735 0.1094259 0.20987128 -0.21847267
000170 bd 4a bb bc 57 5d b9 3e 70 4e a4 3e 9b ec 2f be
       -0.022862786 0.36204025 0.32091093 -0.17180102

gru.bias_hh_l1 f4 [96]
000000 b4 a3 61 be 2d 8e f5 3e 93 ee 6d 3d 3e a8 9f 3e
       -0.22035104 0.47960034 0.05808885 0.31183046
000010 a6 f6 55 3e 10 e8 d1 3e 5b 79 64 3f 43 9c 81 be
       0.2089487 0.40997362 0.89247674 -0.2531453
000020 f0 6a e6 3e 2d 7e 08 3e a5 1b 12 be 92 dc c5 be
       0.45003462 0.13329382 -0.14268358 -0.38644844
000030 18 f0 99 bf 73 6d e6 3b 89 c0 68 3f cc 0b 24 bf
       -1.2026396 0.0070320903 0.90918785 -0.640805
000040 0f 20 12 be f9 5f 3f 3d 04 6f e7 be a2 e5 60 3e
       -0.14270042 0.046722386 -0.45201886 0.21962598
000050 56 bc 48 3f 3b 42 15 3f fe 6b 4d be 0b 82 1d bf
       0.7841238 0.58304185 -0.20060727 -0.61526555
000060 32 37 fd 3d 78 2b 7c be 09 a5 a3 3e 61 18 02 3f
       0.12364043 -0.24625957 0.3196185 0.5081845
000070 cb 48 10 3e ce 53 09 be d6 a0 c4 3d 7e 70 c3 bd
       0.14090268 -0.13410875 0.096009895 -0.095429406
000080 27 d9 3d 3e 2a 25 41 3b 21 15 2e 3f 8b ab 2f 3f
       0.18539868 0.0029471614 0.6800099 0.6862113
000090 01 7d 24 be 45 2c 78 be 6b 2f 85 3d b2 1b c2 3e
       -0.1606331 -0.24235637 0.06503185 0.37911755
0000a0 82 d2 3f bf 7e a2 c8 bd d3 7f 3c be af 04 27 bf
       -0.74930584 -0.09796618 -0.18408136 -0.6524152
0000b0 58 c2 d0 be bc 14 29 be b6 aa c2 be 15 01 90 3f
       -0.40773273 -0.16511816 -0.38020867 1.125033
0000c0 07 6b 4f 3f 54 59 75 3e 13 99 b4 3e b7 cf 91 3f
       0.81022686 0.23959857 0.35273036 1.1391515
0000d0 33 7b 2d bf 74 e1 89 3f 26 25 0f be 88 fe a7 be
       -0.6776611 1.0771928 -0.13979015 -0.3281138
0000e0 1f 0a 98 be d3 a7 7a be f5 89 d1 be d2 16 59 bf
       -0.29695222 -0.24478082 -0.40925565 -0.84800446
0000f0 d9 89 9f be 79 17 41 3f 7e 3a 71 3e 38 e5 36 be
       -0.31159857 0.7542644 0.23557469 -0.17860878
000100 2e 0c 5a bc 35 39 cf be 60 45 85 bb 05 2b f9 3e
       -0.013308568 -0.40473333 -0.004067108 0.48665634
000110 1c 77 92 3e e7 e9 e9 3c 6c ad c4 be b1 93 5b 3c
       0.28606498 0.028553916 -0.3841356 0.013401912
000120 52 3f 04 be 3a b2 04 3e 79 94 63 3e bb 0b d7 bd
       -0.1291478 0.12958613 0.22224607 -0.10500284
000130 39 80 1b bf 58 48 9e be 05 c3 98 be e3 de ae be
       -0.6074253 -0.3091457 -0.29836288 -0.34154424
000140 be 06 01 3f ec 7c 2b be a7 39 c8 3e 59 b3 9b 3e
       0.5040091 -0.16746873 0.39106485 0.3041027
000150 be c9 05 bf 69 25 e2 be 32 ee 5f 3e ad 23 0e bf
       -0.5226096 -0.44169167 0.21868208 -0.55523187
000160 c5 ac e6 3e ad 3a 8a be 71 27 c3 be 40 cf a7 bd
       0.45053688 -0.2699789 -0.3811603 -0.08193827
000170 47 90 01 be d5 8a 65 3d dc 30 a4 3d 1b 53 3e 3f
       -0.12652694 0.056040604 0.08017132 0.7434556

linear.weight f4 [15, 32]
000000 9a 8b b9 3f 3b ae ff 3f 99 b7 eb 3f 32 85 04 c0
       1.4495728 1.9975046 1.8415405 -2.0706296
000010 0a da 7f bf 15 3f 1a c0 2c 41 9b bf 30 42 04 c0
       -0.99942076 -2.4101002 -1.2129264 -2.0665398
000020 0c 3b 36 40 92 2d 99 3f 72 89 51 c0 f2 62 16 40
       2.847354 1.1967032 -3.274014 2.3497891
000030 45 58 e4 3f bb 49 da bf 2e 18 b4 3f 79 cd 12 40
       1.7839438 -1.7053751 1.4069879 2.293791
000040 15 d4 de bf 95 7f 06 40 16 f8 2a c0 b3 cc 35 c0
       -1.7408472 2.101537 -2.671392 -2.8406188
000050 c7 bc 36 40 0d aa 00 40 6f e9 bb bf 33 c2 39 40
       2.855272 2.010379 -1.4680613 2.902478
000060 11 c4 23 c0 65 51 0f 40 cb 7d 43 40 5c 3d d2 bf
       -2.558842 2.239343 3.0545528 -1.6424975
000070 35 8a 1f 40 28 a8 c0 bf b8 e7 18 c0 60 cf 37 c0
       2.4928105 -1.5051317 -2.389143 -2.8720322
000080 8d 61 11 c0 0e 99 3f c0 86 e0 49 c0 6e bc 16 40
       -2.271579 -2.9937167 -3.1543288 2.3552508
000090 61 a2 30 c0 db c2 24 40 7d 0d 07 40 ba 76 51 40
       -2.7599108 2.574393 2.1101983 3.2728715
0000a0 aa 90 16 c0 66 9b c7 3f 6d 8f 47 3f 01 c5 15 40
       -2.3525796 1.5594299 0.77953225 2.3401492
0000b0 7b 69 62 40 76 e8 91 bf 9f 50 1e 40 2a 0c 02 c0
       3.537688 -1.1399066 2.4736707 -2.0319924
0000c0 f8 31 82 c0 74 18 c2 3f a3 e6 3b c0 4f f0 40 40
       -4.0685997 1.5163713 -2.935952 3.0146673
0000d0 40 65 1d 40 77 f5 1d 40 7d be cd bf a5 0c 01 c0
       2.4593048 2.468107 -1.6073757 -2.0163968
0000e0 a8 23 34 c0 cf 66 2f 40 c3 04 24 c0 0d 01 28 40
       -2.8146763 2.74065 -2.5627906 2.6250641
0000f0 c4 73 5d c0 c3 d1 eb 3f f6 78 3d c0 e2 73 39 40
       -3.4601908 1.8423389 -2.9605079 2.897698
000100 9c a2 3d 3e 31 f5 0d c0 ef 65 53 3f 22 4b 19 40
       0.18519062 -2.2180903 0.82577413 2.3952107
000110 0c 05 f8 bf fc 29 30 c0 f7 d9 d3 be 39 d4 04 c0
       -1.937654 -2.7525625 -0.4137723 -2.075453
000120 28 92 11 c0 ff 48 a3 be 0b 1e 01 c0 04 1c 45 40
       -2.2745457 -0.3189163 -2.0174587 3.079835
000130 07 06 a3 3f 73 07 0d bd 6f d8 6e c0 0e 08 2b 40
       1.2736214 -0.034430932 -3.73196 2.6723666
000140 74 fa 1f 40 40 94 23 40 be dd 68 40 cf 73 5e 40
       2.4996614 2.5559235 3.638534 3.4758184
000150 c0 00 51 40 50 79 81 3f 3b 6c 47 c0 d8 1d d6 bf
       3.2656708 1.0115147 -3.1159809 -1.6727858
000160 66 5e ac 3f 6b db 42 c0 d7 e9 12 c0 64 fb 2e 40
       1.3466308 -3.0446422 -2.2955225 2.7340937
000170 02 4b ee 3f 3f b0 7c c0 f7 e5 8d be f3 90 08 3f
       1.861664 -3.9482572 -0.27714512 0.53346175
000180 3c 58 58 c0 39 9c 4f c0 a8 77 33 c0 c9 11 3d 40
       -3.3803854 -3.24391 -2.8041782 2.9542105
000190 63 ad 37 40 71 86 45 3f 07 2b 69 40 a4 a6 01 bf
       2.8699577 0.77158266 3.6432512 -0.506449
0001a0 6c b5 3f c0 04 4c 36 3f 79 26 51 bf ed d9 ee 3c
       -2.995448 0.7120974 -0.8169933 0.02915665
0001b0 ed 0f 46 c0 d7 a9 37 40 d2 93 e0 3f 1e 71 95 bd
       -3.094722 2.8697412 1.7545111 -0.07296966
0001c0 af 6f 4b 40 c5 14 3e 40 89 67 f7 3e 14 c8 f3 3f
       3.1786916 2.9700177 0.4832118 1.9045434
0001d0 d5 a1 24 40 01 8f 3d c0 66 27 80 40 09 6d b5 bf
       2.5723774 -2.9618533 4.0048094 -1.41739
0001e0 78 a6 4e 3e 2f 7b ba bf be 77 38 bf 5f 39 54 40
       0.2018069 -1.4568843 -0.7205771 3.3160017
0001f0 d4 17 61 bf 67 88 5b 40 38 d3 49 c0 5c e8 62 3f
       -0.87926984 3.4302003 -3.1535168 0.886358
000200 a1 c2 26 40 cf 4e f2 3f 48 70 28 40 fc 14 35 c0
       2.6056292 1.89303 2.631853 -2.8294058
000210 0a 81 6c 40 58 ca 12 40 d6 9e 02 40 c8 1a 15 c0
       3.695376 2.2936 2.0409446 -2.3297596
000220 67 c8 9b 3f b5 2a e2 3f b1 ec 71 40 44 16 33 c0
       1.2170533 1.7669283 3.7800715 -2.798234
000230 cb 14 2d 40 7d 3c ad bf 37 f8 75 3f 63 fb 5d 40
       2.704394 -1.3534085 0.9608187 3.4684684
000240 43 8f da 3e 46 8f 19 c0 87 87 36 40 fb b4 2a c0
       0.42687425 -2.3993697 2.852022 -2.6672962
000250 75 80 39 c0 95 19 43 c0 d4 d0 32 3f 68 ad 12 40
       -2.8984654 -3.0484364 0.69849896 2.2918339
000260 17 54 32 40 68 43 73 bf 43 18 da bf 21 8e 42 c0
       2.7863824 -0.9502473 -1.7038654 -3.0399249
000270 8c 2a 49 40 93 e3 e7 3f 90 39 50 bf 18 72 08 c0
       3.1432219 1.8116325 -0.81337833 -2.1319637
000280 1f 71 12 c0 36 e1 9a bf 48 20 27 40 5d e1 09 40
       -2.2881544 -1.2099979 2.6113453 2.15438
000290 41 bd a6 bf 7a f1 3a c0 d7 d5 21 c0 db d7 1b 40
       -1.3026506 -2.9209886 -2.5286767 2.4350498
0002a0 ec a2 1b c0 f9 39 21 c0 ec 0b f8 bf 7f b7 5a c0
       -2.431819 -2.5191634 -1.9378638 -3.4174497
0002b0 34 3b fa bf 4e 07 df 3f db 81 14 c0 c2 e4 54 c0
       -1.9549317 1.7424104 -2.3204257 -3.3264623
0002c0 dc 61 81 c0 6f 36 0e 40 56 fe 02 3f b1 e0 31 40
       -4.0431957 2.2220724 0.51169336 2.779339
0002d0 43 00 6e c0 15 70 23 40 a5 53 63 40 ab b4 34 c0
       -3.718766 2.553716 3.5519803 -2.823527
0002e0 63 e4 12 40 7b 31 1d 40 61 39 40 40 b3 57 61 bf
       2.2951896 2.456145 3.0035021 -0.88024443
0002f0 eb f4 43 40 31 e7 88 bd 19 6c e8 3f 22 f1 06 40
       3.0618236 -0.06684721 1.8157989 2.1084676
000300 7d 25 28 40 6f 4d d1 bf 77 9f e7 3d b8 a1 c7 bf
       2.627288 -1.6351756 0.113097124 -1.5596228
000310 55 60 0f c0 ae 67 4e 40 06 f5 1c c0 28 2e 82 40
       -2.2402546 3.225078 -2.452455 4.0681343
000320 f5 d3 cc bf 44 a3 5b c0 8b 7d 2d 40 b4 5c 81 c0
       -1.6002184 -3.43184 2.7107875 -4.0425663
000330 56 4b 1b 40 c1 3b 32 c0 f5 93 d5 bf cd 04 14 40
       2.4264731 -2.784897 -1.6685778 2.312793
000340 03 aa 96 3f a8 c7 40 c0 00 79 36 40 ff b8 4b c0
       1.1770633 -3.012186 2.8511353 -3.1831663
000350 30 da 9d bf 4e 33 49 40 c2 9a f4 bf dc 57 15 c0
       -1.233221 3.1437564 -1.9109728 -2.3334875
000360 dc 4d 15 40 5a 69 0b 40 b4 09 25 c0 b2 25 d9 3f
       2.3328772 2.1783051 -2.5787172 1.6964629
000370 bb 29 02 be 6a 48 d2 3f 5e ad 48 c0 a5 dd dd bf
       -0.12711231 1.6428349 -3.1355815 -1.7333266
000380 12 dc 16 c0 c5 f7 26 c0 e0 4d 3c 3f 6f d4 10 40
       -2.357182 -2.6088727 0.7355633 2.262966
000390 c3 56 67 bf b0 09 2d 40 a4 28 52 40 2b 84 13 c0
       -0.9036676 2.7037163 3.2837305 -2.304942
0003a0 a9 8c 0e 40 f0 59 1d 40 f6 3b 37 c0 62 cb 06 c0
       2.2273352 2.4586143 -2.8630347 -2.1061635
0003b0 fd 09 3f c0 ad f9 32 40 98 7e 42 40 f4 4b 9a be
       -2.9849846 2.796489 3.0389767 -0.30136073
0003c0 5e a8 1e bf 74 43 45 c0 0e 3a 43 bf 08 2a 57 40
       -0.6197566 -3.082242 -0.7626046 3.3619404
0003d0 57 b3 2c c0 c1 55 0e c0 e1 81 2c c0 8d 19 a2 3f
       -2.698446 -2.223984 -2.6954272 1.2664047
0003e0 25 50 1f 40 c9 b0 f7 3f e2 06 40 c0 87 6f 56 c0
       2.4892666 1.9350826 -3.00042 -3.350557
0003f0 62 66 17 c0 62 9b 35 40 ae 5a dd 3f 82 1e 96 bf
       -2.365624 2.8376088 1.7293298 -1.172806

linear.bias f4 [15]
000000 11 0f 6f 3f 64 84 c6 3c ed cf c6 3e 2b 06 28 3e
       0.93382365 0.02423305 0.3883051 0.16408603
000010 fc 50 2b bf d0 4f 2e 3e e0 4e 2c 3e b5 75 51 3d
       -0.6692045 0.17022634 0.16826963 0.051137645
000020 c4 7c 07 bf e1 cc 4f bf c3 b5 91 3d 95 ee e5 bf
       -0.5292475 -0.81171995 0.071147464 -1.7963434
000030 a9 02 8f 3e 10 34 c9 3c f8 ee 38 3d
       0.27931717 0.024560958 0.045149773
