RNN_GRU_Att.pt (torch, 315351 bytes, 12 tensors)

gru.weight_ih_l0 f4 [96, 300]
0	0xbe6dc664	-0.23220211
1	0xbef00667	-0.46879885
2	0xbd815922	-0.06315829
3	0xbb399573	-0.0028317838
4	0xbe3a79fc	-0.18210596
5	0x3e0c426d	0.13697214
6	0x3ba7ffb3	0.0051269173
7	0x3db6d250	0.08926833
8	0xbd441c8b	-0.047878783
9	0x3f085191	0.5324946
10	0xbdea7a1d	-0.114490725
11	0x3dca3cbb	0.09874865
12	0xbcd0d59d	-0.025492484
13	0x3ea4730a	0.32119018
14	0xbe1205bf	-0.14260004
15	0x3adbf4f2	0.0016781373
16	0x3cfb29dc	0.030659609
17	0xbf2b0de4	-0.6681807
18	0x3e118279	0.14209928
19	0xbe812f3e	-0.25231355
20	0xbe3b2f0a	-0.18279663
21	0xbe342f84	-0.17596251
22	0xbe6db772	-0.2321451
23	0xbede0159	-0.43360403
24	0x369e769c	4.722575e-06
25	0x3d0aa946	0.033852838
26	0x3f5e8e6b	0.8693606
27	0x3ea0e8ed	0.31427708
28	0x3dd8aa0b	0.10579308
29	0xbe8d47d1	-0.27593854
30	0x3e6d3fdd	0.23168893
31	0x3e1cac19	0.15300025
32	0x3e846268	0.25856328
33	0x3f01f796	0.5076841
34	0x3e62558e	0.22102949
35	0xbf067419	-0.525209
36	0x3dc17c13	0.094474934
37	0xbf137215	-0.5759595
38	0x3a2a6cd6	0.0006501203
39	0x3f10852b	0.564532
40	0x3e1c18be	0.15243813
41	0x3da63355	0.081152596
42	0xbd95fd30	-0.07323682
43	0xbeafef16	-0.34362096
44	0xbeb06a45	-0.34456077
45	0x3f114ee6	0.56761014
46	0x3e4acd33	0.1980484
47	0x3ee50f38	0.44738173
48	0x3eb7498d	0.35798302
49	0x3e2acec5	0.16680439
50	0xbd38a7a6	-0.045081757
51	0x3dcd7d48	0.10033661
52	0x3df176cd	0.117902376
53	0xbef5d530	-0.48014212
54	0xbeaa9cae	-0.33322662
55	0xbe70a892	-0.23501804
56	0xbee083ca	-0.43850547
57	0xbd509da8	-0.050931603
58	0x3e3994cd	0.18123169
59	0x3d82a972	0.063799754
60	0x3ed135fd	0.40861502
61	0x3d561cf9	0.052273724
62	0xbec9f0af	-0.3944144
63	0xbe5e06f9	-0.21682347
64	0xbd2bce03	-0.041944515
65	0xbe998d0d	-0.29990426
66	0xbe74b449	-0.23896898
67	0xbe480606	-0.19533548
68	0x3e924fe2	0.2857657
69	0xbeff6057	-0.4987819
70	0xbeb2a27e	-0.34889597
71	0xbec5a9a5	-0.3860599
72	0xbf52e307	-0.82377666
73	0x3e94d383	0.2906762
74	0x3e587750	0.21139264
75	0x3eb593f7	0.3546445
76	0x3dbf9301	0.09354211
77	0x3f031fd7	0.5122046
78	0xbd41fc7d	-0.047359932
79	0xbdaf136d	-0.08548627
80	0xbc252197	-0.010078809
81	0x3ce513a0	0.02796346
82	0xbec9b577	-0.3939626
83	0x3e1ecc52	0.1550763
84	0xbdc59f96	-0.09649579
85	0x3f28600d	0.6577156
86	0x3eb452dc	0.35219467
87	0xbdad86ab	-0.084729515
88	0xbf23f435	-0.64044505
89	0xbe8f37b7	-0.27972195
90	0xbe0f4978	-0.1399287
91	0xbb5a4002	-0.0033302312
92	0xbefc8db7	-0.4932687
93	0x3d0b80d9	0.034058426
94	0xbdeae82d	-0.11470065
95	0xbee6d0bb	-0.45081124
96	0xbafc23ad	-0.0019236706
97	0xbea86f5b	-0.32897457
98	0x3ec0da17	0.3766639
99	0xbe41e640	-0.1893549
100	0x3e15b8c1	0.1462126
101	0x3d429514	0.047505453
102	0x3ea4b22e	0.3216719
103	0x3e1e90e7	0.15484963
104	0xbea6ce87	-0.32579443
105	0xbee3983d	-0.44452086
106	0x3ea02703	0.31279764
107	0xbecfd8a3	-0.40594968
108	0x3dfe4828	0.124161065
109	0x3ee852f6	0.45375794
110	0x3eeb56c7	0.45964643
111	0xbdae677b	-0.08515831
112	0xbe8dbc7b	-0.27682862
113	0x3ecb2e2f	0.39683673
114	0xbf50c84f	-0.81555647
115	0xbf5c5c7c	-0.8607862
116	0xbf306570	-0.6890478
117	0xbf70f53a	-0.94124186
118	0xbf57ab7f	-0.8424606
119	0xbf2f12b8	-0.6838794
120	0xbe974fda	-0.2955311
121	0xbf3f8b90	-0.7482233
122	0xbf5085f3	-0.8145439
123	0xbe83276e	-0.2561602
124	0x3e577497	0.21040569
125	0x3ec346b8	0.38139892
126	0xbec23f61	-0.3793898
127	0xbcc1e093	-0.023666656
128	0x3e28ec53	0.164964
129	0xbf37c072	-0.71778023
130	0x3d086dc8	0.03330782
131	0xbf375f73	-0.7163002
132	0x3e34b2db	0.17646353
133	0x3ee56786	0.44805545
134	0xbe144299	-0.1447853
135	0xbe6e52b0	-0.2327373
136	0x3e8f69e3	0.28010473
137	0xbf035cb8	-0.5131335
138	0xbf582cd7	-0.8444342
139	0xbd9bcbdd	-0.07607243
140	0xbec85b59	-0.39132193
141	0xbedb4e7f	-0.42833325
142	0xbda4ffe4	-0.0805662
143	0x3ea51048	0.32238984
144	0xbe68d0f5	-0.22735961
145	0x3eaa470a	0.33257324
146	0xbed69ef7	-0.41918156
147	0x3eaced33	0.3377472
148	0x3e6b47c8	0.22976601
149	0x3e45a32c	0.19300526
150	0x3cc01f56	0.023452442
151	0xbe5c3e16	-0.21508059
152	0xbdfb1939	-0.1226067
153	0xbdfa78c5	-0.12230066
154	0x3f173507	0.5906529
155	0x3d9f5b04	0.07781032
156	0x3da99f93	0.082823895
157	0x3c8df318	0.01732783
158	0x3e53ccad	0.20683546
159	0xbe960b66	-0.2930557
160	0x3e7a89f8	0.24466693
161	0x3db2b607	0.08726125
162	0x3dc89fb1	0.09796084
163	0xbe915dcc	-0.28391874
164	0x3e5a1d0a	0.2130014
165	0x3e8b9c9c	0.2726792
166	0x3e2bc945	0.16775997
167	0xbf3e5b2a	-0.74357855
168	0x3e52ea6b	0.20597236
169	0xbe0dfafa	-0.13865271
170	0x3dbf05fd	0.09327314
171	0xbedc07a1	-0.4297457
172	0xbe2b2cc5	-0.16716297
173	0x3e1f2329	0.15540756
174	0xbeee45cc	-0.46537626
175	0x3e9bb056	0.3040797
176	0x3e8ce2a0	0.2751665
177	0x3ca635de	0.020289358
178	0x3e3c08eb	0.18362777
179	0x3eed7662	0.4637938
180	0xbe363c6e	-0.1779649
181	0x3e96b593	0.29435405
182	0x3e93b877	0.28851673
183	0xbd24c788	-0.04022935
184	0x3d8ca27c	0.06866929
185	0xbe256ddf	-0.16155194
186	0xbd89af64	-0.06722906
187	0x3e9d1cd5	0.3068606
188	0x3e395258	0.18097818
189	0xbda8b681	-0.08237935
190	0x3eba59ae	0.36396545
191	0x3ed54b06	0.416588
192	0x3e7090c6	0.23492727
193	0x3eec5788	0.4616053
194	0x3da693fb	0.08133694
195	0xbe371056	-0.17877325
196	0xbd78ff83	-0.06079055
197	0x3d4f1916	0.050561033
198	0xbe1cba9f	-0.15305565
199	0x3e428856	0.1899732
200	0x3e01eb81	0.12687494
201	0xbdd6bea9	-0.10485584
202	0xbdef2dc0	-0.11678648
203	0x3cddb28b	0.027062675
204	0x3e8ac730	0.27105093
205	0x3dd9d9d6	0.10637252
206	0x3d9f0709	0.07765014
207	0x3debf4fb	0.11521336
208	0x3f0de782	0.5543138
209	0x3ef14e09	0.4712985
210	0xbec9c551	-0.39408353
211	0x3e42c3e6	0.19020042
212	0x3e15dea9	0.1463572
213	0xbeb454bb	-0.35220894
214	0xbdd66788	-0.10468966
215	0x3e7e21a9	0.24817528
216	0xbf2426c4	-0.6412165
217	0xbcd69b0a	-0.026196975
218	0x3ecee3b6	0.40408105
219	0x3cce0eeb	0.025153598
220	0x3e8539a0	0.26020527
221	0x3d86ca58	0.06581563
222	0x3d41b3df	0.04729068
223	0xbde1e7e4	-0.11030558
224	0x3e5d1832	0.21591261
225	0xbe0c9e08	-0.13732159
226	0x3ed21a6c	0.41035783
227	0x3ec3988c	0.38202322
228	0x3d9476b8	0.07249206
229	0x3e8c39a3	0.27387723
230	0xbd0d3770	-0.034476697
231	0x3ec9eb94	0.39437544
232	0x3e761624	0.24031883
233	0x3df971e7	0.12179928
234	0x3e8f361b	0.27970967
235	0xbe872a75	-0.2639958
236	0x3e1c4bd8	0.15263307
237	0x3f147a6c	0.579993
238	0x3f68ebd0	0.9098482
239	0x3e923a9e	0.28560346
240	0xbdb4cac9	-0.08827741
241	0x3e567e91	0.20946719
242	0x3ec58acb	0.38582453
243	0xbe3cdf71	-0.18444611
244	0xbeb80dde	-0.3594808
245	0xbf021410	-0.5081186
246	0xbdacc6f6	-0.08436386
247	0xbe6864ca	-0.22694698
248	0xbd61fef7	-0.055174794
249	0x3f0d8e60	0.5529537
250	0x3f1826df	0.5943431
251	0x3efb75d1	0.49113324
252	0x3efee5d5	0.49784723
253	0x3d3003a1	0.04297221
254	0x3f03efdc	0.5153787
255	0xbcdb8c74	-0.026800372

gru.weight_hh_l0 f4 [96, 32]
0	0x3e69bb19	0.22825278
1	0xbe028a18	-0.12747991
2	0xbee666a7	-0.45000193
3	0x3f230285	0.6367572
4	0xbef27b93	-0.47359905
5	0x3f1fad0a	0.6237341
6	0xbf0e295e	-0.5553187
7	0xbef9d408	-0.4879458
8	0x3ea99100	0.3311844
9	0x3f1f14bf	0.6214103
10	0xbe0296e9	-0.1275288
11	0x3d9dfdaf	0.07714402
12	0xbebbe545	-0.36698356
13	0xbe87466a	-0.2642091
14	0x3f205c78	0.62641096
15	0xbdc060db	-0.09393474
16	0xbe835ec2	-0.25658232
17	0xbf0b0321	-0.5430165
18	0x3e84f7d4	0.25970328
19	0xbe1cd6c6	-0.15316305
20	0xbec09374	-0.37612498
21	0xbf00ae88	-0.50266314
22	0xbe23eca2	-0.16008237
23	0x3f4f09b2	0.8087417
24	0xbe24ff09	-0.16112913
25	0x3e131743	0.14364342
26	0x3e23e753	0.16006212
27	0x3ea623ed	0.32449284
28	0xbe4abcbb	-0.19798557
29	0xbf1d79d3	-0.61514014
30	0x3e26c49a	0.16285935
31	0xbf0abcea	-0.5419451
32	0x3db7af82	0.08969022
33	0x3e9e412a	0.3090909
34	0x3e9285ef	0.28617808
35	0x3e2f6b9e	0.17130896
36	0x3e6320b8	0.2218045
37	0xbf44d77a	-0.7689129
38	0xbe73e2e6	-0.23817024
39	0x3f15cfc5	0.58520156
40	0xbef67f28	-0.48143888
41	0xbf2be0a7	-0.6713967
42	0x3d9c2a8f	0.07625305
43	0xbec47a60	-0.38374615
44	0xbc4ea0f0	-0.012611613
45	0xbe486e6a	-0.1957337
46	0xbf3076ad	-0.68931085
47	0xbe29f870	-0.16598678
48	0xbec72273	-0.3889347
49	0x3e88a9a6	0.2669193
50	0x3e9796ec	0.29607332
51	0xbe288175	-0.16455634
52	0x3f1c5b16	0.61076486
53	0xbdcc30f1	-0.09970272
54	0xbdc599e5	-0.09648494
55	0xbf577f86	-0.8417896
56	0x3e3bbefe	0.18334576
57	0xbf0bd651	-0.54623896
58	0xbe3ad3e7	-0.18244897
59	0x3d9cc22e	0.07654224
60	0xbe86cc77	-0.2632787
61	0x3db8a329	0.09015495
62	0x3d7239f2	0.059137292
63	0xbd29b290	-0.041430056
64	0x3e1334a6	0.14375553
65	0xbccd3b1a	-0.025052596
66	0xbf3b45b5	-0.7315324
67	0xbece8e74	-0.40343058
68	0x3f0ab1c7	0.54177517
69	0xbe7f76fb	-0.24947731
70	0x3e69d928	0.22836745
71	0xba8dbb7c	-0.0010813321
72	0xbf035e24	-0.5131552
73	0xbf15f5c1	-0.58578116
74	0x3d8b46be	0.068006024
75	0x3f8d0a15	1.1018702
76	0x3edd5f65	0.43236843
77	0xbd46005f	-0.048340198
78	0xbf33539f	-0.7004947
79	0x3eeb96da	0.46013528
80	0xbe33623b	-0.1751794
81	0x3e39a1de	0.18128154
82	0xbea533da	-0.32266122
83	0xbdb38239	-0.087650724
84	0x3d8eee70	0.06979072
85	0x3e4ed6af	0.20199083
86	0xbeb06454	-0.34451544
87	0xbe5657ff	-0.20932005
88	0xbdd5abf3	-0.10433187
89	0x3db8de7d	0.09026811
90	0x3eff686f	0.49884364
91	0xbf00acef	-0.50263876
92	0xbf249609	-0.64291435
93	0xbf8a45d3	-1.0802559
94	0x3ed94b40	0.42440224
95	0x3f2967f7	0.6617426
96	0xbefd84f0	-0.49515486
97	0xbf6ad4fc	-0.9173124
98	0x3ca8c338	0.0206009
99	0x3f616782	0.88048565
100	0xbd88fe4b	-0.066891275
101	0x3cf84962	0.03030843
102	0x3d9ce436	0.07660715
103	0xbbaac25f	-0.005211159
104	0xbcc3729d	-0.023858363
105	0x3bffe35b	0.0078090853
106	0xbee71f67	-0.45141146
107	0xbe03c3b6	-0.12867627
108	0xbeaf2ba9	-0.34212998
109	0xbc82c56f	-0.015963284
110	0xbd243823	-0.0400926
111	0xbec5ed13	-0.38657436
112	0xbd83b084	-0.06430152
113	0x3dd3bddd	0.10338948
114	0xbed3faad	-0.41402188
115	0x3f1f9e68	0.62351084
116	0x3efc4978	0.49274802
117	0x3f24f3ae	0.64434326
118	0x3f2b179e	0.6683291
119	0xbe614a80	-0.22001076
120	0x3f4d9b39	0.80314976
121	0x3e254837	0.16140829
122	0x3f17ac31	0.5924712
123	0xbf0d78ea	-0.55262625
124	0xbf030662	-0.51181614
125	0xbe48d6fd	-0.19613262
126	0xbe0e0d99	-0.13872375
127	0x3f04bb2b	0.51848096
128	0x3f06c030	0.52637005
129	0x3f129c62	0.5726987
130	0x3f64d9a3	0.8939459
131	0xbe5d44e9	-0.21608318
132	0x3edc4aee	0.43025917
133	0xbf14034c	-0.5781753
134	0xbf776c87	-0.96649975
135	0x3c19770c	0.009366762
136	0x3e38255c	0.17983001
137	0xbdaa90c7	-0.08328395
138	0x3e99b5a7	0.30021402
139	0x3ebe87f8	0.3721311
140	0xbe0ee6e9	-0.13955273
141	0xbe28b94d	-0.16476937
142	0xbe5e234c	-0.21693152
143	0xbe480354	-0.1953252
144	0x3ef027b1	0.46905282
145	0x3d5fa1f7	0.05459782
146	0x3ea24e22	0.31700236
147	0xbe08db48	-0.13364899
148	0xbfa85f50	-1.3154087
149	0xbeb78509	-0.35843685
150	0xbe19b44f	-0.15010189
151	0x3dae572e	0.08512722
152	0x3f460b3c	0.7736089
153	0xbd40401f	-0.04693615
154	0xbd4f7134	-0.05064507
155	0x3e063858	0.13107431
156	0xbf8d02ba	-1.1016457
157	0x3f5f07a1	0.87121016
158	0x3dae3e4b	0.08507975
159	0x3e924290	0.28566408
160	0x3f069aa2	0.525797
161	0x3da59362	0.08084752
162	0x3e91bf55	0.28466287
163	0xbec209f4	-0.3789822
164	0x3e49b78a	0.19698921
165	0xbef92fd0	-0.4866929
166	0x3f4e108e	0.8049401
167	0xbef476f6	-0.4774701
168	0x3d8aad18	0.06771296
169	0x3e4ac6db	0.1980242
170	0x3daefdd8	0.085445106
171	0xbe4d4d29	-0.20048966
172	0xbe61fa11	-0.22068049
173	0xbef15d50	-0.47141504
174	0x3c93998d	0.018017555
175	0x3ef9ef0d	0.48815194
176	0x3f32dfb3	0.6987259
177	0xbed39e6f	-0.41331813
178	0x3e39ae31	0.18132855
179	0xbf98c6d7	-1.1935681
180	0xbf07bbc1	-0.53020865
181	0xbe6b11cc	-0.22956008
182	0xbe79cef9	-0.2439536
183	0x3f2a06f4	0.6641686
184	0xbe002fcc	-0.12518233
185	0x3c846bab	0.016164621
186	0x3e7d6284	0.24744612
187	0x3f580658	0.8438468
188	0xbf489b51	-0.78361994
189	0xbe176a01	-0.14786531
190	0x3f095530	0.5364561
191	0x3e469f5c	0.19396728
192	0xbe3f5842	-0.18686011
193	0xbf0f7155	-0.56032306
194	0xbeeb288a	-0.45929366
195	0xbe367adf	-0.17820309
196	0xbf0fcc2d	-0.5617092
197	0x3f553bd1	0.832944
198	0xbe80b3bf	-0.25137135
199	0xbf42eb58	-0.76140356
200	0xbdede716	-0.11616342
201	0x3e4a74f4	0.19771177
202	0xbdbb5248	-0.09146553
203	0xbda2a6e8	-0.07941991
204	0xbdbb7a5b	-0.09154197
205	0xbe05447c	-0.13014406
206	0x3f18c9ec	0.5968311
207	0x3eec7758	0.46184802
208	0xbe856550	-0.26053858
209	0xbeb6e9b4	-0.35725176
210	0xbf269e78	-0.65085554
211	0x3f143bf7	0.57904
212	0x3c0729b4	0.008249689
213	0x3d96add0	0.07357371
214	0x3e5a4141	0.21313955
215	0x3cbde602	0.023180965
216	0xbdaf63a1	-0.085639246
217	0x3e32b164	0.17450482
218	0x3f4b1a38	0.7933688
219	0xbe4a2b09	-0.19742979
220	0xbeddcb77	-0.43319294
221	0x3ea4701c	0.32116783
222	0x3c88b099	0.01668577
223	0x3e2ffb24	0.17185646
224	0xbead746d	-0.33877888
225	0xbe8dd162	-0.2769881
226	0x3ecc7063	0.39929494
227	0x3ee3aa4a	0.44465858
228	0x3de6585d	0.11247323
229	0x3db30837	0.08741801
230	0x3ed068a5	0.40704837
231	0xbf1cead5	-0.61295825
232	0xbee309f6	-0.44343537
233	0x3cd9b890	0.026577264
234	0xbf083321	-0.53203017
235	0xbdb1d04e	-0.08682309
236	0xbf4a50b0	-0.7902937
237	0x3c613e5a	0.013747776
238	0xbe3e78ae	-0.18600723
239	0xbed0b6ea	-0.40764552
240	0xbe9a8f51	-0.30187467
241	0xbe697586	-0.22798738
242	0xbe8a6c1a	-0.270356
243	0xbe51374f	-0.20431255
244	0xbee5b3de	-0.4486379
245	0xbe71fbf6	-0.23631272
246	0x3efa1486	0.48843783
247	0x3d8840d1	0.06652988
248	0x3d060e8d	0.03272872
249	0xbc8e2f5e	-0.01735657
250	0x3eb35d60	0.35032177
251	0xbf71c4b9	-0.944408
252	0x3ee03f6b	0.43798384
253	0x3e69cd45	0.2283221
254	0xbea9aca1	-0.33139518
255	0x3cf3297d	0.02968287

gru.bias_ih_l0 f4 [96]
0	0x3ddac3fb	0.106819116
1	0x3d621c87	0.055202987
2	0x3cb5ecb0	0.022207588
3	0xbf19fe03	-0.60153216
4	0xbdbfbff8	-0.09362787
5	0xbd09d1f4	-0.033647493
6	0x3e1b7af3	0.1518362
7	0xbe130d14	-0.14360458
8	0x3e660d5c	0.22466034
9	0x3e292a8c	0.16520137
10	0x3e1704de	0.1474795
11	0x3ef6e47c	0.48221195
12	0xbf144da0	-0.57930946
13	0x3e303f2a	0.17211595
14	0x3d25775e	0.04039704
15	0xbe740719	-0.23830833
16	0xbee414d2	-0.44547135
17	0x3e205cf4	0.15660459
18	0x3eca9a19	0.39570692
19	0x3dc84e0a	0.0978051
20	0xbea2bf4f	-0.31786582
21	0xbf807c27	-1.0037888
22	0xbef41abb	-0.47676644
23	0x3e4c2235	0.19934924
24	0xbf30c114	-0.69044614
25	0x3ec67330	0.38759756
26	0xbd392e87	-0.045210388
27	0xbe4ad79d	-0.19808812
28	0xbcaec3de	-0.021333631
29	0x3dad8f03	0.08474543
30	0x3ee0e34a	0.43923408
31	0xbe887153	-0.2664896
32	0xbf20a4ab	-0.62751263
33	0x3f077a1b	0.52920693
34	0x3e9b348c	0.30313528
35	0x3d5baac8	0.053629667
36	0x3dea3d1c	0.11437437
37	0xbef83175	-0.48475233
38	0x3d0d522c	0.034502193
39	0x3eb239c0	0.34809685
40	0xbf143baa	-0.5790354
41	0xbf34baa3	-0.70597285
42	0xbd9d5483	-0.07682135
43	0xbf34627c	-0.70462775
44	0x3e0c71a0	0.1371522
45	0xbebace4f	-0.36485526
46	0xbe333d8c	-0.17503947
47	0x3e7d65c7	0.24745856
48	0xbf1b012a	-0.6054865
49	0xbd82727b	-0.06369492
50	0xbe9b36d8	-0.3031528
51	0xbc576512	-0.013146656
52	0xbe8544d1	-0.26029065
53	0x3e5d77d3	0.2162774
54	0xbf18e78f	-0.5972833
55	0xbbd3f4ad	-0.0064683766
56	0x3eaa9d0b	0.3332294
57	0x3e6e0100	0.23242569
58	0x3bdc23b5	0.006718124
59	0x3d93bb8f	0.07213508
60	0x3eed4f04	0.46349347
61	0x3dc537f9	0.096298166
62	0xbddad1a3	-0.10684516
63	0xbe5065f7	-0.20351397
64	0x3efca80f	0.4934697
65	0x3e5721b1	0.21008946
66	0xbe79ec61	-0.24406578
67	0xbc899db3	-0.01679883
68	0xbeb1447f	-0.3462257
69	0xbea228d4	-0.31671774
70	0xbe0a81e7	-0.13526116
71	0x3e87b26e	0.2650332
72	0x3e3f2904	0.1866799
73	0x3e86ad01	0.26303867
74	0x3dabb49d	0.083840586
75	0xbccb4426	-0.02481277
76	0x3e90841a	0.28225785
77	0xbd9ff33f	-0.078100674
78	0x3b612e2f	0.0034359803
79	0x3eaa6830	0.33282614
80	0xbc51d2d8	-0.012806617
81	0xbdc64190	-0.09680474
82	0xbd1b750f	-0.037953433
83	0xbe0f9d50	-0.14024854
84	0xbd873091	-0.0660106
85	0xbdc7fed8	-0.097654045
86	0xbdd1a8e5	-0.10237292
87	0xbdbfedc1	-0.0937152
88	0x3eaa3e35	0.33250585
89	0x3b03ae93	0.0020093068
90	0x3e8fd86e	0.2809481
91	0x3da81ed3	0.08209004
92	0x3d9a53bc	0.07535502
93	0xbe14d648	-0.14534867
94	0x3e3c1f7c	0.18371385
95	0x3d2320eb	0.039826315

gru.bias_hh_l0 f4 [96]
0	0x3e52aa60	0.20572805
1	0x3d3b0178	0.045655698
2	0x3e4bde55	0.19909032
3	0xbed425cf	-0.41435096
4	0xbe3e0b45	-0.18558986
5	0x3e39e7b9	0.18154801
6	0x3e24b815	0.16085847
7	0xbe10ba74	-0.14133626
8	0x3e73a817	0.2379459
9	0x3e8d7118	0.27625346
10	0x3e816a7e	0.2527656
11	0x3ef2e162	0.47437578
12	0xbec5beb1	-0.38622048
13	0x3e861475	0.26187482
14	0xbe357024	-0.1771856
15	0xbeef5b1b	-0.46749195
16	0xbedf4fce	-0.43615574
17	0x3c592d6f	0.013255461
18	0x3f290572	0.66023934
19	0xbe26044e	-0.1621258
20	0xbed8ab5e	-0.42318243
21	0xbf7e9cc1	-0.9945794
22	0xbe9c45ab	-0.30521902
23	0x3e1524e5	0.14564855
24	0xbf0f0a3c	-0.5587499
25	0x3e785cde	0.24254176
26	0x3bae6d1f	0.005323067
27	0xbe780765	-0.24221571
28	0x3ca62b38	0.02028428
29	0xbcd4983b	-0.025951495
30	0x3ecf73a6	0.4051792
31	0xbe069c60	-0.1314559
32	0xbf480035	-0.78125316
33	0x3e842536	0.2580964
34	0x3e0fdb41	0.14048482
35	0xbd761c1e	-0.06008541
36	0xbd315993	-0.043298315
37	0xbf27524a	-0.6535994
38	0x3e5a60f3	0.21326046
39	0x3e0df14e	0.13861582
40	0xbf057ed3	-0.52146643
41	0xbf2c6813	-0.67346305
42	0xbd910900	-0.07081795
43	0xbf18cd3c	-0.5968816
44	0x3ea18d1b	0.31552967
45	0xbe955c13	-0.2917181
46	0xbe73d4cb	-0.23811643
47	0x3e682db6	0.22673687
48	0xbea5cc76	-0.32382554
49	0x3e5301ba	0.20606127
50	0xbecf6bb6	-0.40511864
51	0xbe240564	-0.16017681
52	0xbdf93d13	-0.12169852
53	0x3e1540ad	0.14575453
54	0xbf221455	-0.63312274
55	0x3c9a33eb	0.018823585
56	0x3ece8645	0.40336815
57	0x3e71d6cf	0.23617099
58	0x3e930278	0.2871282
59	0x3e760bc8	0.24027932
60	0x3e8c8c97	0.27451012
61	0x3e040641	0.1289301
62	0xbe4822b2	-0.19544485
63	0xbe6b0796	-0.22952113
64	0x3e76f389	0.24116339
65	0x3e41da8a	0.18931022
66	0xbe31f04f	-0.17376827
67	0x3dd150a5	0.1022046
68	0xbd725dfc	-0.05917166
69	0xbe7e8474	-0.24855214
70	0xbecf49a0	-0.4048586
71	0xbd0dda96	-0.034632288
72	0xbccbf19f	-0.024895487
73	0x3e566c8a	0.20939842
74	0xbe38d94c	-0.18051642
75	0x3e987cd5	0.2978274
76	0x3e22f8b7	0.1591519
77	0xbe85e4cb	-0.26151118
78	0x3dd1232b	0.10211786
79	0x3eab28d5	0.3342959
80	0xbe480bb8	-0.1953572
81	0x3ea4b20f	0.32167098
82	0xbea07fc1	-0.31347468
83	0x3e92617c	0.2859
84	0x3ec06e16	0.3758399
85	0x3e73944b	0.23787038
86	0x3da71713	0.08158698
87	0x3e171f10	0.14757943
88	0x3d91bea7	0.07116442
89	0x3e14495e	0.14481112
90	0x3e7727a8	0.24136221
91	0xbe244b57	-0.16044365
92	0x3da520bc	0.08062884
93	0x3d1efef8	0.038817376
94	0x3e1dc88d	0.15408535
95	0x3e8688f1	0.26276353

gru.weight_ih_l1 f4 [96, 32]
0	0x3d6150d7	0.055008736
1	0xbed6560c	-0.41862524
2	0xbdb5098c	-0.088397115
3	0x3e48def6	0.19616303
4	0xbe042138	-0.12903297
5	0x3f232cee	0.6374043
6	0x3e27d71b	0.1639065
7	0x3e3f85da	0.18703404
8	0x3ca20a5e	0.019780334
9	0x3f368bdd	0.71307164
10	0x3e9184f2	0.28421742
11	0x3f03dd99	0.51510006
12	0x3ef21d75	0.472881
13	0x3f0e6938	0.556293
14	0xbd8b3547	-0.06797271
15	0xbe76bc17	-0.24095188
16	0x3eb91ec7	0.36156294
17	0x3f439d8a	0.7641226
18	0xbf7067f6	-0.9390863
19	0x3d38411a	0.04498396
20	0x3f68fb7d	0.9100874
21	0xbed30a2e	-0.41218704
22	0x3eec5aee	0.46163124
23	0xbde72a57	-0.112873726
24	0xbd08f83b	-0.033439856
25	0x3f6fbaec	0.93644595
26	0x3ebe7444	0.3719808
27	0x3e50dcc3	0.20396714
28	0x3e87c76a	0.26519328
29	0x3de46495	0.11151997
30	0xbe12dec3	-0.1434279
31	0xbda2ad7b	-0.07943245
32	0x3d13d77a	0.036094166
33	0xbdde7ec6	-0.10864024
34	0x3e10a1af	0.14124177
35	0x3cb22319	0.021745251
36	0xbe1e8aab	-0.15482585
37	0xbeb3488f	-0.35016295
38	0xbec87710	-0.39153337
39	0xbe540a9d	-0.20707174
40	0xbe9cb806	-0.3060915
41	0x3f565123	0.83717555
42	0x3eb77b32	0.35836178
43	0x3ed53172	0.41639286
44	0xbf348933	-0.7052185
45	0x3e6deaf4	0.23234159
46	0xbed178d9	-0.40912512
47	0xbecdc94d	-0.40192643
48	0x3ec4e081	0.38452533
49	0x3dee60cf	0.116395585
50	0xbe757597	-0.23970638
51	0x3e41e753	0.189359
52	0x3e3a8e8c	0.1821844
53	0x3e1bb349	0.1520511
54	0x3dabb26c	0.08383641
55	0x3f7878af	0.9705915
56	0x3cd0c868	0.025486186
57	0x3f0e50f8	0.555923
58	0x3d9dcee8	0.0770548
59	0xbef20d42	-0.4727574
60	0x3c1b484c	0.009477686
61	0xbebed29e	-0.37270063
62	0x3c6e9905	0.01456285
63	0xbf248bf4	-0.6427605
64	0x3ed79abe	0.42110246
65	0xbe2ff473	-0.17183094
66	0xbf739a4e	-0.95157325
67	0x3e6e0edd	0.23247857
68	0x3e9509ac	0.29108942
69	0xbf08b149	-0.53395516
70	0x3eac0ff9	0.33605936
71	0x3e04141f	0.128983
72	0x3e0ca253	0.13733797
73	0xbdd3edcd	-0.10348091
74	0x3e03877c	0.12844652
75	0x3ec45ecc	0.38353574
76	0x3ed8bc16	0.42330998
77	0xbe9f4d9b	-0.31113896
78	0xbe74f975	-0.23923285
79	0xbe8b1c5c	-0.27170074
80	0x3df29133	0.11844101
81	0xbe01dbd9	-0.12681521
82	0x3e5db41f	0.21650742
83	0x3dc96aab	0.098347984
84	0x3efae409	0.49002102
85	0xbf315dc2	-0.6928369
86	0x3ec9c5c4	0.39408696
87	0xbfb7bd3f	-1.4354628
88	0x3d69adc5	0.057050485
89	0x3de79621	0.11307932
90	0xbcc05253	-0.023476755
91	0xbe66812a	-0.2251021
92	0xbc8d85ef	-0.017275779
93	0x3f25a1ae	0.6469983
94	0x3ef4d400	0.47817993
95	0xbaa8dd81	-0.0012883396
96	0xbeda98d2	-0.42694718
97	0xbeef8c7c	-0.4678687
98	0xbedf92e8	-0.43666768
99	0x3e1bcb4f	0.15214275
100	0xbe5bbc38	-0.21458519
101	0x3b023d26	0.0019872873
102	0x3de9fcca	0.11425169
103	0xbea94b18	-0.33065104
104	0x3db3b83b	0.087753735
105	0x3e9b9253	0.30385074
106	0x3dcdfc8c	0.10057935
107	0xbf83b2a5	-1.0288893
108	0x3e7cd1d9	0.24689426
109	0x3cb56190	0.022141248
110	0xbdc2d5c9	-0.095134325
111	0xbea78cc0	-0.3272457
112	0xbeb34962	-0.35016924
113	0x3e0b1ba9	0.1358477
114	0xbf2556c2	-0.64585507
115	0x3eed0c49	0.46298435
116	0x3f0d3cf9	0.5517116
117	0xbee826d0	-0.45342112
118	0x3eede541	0.4646397
119	0xbf055a4d	-0.52090913
120	0x3f1c9056	0.6115774
121	0xbe6dbc3b	-0.23216335
122	0xbd48434c	-0.048892304
123	0xbf346dd4	-0.70480084
124	0xbbdb3e1a	-0.0066907527
125	0x3f800187	1.0000466
126	0x3e32c6c0	0.1745863
127	0x3bee7601	0.0072772508
128	0xbe18d16c	-0.14923638
129	0x3f2b1c29	0.66839844
130	0x3d7f5c3f	0.062343832
131	0xbe8d1600	-0.27555847
132	0x3ebb6d89	0.36607006
133	0x3f1bf940	0.609272
134	0x3eb92b00	0.3616562
135	0xbebf6b61	-0.3738661
136	0x3f2288f2	0.6349021
137	0x3c44c528	0.012009896
138	0x3c41a10e	0.011818184
139	0xbec41942	-0.3830052
140	0xbe461ef8	-0.19347751
141	0x3f18c9b5	0.5968278
142	0x3f4890a5	0.7834571
143	0x3c7f33a6	0.015576279
144	0xbf6e0ef4	-0.92991567
145	0x3e46e2e6	0.19422492
146	0x3eafada5	0.34312168
147	0x3e24124a	0.16022602
148	0xbf3997ba	-0.7249714
149	0xbe8119c2	-0.25214964
150	0x3e734588	0.23756993
151	0xbd7c810f	-0.061646517
152	0x3ec2065b	0.37895474
153	0xbe8398b7	-0.2570245
154	0x3ebae1b8	0.36500335
155	0xbe8e2674	-0.27763712
156	0xbe101efa	-0.14074317
157	0xbec318f9	-0.3810499
158	0xbeb6559c	-0.3561219
159	0xbe891128	-0.26770902
160	0xbf555cb9	-0.8334461
161	0xbeaf5cf6	-0.3425061
162	0x3f0751d1	0.52859217
163	0x3f2e13a6	0.6799873
164	0xbe546fca	-0.20745769
165	0xbe1ff8db	-0.15622275
166	0xbdd18ace	-0.10231553
167	0x3ebd76d3	0.37004718
168	0x3cd8d7f7	0.026470168
169	0x3d0e3a32	0.034723468
170	0x3e04200f	0.12902854
171	0xbf119559	-0.5686851
172	0xbef318f0	-0.47479963
173	0x3eb8d92b	0.36103186
174	0xbe897ea3	-0.2685443
175	0x3d682661	0.056677226
176	0xbdbbf026	-0.09176664
177	0xbd8c116c	-0.068392605
178	0xbe8f5caa	-0.28000385
179	0x3d540aa0	0.051767945
180	0x3cfa1beb	0.03053089
181	0x3e91fe7d	0.28514472
182	0x3c1307a3	0.008973989
183	0x3d55d553	0.052205395
184	0x3ebb1f73	0.3654743
185	0xbf1294e6	-0.5725845
186	0x3ec5704d	0.3856224
187	0xbe037d5e	-0.12840793
188	0x3f5cd051	0.86255366
189	0x3e78d14e	0.24298593
190	0xbea6d09b	-0.32581028
191	0xbe8543ae	-0.26028198
192	0xbdff07f8	-0.12452692
193	0xbf5ce720	-0.8629017
194	0x3e8d8399	0.27639464
195	0x3e3da237	0.18518911
196	0xbf1d9312	-0.61552536
197	0xbe5d0e32	-0.21587446
198	0x3eb7bf1b	0.3588799
199	0x3d165122	0.036698468
200	0x3ef5e487	0.48025915
201	0x3f8271aa	1.0190938
202	0x3eb5dc8a	0.3551982
203	0x3e969eaf	0.2941794
204	0x3eb170bb	0.3465632
205	0x3ee5eee5	0.44908825
206	0x3ecf2fc1	0.4046612
207	0xbeb9a5e9	-0.36259392
208	0x3f0f637d	0.5601118
209	0xbc6f3935	-0.014601042
210	0x3eb26fee	0.3485102
211	0xbf1c01ed	-0.6094044
212	0x3d78243c	0.06058143
213	0xbebba956	-0.3665263
214	0xbfa0effc	-1.2573237
215	0x3ef15842	0.47137648
216	0xbf4f9a5e	-0.8109492
217	0x3f709d91	0.9399043
218	0xbd9462fb	-0.072454415
219	0x3e88c4ba	0.2671259
220	0xbe532680	-0.20620155
221	0xbb164c23	-0.0022933565
222	0xbece309d	-0.40271464
223	0x3e27b1ca	0.16376415
224	0x3e017af3	0.12644558
225	0xbf133138	-0.57496977
226	0xbf3ffa33	-0.7499115
227	0xbca71071	-0.020393582
228	0x3e75f5aa	0.24019495
229	0xbe9714b0	-0.2950797
230	0x3ed9292c	0.42414224
231	0xbef0507c	-0.46936405
232	0x3d1ac53a	0.037785746
233	0x3e0bf14d	0.13666268
234	0x3f17a49b	0.59235543
235	0xbec405ce	-0.3828568
236	0x3f5815de	0.84408367
237	0x3e31e949	0.17374147
238	0xbd338f62	-0.043837912
239	0x3e7e02c3	0.24805741
240	0xbeccd5f1	-0.40006974
241	0xbde9a2b8	-0.11407989
242	0x3dcead67	0.100916676
243	0xbe6bdc8b	-0.23033349
244	0x3f14489d	0.579233
245	0xbe0e80fd	-0.13916393
246	0x3daa5a85	0.083180465
247	0xbed0e99c	-0.4080323
248	0x3e042969	0.12906422
249	0xbd3d68bf	-0.04624247
250	0xbe29833a	-0.16553965
251	0xbdea221f	-0.11432289
252	0xbed843ca	-0.4223922
253	0x3ea4b3ec	0.3216852
254	0x3f0b8da2	0.5451299
255	0x3ef6287c	0.48077762

gru.weight_hh_l1 f4 [96, 32]
0	0x3e9d0872	0.30670506
1	0x3eb67b4e	0.3564095
2	0x3ec9e6e2	0.39433962
3	0xbeab11cb	-0.33412012
4	0x3e6445a8	0.22292197
5	0xbe8a0319	-0.26955488
6	0xbf098127	-0.53712696
7	0xbf06dec2	-0.5268365
8	0x3e21e3e4	0.1580959
9	0xbeadc430	-0.33938742
10	0xbe1d1ec4	-0.15343767
11	0x3e576bad	0.21037169
12	0x3f30ef39	0.69115025
13	0xbf1d8511	-0.6153117
14	0x3f701e7f	0.93796533
15	0x3e310b9f	0.1728959
16	0xbed3cd31	-0.41367486
17	0x3e91cfca	0.28478843
18	0x3e6ec252	0.23316315
19	0x3e9ed501	0.31021884
20	0x3e6f07d9	0.23342837
21	0x3d2c4f84	0.04206802
22	0xbebe52e9	-0.3717263
23	0x3e1c536c	0.15266198
24	0xbed24c45	-0.41073814
25	0x3e951665	0.29118648
26	0x3e42337e	0.18964955
27	0xbe02c0ae	-0.12768814
28	0xbe9b9504	-0.30387127
29	0xbeab8ed4	-0.33507407
30	0x3e0d801e	0.13818404
31	0x3f0d2dfe	0.55148304
32	0xbe8aa65f	-0.27080056
33	0x3e98339e	0.2972688
34	0x3e43111d	0.19049497
35	0x3ea7e3c9	0.32790974
36	0xbe8ea00c	-0.2785648
37	0x3d817387	0.06320863
38	0xbd606dcb	-0.054792207
39	0xbe885de8	-0.26634145
40	0x3f0472b3	0.5173752
41	0xbfab1f95	-1.3369013
42	0xbe93c6ae	-0.28862518
43	0x3f0a0dc4	0.53927255
44	0x3ec87c9c	0.3915757
45	0xbddbecdc	-0.10738537
46	0x3f28f629	0.6600061
47	0xbe5bd01a	-0.21466103
48	0xbeb16199	-0.34644774
49	0xbe274c47	-0.16337691
50	0x3e01ae43	0.12664132
51	0x3f03d56a	0.5149752
52	0xbeae8925	-0.34089008
53	0xbefebeaa	-0.4975484
54	0xbb885018	-0.0041599385
55	0x3e166902	0.14688495
56	0x3eb288f8	0.34870124
57	0xbed3e4fc	-0.4138564
58	0xbbb9590b	-0.0056563667
59	0xbd735f93	-0.05941732
60	0xbdfecfd3	-0.12441983
61	0xbf46fc0c	-0.77728343
62	0x3f0ee051	0.5581103
63	0x3f4215bf	0.7581443
64	0xbd89a635	-0.067211546
65	0xbee2c9f8	-0.44294715
66	0x3e80fd13	0.2519308
67	0xbf05756f	-0.52132314
68	0x3d59fb50	0.053218186
69	0xbe53847a	-0.20656005
70	0xbef5293c	-0.47883022
71	0xbd7fdaef	-0.06246465
72	0xbf4827bc	-0.7818563
73	0xbe135706	-0.14388666
74	0xbf184344	-0.5947764
75	0xbe1d3860	-0.15353537
76	0x3e2736fc	0.16329569
77	0x3d3eb1ab	0.046556156
78	0xbd576aa1	-0.052591924
79	0xbc09c2aa	-0.008408228
80	0x3e50a87d	0.20376773
81	0x3f18f010	0.59741306
82	0x3dbbc889	0.091691084
83	0x3ef99caf	0.48752353
84	0x3e463cd0	0.19359136
85	0x3e8dee32	0.2772079
86	0x3ecc3687	0.3988535
87	0xbd0381ea	-0.032106318
88	0x3f091e7d	0.53562146
89	0x3e385b00	0.18003464
90	0xbe6765d6	-0.22597441
91	0xbe399c37	-0.18125997
92	0x3ea238f1	0.31684068
93	0x3f2d06bf	0.6758842
94	0xbeac7439	-0.3368242
95	0xbeb69d17	-0.35666725
96	0xbddd5583	-0.10807326
97	0xbe6d5ad7	-0.23179184
98	0xbe6f921b	-0.23395579
99	0xbf14f14f	-0.5818071
100	0x3f043ad5	0.5165227
101	0x3ed0aa04	0.40754712
102	0xbee3dd14	-0.44504607
103	0x3d92cedf	0.07168364
104	0x3e2c7b07	0.16843806
105	0xbf8c5a8b	-1.0965132
106	0xbe316096	-0.17322001
107	0xbe5a85d9	-0.21340121
108	0x3ecd9950	0.4015603
109	0x3ea1df89	0.31615856
110	0x3f34dbe3	0.7064802
111	0x3e169a40	0.14707279
112	0xbe806e1d	-0.2508401
113	0x3e350b7b	0.1768016
114	0x3f0febc5	0.5621913
115	0xbdc19b53	-0.09453454
116	0x3f0367db	0.51330346
117	0x3dea4d62	0.11440541
118	0x3d96c63f	0.07362031
119	0xbea15766	-0.31511992
120	0x3f66d2f0	0.90165615
121	0x3cd018e0	0.025402486
122	0x3de64294	0.112431675
123	0x3e7f5017	0.24932896
124	0x3f2cffbc	0.6757772
125	0x3e9edfce	0.31030124
126	0x3ebccfbd	0.36877242
127	0x3d403095	0.04692133
128	0xbf068242	-0.5254251
129	0x3dfc4ecc	0.12319717
130	0x3e356df2	0.17717722
131	0xbd1da726	-0.038489483
132	0xbced832f	-0.028993217
133	0x3dfc07b1	0.123061545
134	0x3f078ddc	0.52950835
135	0x3f29ebdf	0.66375536
136	0xbe0d26be	-0.1378431
137	0x3dc118dd	0.094285704
138	0x3e783db9	0.24242295
139	0x3e00d514	0.12581283
140	0xbf84762b	-1.0348562
141	0x3da5ac9b	0.080895625
142	0xbcc116e4	-0.023570485
143	0xbf039239	-0.51394993
144	0xbe49f329	-0.19721664
145	0xbd08f1a9	-0.03343359
146	0xbe48b7eb	-0.19601409
147	0x3f0e37a5	0.55553657
148	0xbeec6af8	-0.4617536
149	0x3ec4901f	0.38391206
150	0xbcff30b5	-0.031151155
151	0x3ead12eb	0.33803496
152	0x3f3537d5	0.7078832
153	0xbe76a958	-0.24088037
154	0x3e372b0c	0.17887515
155	0xbe35f145	-0.17767818
156	0xbce6547e	-0.02811646
157	0x3e35216b	0.17688529
158	0x3e286f7d	0.1644878
159	0xbf1ef746	-0.6209606
160	0xbe67f407	-0.22651683
161	0xbe37af48	-0.17937958
162	0x3e89fbb8	0.2694986
163	0xbe5f15d7	-0.21785675
164	0x3f254b3f	0.6456794
165	0x3dcf0440	0.101082325
166	0x3f340936	0.70326555
167	0xbe574b7a	-0.21024886
168	0x3e6e2e92	0.23259953
169	0xbeac8c91	-0.33700994
170	0x3c97518a	0.018471498
171	0x3e5b6eb0	0.21428943
172	0x3d63b822	0.055595525
173	0xbee614e5	-0.44937816
174	0x3e8f60bd	0.28003493
175	0xbf32de2b	-0.6987025
176	0xbd4200f9	-0.04736421
177	0xbdaf99df	-0.085742705
178	0x3e3485ed	0.17629214
179	0xbcbd254d	-0.023089075
180	0x3ea048a4	0.3130542
181	0x3d50faf4	0.051020578
182	0xbf193614	-0.5984814
183	0xbf5bcab7	-0.85856193
184	0x3ebd87c7	0.37017652
185	0xbde5d8a8	-0.112229645
186	0x3da70279	0.081547685
187	0xbd318879	-0.04334304
188	0xbd957464	-0.072975904
189	0xbf034679	-0.5127941
190	0x3db5631d	0.08856795
191	0x3e74bb26	0.23899516
192	0xbb8f8647	-0.004380021
193	0x3ea49a14	0.32148802
194	0xbeb02862	-0.3440581
195	0xbe7cf6f6	-0.24703583
196	0xbe6cc16f	-0.23120664
197	0xbe962234	-0.2932297
198	0x3e543cc0	0.207263
199	0xbe066503	-0.1312447
200	0x3ea06b46	0.31331843
201	0xbf50e023	-0.81592005
202	0xbda5cbff	-0.0809555
203	0xbbbd140b	-0.0057702116
204	0x3f053d20	0.52046394
205	0xbe5bc628	-0.2146231
206	0x3d6085aa	0.054814972
207	0xbf04e5e7	-0.51913303
208	0xbef7568a	-0.48308212
209	0x3d0b0890	0.033943713
210	0x3e978946	0.2959692
211	0xbeb20f05	-0.34777084
212	0x3d8c801e	0.06860374
213	0xbf0e951e	-0.55696285
214	0xbe1640f0	-0.14673209
215	0x3a1dd435	0.0006020696
216	0x3e686f40	0.22698689
217	0xbedca9d8	-0.4309833
218	0x3d519635	0.05116864
219	0xbd8caf13	-0.0686933
220	0x3d983a0d	0.07432947
221	0xbe14f178	-0.14545238
222	0x3f0e539a	0.55596316
223	0xbcfdee04	-0.030997284
224	0x3e95f9eb	0.29292235
225	0x3e47069e	0.19436118
226	0xbed07331	-0.40712884
227	0x3ebc3def	0.36766002
228	0x3ed4d953	0.41572055
229	0xbeb97a12	-0.36225945
230	0x3ebc0636	0.3672349
231	0x3f4299f9	0.76016194
232	0xbe195210	-0.1497271
233	0xbe2fff46	-0.17187223
234	0x3eb5e437	0.35525677
235	0xbf485c5c	-0.7826593
236	0xbedb19bf	-0.4279308
237	0x3fa043fc	1.2520747
238	0xbf33feaa	-0.7031046
239	0xbe1e7c89	-0.15477194
240	0x3ea9217a	0.33033353
241	0x3ecad545	0.39615837
242	0xbf0a1839	-0.5394321
243	0xbf0b0bc7	-0.54314846
244	0xbbbc8bf9	-0.0057539907
245	0xbe8761be	-0.2644176
246	0x3ea29b75	0.3175923
247	0xbe9c7c30	-0.30563498
248	0xbe28446e	-0.16432354
249	0xbc080a6b	-0.008303265
250	0xbe733386	-0.23750123
251	0xbed6a1cb	-0.41920313
252	0x3e8aaac5	0.27083412
253	0x3e51f3f0	0.20503211
254	0xbef9d728	-0.48796964
255	0xbf0f47b9	-0.55968815

gru.bias_ih_l1 f4 [96]
0	0xbf127b52	-0.5721942
1	0xbe9f4c49	-0.31112888
2	0x3d361f6d	0.044463564
3	0xbdbab7ec	-0.091171116
4	0xbe1a9d5e	-0.15099093
5	0xbd819b0c	-0.06328401
6	0xbe1020ee	-0.14075062
7	0xbe8b3547	-0.27189085
8	0xbd865044	-0.06558278
9	0xbf6db96c	-0.92861056
10	0xbefa30a2	-0.4886523
11	0xbe239ebf	-0.15978526
12	0xbf76caca	-0.9640318
13	0xbedf058a	-0.43558913
14	0xbed12994	-0.40852034
15	0xbf13a454	-0.5767262
16	0xbed1c435	-0.40970007
17	0xbef17974	-0.47162974
18	0xbf2d8771	-0.6778479
19	0xbf177e1b	-0.59176797
20	0x3e288a6c	0.16459054
21	0xbe467865	-0.19381864
22	0x3cfbe8d7	0.030750675
23	0xbeb588d2	-0.35455948
24	0xbe03af31	-0.12859799
25	0xbea486b9	-0.32134035
26	0xbe132605	-0.14369972
27	0xbf328fa1	-0.6975041
28	0xbf19b668	-0.60043955
29	0xbf109d75	-0.5649026
30	0xbf1145c1	-0.5674706
31	0xbeaccf0f	-0.33751723
32	0xbd127353	-0.035754513
33	0xbe20387c	-0.15646547
34	0xbe378691	-0.17922427
35	0xbdc8319c	-0.09775087
36	0xbe73ac7a	-0.23796263
37	0x3e40d9e9	0.18833126
38	0xbe53732b	-0.20649402
39	0x3f0d69c6	0.5523952
40	0xbd9c311f	-0.076265566
41	0x3e157d7a	0.14598647
42	0xbf2d0aca	-0.6759459
43	0x3de4798e	0.11155997
44	0x3d999e71	0.075009234
45	0xbe9cd80c	-0.3063358
46	0x3ebb58e7	0.36591265
47	0xbe14dfb7	-0.14538465
48	0xbd23fdb4	-0.040036872
49	0x3f1ecf7d	0.6203535
50	0xbd416946	-0.047219537
51	0x3dfcf08b	0.123505674
52	0x3e6173de	0.22016856
53	0xbda06687	-0.078320555
54	0x3e9d2669	0.30693367
55	0xbef1bfe4	-0.47216713
56	0xbf1c6f53	-0.6110737
57	0xbe9b6b03	-0.3035508
58	0x3d8c24ce	0.068429574
59	0xbe5f76b5	-0.21822627
60	0x3d9cc892	0.07655443
61	0xbf177abb	-0.59171647
62	0x3eb8785d	0.3602933
63	0xbdab2585	-0.08356766
64	0x3dd0e789	0.10200412
65	0x3ddfd877	0.10929959
66	0xbd28c5b6	-0.041204177
67	0x3dfeb7b6	0.12437384
68	0xbd89c838	-0.06727642
69	0xbcbb0921	-0.022831501
70	0x3db0e9fb	0.08638378
71	0x3d431f2c	0.04763715
72	0x3da356fe	0.07975577
73	0x3d1a0659	0.03760371
74	0x3d412ae7	0.047160055
75	0x3e34d088	0.17657673
76	0xbe45dfdb	-0.19323675
77	0x3e4bc172	0.19898012
78	0xbd419f43	-0.047271024
79	0x3e6d9023	0.23199515
80	0x3d22ba76	0.039728604
81	0x3cb74272	0.02237055
82	0xbb369005	-0.0027856838
83	0x3dc43f66	0.09582405
84	0xbd7a472e	-0.06110304
85	0xbc39df4e	-0.011344744
86	0xbc08eac5	-0.008356755
87	0xbe20b4b4	-0.15693933
88	0xbd5ba978	-0.053628415
89	0x3dfd5322	0.12369372
90	0xbd9e3a57	-0.07725971
91	0x3e047cdf	0.1293826
92	0xbd4f090a	-0.05054573
93	0xbda45d4b	-0.08025607
94	0x3de8aa87	0.113606505
95	0x3da448d6	0.08021705

gru.bias_hh_l1 f4 [96]
0	0xbf1b6199	-0.606958
1	0xbf003b4e	-0.5009049
2	0xbdb1bed2	-0.08678974
3	0xbe2e6b30	-0.17033076
4	0xbee48ddf	-0.4463949
5	0xbc0c7074	-0.008571733
6	0xbeca8d55	-0.39560953
7	0xbeecc4e9	-0.4624398
8	0xbe340dc0	-0.1758337
9	0xbf4c021c	-0.7969072
10	0xbf03c006	-0.5146488
11	0xbe40e27e	-0.188364
12	0xbf68669e	-0.9078158
13	0xbe993d2b	-0.2992948
14	0xbee8b904	-0.45453656
15	0xbf31d841	-0.694706
16	0xbeb5c83d	-0.35504332
17	0xbefd5f2c	-0.49486673
18	0xbf026e29	-0.5094934
19	0xbefd45ba	-0.4946726
20	0x3e6ae464	0.22938687
21	0x3dfcb507	0.12339216
22	0xbdc95e4e	-0.0983244
23	0xbec86e91	-0.39146855
24	0xbe1d5586	-0.15364656
25	0xbec250e7	-0.3795235
26	0xbe39240a	-0.18080154
27	0xbf04661f	-0.51718324
28	0xbecd2dcc	-0.40074003
29	0xbf09f52f	-0.53889745
30	0xbf117486	-0.56818426
31	0xbed6e626	-0.41972464
32	0x3e0738ea	0.13205305
33	0xbd55d227	-0.05220237
34	0xbe889a35	-0.2668015
35	0xbe8f3f87	-0.27978155
36	0xbea85c37	-0.32882854
37	0x3dd91229	0.10599167
38	0xbe8fc71e	-0.28081602
39	0x3f41bdd7	0.756803
40	0xbe82f1c0	-0.25575066
41	0x3db2acfa	0.08724399
42	0xbf004f8d	-0.50121385
43	0xbdedfa44	-0.1162
44	0xbcd442a2	-0.02591068
45	0xbeb6b0a6	-0.35681647
46	0x3d569b30	0.052394092
47	0x3d943928	0.07237464
48	0xbe2f0d56	-0.17094931
49	0x3f1e6785	0.6187671
50	0xbdcfc0d1	-0.10144199
51	0xbd8a728a	-0.06760128
52	0x3e468fb7	0.1939076
53	0xbe17d0b8	-0.14825714
54	0x3e2b3ae1	0.1672168
55	0xbf27f574	-0.65608907
56	0xbf58c593	-0.84676474
57	0xbe10e3a6	-0.14149341
58	0x3e155cf5	0.14586242
59	0xbeb13d82	-0.3461724
60	0x3da64cfe	0.08120154
61	0xbec227bb	-0.37920937
62	0x3e8fb61e	0.28068632
63	0xbdb1fb83	-0.0869055
64	0x3e73009a	0.23730698
65	0xbd4080b0	-0.046997726
66	0x3d6e476a	0.058173575
67	0x3e2b5985	0.16733368
68	0x3dd02630	0.10163534
69	0x3c468dbd	0.012118754
70	0x3dec6288	0.11542231
71	0x3d30e610	0.043188155
72	0x3d7cda31	0.06173152
73	0xbd0cf5ec	-0.034414217
74	0xbdfb8c4d	-0.122826196
75	0x3de8a338	0.113592565
76	0xbdeee651	-0.11665023
77	0x3e41cb55	0.18925221
78	0x3d9e3804	0.07725528
79	0x3d2d6e34	0.042341426
80	0x3df246ea	0.11829932
81	0xbcdc0fe8	-0.026863053
82	0xbd7669ef	-0.06015962
83	0xbddb9dfd	-0.10723493
84	0xbe110764	-0.14162976
85	0xbcb5b959	-0.022183107
86	0x3e030c81	0.12797739
87	0x3d9e0da7	0.07717448
88	0x3d32efda	0.04368577
89	0xbdea3dba	-0.11437555
90	0xbba72972	-0.005101376
91	0xbe21c4f5	-0.1579779
92	0x3e3630c8	0.17792046
93	0xbcec09d4	-0.02881328
94	0xbd2e8124	-0.042603627
95	0xbde36ad0	-0.11104357

linear.weight f4 [15, 32]
0	0xc0205daf	-2.505718
1	0x400c9a29	2.1969092
2	0xc01c3af6	-2.4410987
3	0x4007e9c4	2.123643
4	0xc0298080	-2.648468
5	0xc03caf99	-2.9482176
6	0xbf88fb15	-1.0701624
7	0x3fe33681	1.7751008
8	0xbfe25394	-1.7681756
9	0x40264f94	2.598607
10	0xc0076496	-2.1155143
11	0xc035fc21	-2.8435137
12	0xbf8a0206	-1.0781868
13	0x3fef6813	1.8703636
14	0xc02e5034	-2.7236452
15	0x400f1849	2.2358572
16	0x402c97f2	2.696774
17	0x4033c278	2.8087444
18	0xc0389a49	-2.8844168
19	0xc02276d8	-2.5385036
20	0xc0172803	-2.3618171
21	0x3fb0e2c3	1.3819202
22	0x4023e254	2.560689
23	0x40123b0d	2.2848542
24	0xc01148ba	-2.2700639
25	0x40363678	2.8470745
26	0xbfb2dd60	-1.3973808
27	0xc02adc1e	-2.669685
28	0x40046a41	2.0689852
29	0x40107a4e	2.257465
30	0xc0020208	-2.031374
31	0xbf81e256	-1.0147197
32	0x3ff76bf1	1.9329816
33	0xc05c44ac	-3.4416914
34	0xc04cb1ec	-3.1983595
35	0xc033ceff	-2.809509
36	0x402e2340	2.7209015
37	0xc0075cae	-2.1150317
38	0xbf645f54	-0.8920796
39	0xc041916f	-3.0245016
40	0xc02e8b04	-2.7272348
41	0x4016f83c	2.358901
42	0x3ffbe440	1.9679031
43	0xc0224c0b	-2.5358913
44	0x4015204f	2.330097
45	0xc06205c8	-3.5316029
46	0xc01b0b3b	-2.4225605
47	0xc037abc9	-2.86986
48	0x3fcfbfdd	1.6230427
49	0x3fd4b3bd	1.6617352
50	0x40308ec7	2.7587144
51	0x3fdf9d06	1.7469795
52	0x407145e1	3.76989
53	0xc0336e7e	-2.803619
54	0x4037c30b	2.8712795
55	0xc010e829	-2.26417
56	0x3ffd2479	1.9776756
57	0xc03310bc	-2.7978964
58	0x401a9582	2.4153752
59	0x404024b9	3.0022414
60	0xc0160325	-2.343942
61	0x4037121c	2.8604803
62	0xbfe843b4	-1.8145661
63	0xc0309dbe	-2.7596278
64	0xc0266fc8	-2.6005726
65	0x402f7d27	2.7420137
66	0xc0372131	-2.8614008
67	0x40016356	2.021688
68	0xc03ab82d	-2.9174912
69	0x403125d6	2.7679343
70	0xc00ceb39	-2.2018569
71	0xc02c07ff	-2.687988
72	0x4023b0e7	2.5576723
73	0xc02d4bc2	-2.707749
74	0xc027c6d4	-2.6215105
75	0x4000114c	2.0010557
76	0x4035d6f2	2.8412442
77	0xc01588b9	-2.33647
78	0x4011149c	2.266883
79	0x401201ef	2.281368
80	0xc03f2b10	-2.9870033
81	0xbfeae9c2	-1.8352587
82	0x4027ca17	2.6217096
83	0x40078f24	2.1181116
84	0xc02bc77f	-2.6840513
85	0xc038f45a	-2.889914
86	0x404536d3	3.0814712
87	0x40458802	3.0864263
88	0x3f77998e	0.9671868
89	0xc029d2ac	-2.6534834
90	0x4041d067	3.0283449
91	0x403ba8df	2.932182
92	0x3fe5b4b7	1.7945775
93	0xbfa3b4ad	-1.2789513
94	0x40478dee	3.1180377
95	0x3ff82c8d	1.9388596
96	0x3ef7ed66	0.48423308
97	0x4072433a	3.7853532
98	0x4090e6a2	4.5281534
99	0xbf98aad8	-1.1927137
100	0x4022844a	2.5393243
101	0xc02283a4	-2.5392847
102	0xc0401734	-3.0014162
103	0xbf5b56d5	-0.8567937
104	0xbfc79045	-1.5590903
105	0x3ef50671	0.47856477
106	0xbf63644c	-0.88824916
107	0x3f7daba4	0.9909003
108	0x3fcf4cfc	1.6195369
109	0x4009b828	2.151865
110	0x4014b35d	2.3234475
111	0xbf0859f8	-0.5326228
112	0x403a436c	2.910365
113	0x4023445a	2.5510468
114	0xbfad4469	-1.3536502
115	0x402d8c75	2.7116978
116	0xc000f0e7	-2.0147035
117	0xbfe0210c	-1.7510085
118	0x3dd5a726	0.10432272
119	0x404feee9	3.248957
120	0x401b1560	2.4231796
121	0xc0245ef3	-2.5682952
122	0x40057a23	2.0855796
123	0xbfd39096	-1.6528499
124	0xc0624211	-3.5352824
125	0xc063b426	-3.5578704
126	0xc017f0c7	-2.374071
127	0xbffca19c	-1.9736819
128	0x3fc4bd05	1.5370184
129	0xc06d43d1	-3.7072642
130	0xbfc9aa16	-1.5755031
131	0x3ede21f2	0.43385273
132	0xbfd6d75e	-1.6784475
133	0x3fc28f03	1.5199894
134	0xc07a991b	-3.9155948
135	0x405e2b2b	3.4713848
136	0xc055d037	-3.3408334
137	0xbff8a94e	-1.9426668
138	0xc0756a44	-3.834611
139	0x402d09cd	2.7037232
140	0x4078c90c	3.887271
141	0x3fab784a	1.3396084
142	0xbf54d4cf	-0.8313722
143	0xbf52b8ab	-0.8231303
144	0xbcc7e56c	-0.024401389
145	0x3f8d9f13	1.1064171
146	0xbdb60dc3	-0.088893436
147	0xbdb6140a	-0.08890541
148	0x3ff93050	1.9467869
149	0xbe3c8f16	-0.18413958
150	0x3f906b38	1.128272
151	0xc07b0064	-3.9218988
152	0x405dd0a9	3.4658606
153	0x3fca954a	1.582681
154	0x408061f5	4.0119576
155	0x3f3046df	0.6885814
156	0x3ff930fa	1.9468071
157	0x403e5c83	2.9743965
158	0xc03d64b1	-2.9592707
159	0x40867491	4.2017293
160	0x40101d44	2.2517862
161	0xc0144214	-2.316533
162	0x3ff89946	1.9421775
163	0xc0102b0d	-2.2526276
164	0x403aa79d	2.9164803
165	0x402db6c5	2.7142804
166	0x40707853	3.757344
167	0x4034b5ef	2.8236043
168	0x404228df	3.0337446
169	0xc01b17ad	-2.42332
170	0x402b7ab2	2.6793637
171	0xc0347c6a	-2.8200936
172	0xc02af2f1	-2.671078
173	0x4023c0cd	2.5586426
174	0xbf0cb540	-0.54964066
175	0xc03bd632	-2.9349484
176	0xc055ea1a	-3.3424134
177	0x3fcbf934	1.5935426
178	0x3ff1822b	1.8867849
179	0xc042f611	-3.0462687
180	0x40084200	2.1290283
181	0x3fe5bae9	1.7947665
182	0xc039f3c4	-2.9055033
183	0x405e52cd	3.4738038
184	0x40275ca5	2.6150296
185	0x400db132	2.2139401
186	0xc007a745	-2.1195843
187	0xc00fc191	-2.2461894
188	0x4007a248	2.1192799
189	0x40492fcb	3.143542
190	0xbe633edc	-0.22191948
191	0xc01b5b2b	-2.4274395
192	0x4067e97a	3.6236253
193	0x40205f50	2.5058174
194	0xc0085691	-2.1302836
195	0x4025b353	2.58907
196	0x4027cf20	2.622017
197	0xc0151944	-2.329667
198	0x402c092e	2.6880603
199	0xbf2df2a8	-0.6794839
200	0x3fe6db45	1.8035666
201	0x40388294	2.8829699
202	0x40329e66	2.7909179
203	0x3fe88bbe	1.8167646
204	0x3f3db40b	0.7410285
205	0x4023b5fe	2.557983
206	0xc010782b	-2.2573345
207	0x3f959f31	1.1689206
208	0x4014f8fc	2.3276968
209	0xc049090b	-3.141177
210	0xc049a409	-3.150637
211	0xc0121659	-2.282614
212	0xc023ad29	-2.5574439
213	0xc0061059	-2.0947478
214	0xc04d02a8	-3.2032871
215	0xc023460c	-2.5511503
216	0xc03e6a5e	-2.9752421
217	0xc01f76d0	-2.4916267
218	0x401612f7	2.3449075
219	0x4031ba74	2.7770052
220	0xc00c8e1d	-2.196174
221	0xc0153b37	-2.3317392
222	0x4041b3b1	3.0265925
223	0x4017bf88	2.3710651
224	0xc03cd2d1	-2.9503672
225	0xc00ab8a2	-2.167519
226	0xc01f267d	-2.4867241
227	0x403e2f42	2.9716344
228	0x4022156d	2.5325577
229	0x402c96f6	2.696714
230	0x403fb88d	2.995639
231	0x3ff525b4	1.9152131
232	0xc02bb211	-2.6827433
233	0xbfe48b41	-1.7854997
234	0x40514db3	3.2703674
235	0x405d3cd6	3.4568381
236	0xc0345a4d	-2.8180115
237	0x401c0711	2.4379313
238	0xc036b58d	-2.854831
239	0xc06d4a54	-3.7076616
240	0xc0109319	-2.2589781
241	0xc04040aa	-3.0039468
242	0xbf8177b4	-1.0114655
243	0x403f21ba	2.9864335
244	0x3f6c21a4	0.9223883
245	0xc0258f24	-2.5868616
246	0x40355fb3	2.833966
247	0xc02f2ef9	-2.737242
248	0x403177d9	2.77294
249	0xc0374aa7	-2.8639314
250	0xc00b6d4a	-2.1785455
251	0x3f934699	1.150592
252	0x4019226a	2.3927255
253	0xc0315f8f	-2.7714574
254	0x3fc00ed9	1.5004531
255	0xbfe48498	-1.7852964

linear.bias f4 [15]
0	0x3f3b7d8b	0.7323844
1	0xbe166354	-0.14686328
2	0x3e4eea23	0.20206504
3	0x3f36c42a	0.7139307
4	0x3e009f08	0.12560666
5	0x3db07ce9	0.08617575
6	0xbdc22674	-0.094799906
7	0xbd17a2d8	-0.037020534
8	0xbea4c0f8	-0.32178473
9	0xbf00c0ab	-0.5029399
10	0x3d983dc3	0.07433655
11	0xbd0b6c38	-0.034038752
12	0xbe9e8847	-0.30963346
13	0xbde4f788	-0.11180025
14	0x3ef8f8ea	0.48627406

attention.context f4 [198, 198]
0	0x3e508abd	0.20365424
1	0x3e3dfc8b	0.18553369
2	0x3e2d1284	0.16901594
3	0x3eb569ba	0.35432225
4	0x3ef8dbf2	0.48605305
5	0x3efcfbe7	0.49410936
6	0x3ecc4855	0.39898935
7	0x3f14593c	0.5794866
8	0x3f1e40d7	0.6181769
9	0x3f2c47b7	0.6729693
10	0x3f107a88	0.5643697
11	0x3f2ec770	0.6827307
12	0x3f0a606a	0.54053366
13	0x3f1719b4	0.59023595
14	0x3f15cd1b	0.5851609
15	0x3f2c53ff	0.6731567
16	0x3f2d8aaa	0.6778971
17	0x3ec296a2	0.3800555
18	0x3eb49d0b	0.35276064
19	0x3eb7052b	0.3574613
20	0x3e3aab51	0.18229415
21	0x3eaf3b7f	0.3422508
22	0x3e838c50	0.25692987
23	0x3e090ce5	0.13383825
24	0x3e79ff9e	0.24413916
25	0x3e99a124	0.30005753
26	0x3e6f0679	0.23342313
27	0x3eae70a3	0.3407031
28	0x3e563ebe	0.20922372
29	0x3e122520	0.14271975
30	0x3ea92ff0	0.33044386
31	0x3e062983	0.13101773
32	0x3dda3f13	0.10656562
33	0x3e759b4e	0.23985025
34	0x3de79351	0.11307395
35	0x3dfbedb1	0.123011954
36	0xbd49e32a	-0.049288906
37	0xbc4be8be	-0.012445627
38	0xbddf8d5d	-0.10915635
39	0x3c972699	0.018451022
40	0xbe0fdd91	-0.14049365
41	0xbc5ed538	-0.01360064
42	0xbd1adc4c	-0.037807748
43	0x3c62ef60	0.013851017
44	0x3d0e2f05	0.03471281
45	0x3c8c7da8	0.017149761
46	0xbe2368f4	-0.15958005
47	0xbd6dfb47	-0.058100965
48	0xbe563f82	-0.20922664
49	0xbe304019	-0.17211951
50	0xbd866e1d	-0.06563971
51	0xbe23b850	-0.15988278
52	0xbd37a782	-0.044837482
53	0xbda35b71	-0.079764254
54	0xb87dcb0f	-6.0509014e-05
55	0xbe1ee828	-0.15518248
56	0xbd3663a3	-0.044528615
57	0xba9de133	-0.0012045264
58	0xbe443db8	-0.19164169
59	0xbe859301	-0.26088718
60	0xbe6971d7	-0.22797333
61	0xbe58d7d4	-0.21176082
62	0xbd090124	-0.033448353
63	0xbd9b3b13	-0.07579627
64	0xbe8e43c7	-0.27786085
65	0xbed4c615	-0.41557375
66	0xbed00ad2	-0.40633255
67	0xbef1e4e1	-0.47244933
68	0xbeb88caf	-0.36044833
69	0xbed65886	-0.41864413
70	0xbed73e1a	-0.42039567
71	0xbed1e48f	-0.4099469
72	0xbe90c55f	-0.28275582
73	0xbe22d17b	-0.15900223
74	0xbcfd03c3	-0.030885583
75	0xbe3e863e	-0.18605897
76	0xbe9e7d9d	-0.3095521
77	0xbe871b58	-0.2638805
78	0xbede4de2	-0.43418795
79	0xbe8e0b80	-0.2774315
80	0xbf0e1cb1	-0.5551253
81	0xbeea8bfe	-0.4580993
82	0xbeb8baea	-0.36080104
83	0xbe743525	-0.23848398
84	0xbe80f735	-0.25188604
85	0xbe90e8c4	-0.28302586
86	0xbe4688c7	-0.19388114
87	0xbe77931f	-0.24177216
88	0xbe1ca216	-0.15296206
89	0xbe0dbbff	-0.13841246
90	0xbdacf8d6	-0.08445899
91	0xbe942d68	-0.28940892
92	0xbe54a1a9	-0.20764793
93	0xbea64947	-0.3247778
94	0xbe4c6fe0	-0.19964552
95	0xbeb16e27	-0.34654352
96	0xbee4248c	-0.44559133
97	0xbed620ef	-0.41822
98	0xbed92809	-0.42413357
99	0xbebcf3f8	-0.36904883
100	0xbf0ee6a7	-0.558207
101	0xbefb8b57	-0.49129745
102	0xbea7c323	-0.32766065
103	0xbe82fc17	-0.25582954
104	0xbee60164	-0.44922936
105	0xbed2d552	-0.41178375
106	0xbe62c64d	-0.22145958
107	0xbe61467a	-0.21999541
108	0xbe8c229f	-0.27370164
109	0xbed39bb5	-0.41329733
110	0xbe49025e	-0.1962981
111	0xbe93b05d	-0.28845492
112	0xbdca8e31	-0.09890402
113	0xbdd1ad7a	-0.10238166
114	0xbe36d966	-0.17856368
115	0xbc2f43ae	-0.010697288
116	0xbdcab919	-0.09898586
117	0xbe887432	-0.2665115
118	0xbd5c474a	-0.053778924
119	0xbe519071	-0.20465256
120	0xbe6253de	-0.22102305
121	0xbe69dcd2	-0.22838143
122	0xbd8620ee	-0.065492496
123	0xbd734137	-0.059388366
124	0xbcaa2325	-0.020768711
125	0xbdcdd4ab	-0.10050329
126	0xbc3bd4f5	-0.011464347
127	0x3db32a6c	0.08748326
128	0x3d406668	0.046972662
129	0xbd8027be	-0.0625758
130	0x3c8268ee	0.015919175
131	0xbdad6788	-0.08467013
132	0xbde5628f	-0.11200439
133	0xbe4a7db3	-0.19774513
134	0xbd925879	-0.07145781
135	0xbe8afab6	-0.27144402
136	0xbeb2cd6b	-0.34922346
137	0xbe93f71d	-0.2889947
138	0xbeb1e350	-0.34743738
139	0xbe55199c	-0.2081055
140	0xbda432c8	-0.08017498
141	0xbe62276b	-0.2208535
142	0xbe71863a	-0.2358636
143	0xbe5fedf9	-0.21868123
144	0xbcb59864	-0.022167392
145	0xbd1324fa	-0.035923935
146	0xbe2cd65d	-0.16878648
147	0x3c9618b9	0.018322336
148	0xbd3cecd0	-0.04612428
149	0x3d9d427e	0.07678698
150	0x3e7b70f1	0.24554802
151	0x3e8301d6	0.25587338
152	0x3e74d2ac	0.2390849
153	0xbd953a38	-0.07286495
154	0xbe1a1abf	-0.15049265
155	0xbe43ca91	-0.19120242
156	0xbe5606fa	-0.20901099
157	0xbe101159	-0.14069118
158	0xbddec41c	-0.10877249
159	0x3d653326	0.055956982
160	0x3d947107	0.07248121
161	0x3d5a4193	0.053285193
162	0x3d11a00d	0.035553027
163	0x3d15fdef	0.036619123
164	0xbaa15c26	-0.0012310788
165	0xbe8af23d	-0.27137938
166	0xbe191d6c	-0.1495263
167	0xbe30faea	-0.17283216
168	0xbe1cb4ea	-0.15303388
169	0xbdbf535f	-0.09342074
170	0xbcb34db4	-0.021887638
171	0xbdca29d0	-0.09871256
172	0xbd292892	-0.041298456
173	0x3dd27a56	0.1027724
174	0x3de50752	0.11183037
175	0xbddb1443	-0.10697224
176	0xbded2ed9	-0.11581201
177	0xbde62b6e	-0.11238752
178	0xbda19885	-0.07890419
179	0xbd4a0992	-0.049325533
180	0x3d976a93	0.07393374
181	0x3d9480a1	0.072510965
182	0x3c91b12d	0.01778468
183	0x3e53cc1b	0.20683329
184	0x3da8236e	0.08209883
185	0x3e05059e	0.12990424
186	0x3e1aa084	0.15100294
187	0x3e0253cf	0.12727283
188	0xbd537e61	-0.051634196
189	0x3c72bb40	0.014815152
190	0xbdc0715c	-0.093966216
191	0xbccfea60	-0.025380313
192	0xbe52b9a2	-0.20578626
193	0xbe51d453	-0.20491152
194	0x3a601e2e	0.0008549419
195	0xbc5571c6	-0.013027614
196	0xbd773071	-0.06034893
197	0xbcafdf04	-0.021468647
198	0xbc4e6d3b	-0.012599285
199	0xbc90638d	-0.017625595
200	0xbe0cbcc2	-0.1374388
201	0xbd91715e	-0.07101701
202	0x3d9ba7dd	0.07600377
203	0x3e037720	0.12838411
204	0x3e735550	0.23763013
205	0x3d5dd2ca	0.054156102
206	0x3cda0d6c	0.026617728
207	0x3e0a63b2	0.13514593
208	0x3d8168ee	0.06318842
209	0x3e07e7b2	0.13271978
210	0x3e11fbe9	0.14256252
211	0x3de0447b	0.109505616
212	0x3db9dab3	0.09074917
213	0x3df3720c	0.11886987
214	0xbdc0aecc	-0.0940834
215	0x3ccdcadf	0.02512115
216	0x3cfab2c5	0.030602822
217	0xbcef694f	-0.02922502
218	0x3d729781	0.059226517
219	0xbd42edfd	-0.047590245
220	0xbe27df09	-0.16393675
221	0x3d75b2d5	0.059985
222	0xbd587587	-0.052846458
223	0x3d7cf9ae	0.06176155
224	0xbda36337	-0.07977908
225	0xbde4928a	-0.111607626
226	0x3c6d7377	0.014492861
227	0x3da73e3e	0.08166169
228	0x3d7b3e99	0.061338995
229	0xbe1453af	-0.14485048
230	0xbd62e135	-0.055390555
231	0xbd0e8e96	-0.03480395
232	0xbbbbca02	-0.0057308683
233	0xbe7bee6c	-0.2460267
234	0xbdfd38fe	-0.12364386
235	0xbe019d25	-0.12657602
236	0xbdb17dee	-0.08666597
237	0xbede8e90	-0.43468142
238	0xbdb48d90	-0.088160634
239	0xbe5493ec	-0.20759553
240	0xbe89ab99	-0.2688873
241	0xbe01838e	-0.1264784
242	0xbe3db86d	-0.18527384
243	0xbe546949	-0.20743288
244	0xbb483ca5	-0.0030553725
245	0xbd832cdd	-0.06405041
246	0xbe3f2ce8	-0.18669474
247	0xbca2b2c2	-0.019860629
248	0xbda5037f	-0.080573075
249	0x3cf5326c	0.02993127
250	0x3d4e91a0	0.050431848
251	0x3d201707	0.03908446
252	0xbd8e7c49	-0.06957299
253	0x3bd8a616	0.006611596
254	0xbe13f8f6	-0.1445044
255	0xbd5f20dd	-0.0544747
