RNN_GRU.pt (torch, 157411 bytes, 10 tensors)

gru.weight_ih_l0 f4 [96, 300]
000000 3e ed 74 3e ce d8 9d bd 6c 43 ba be 0c 0a 81 be
       0.23918626 -0.07707368 -0.36379564 -0.25202978
000010 49 ed 07 bf e2 66 22 bf aa da 33 bf 18 20 87 be
       -0.53096443 -0.63438237 -0.7025553 -0.26391673
000020 fa 29 92 bd af 29 2d bd 2c 2f e7 be a6 04 b5 3d
       -0.07136913 -0.04227608 -0.45153177 0.08838777
000030 70 fc 76 3d 8d a5 be 3e 6d 3d df be 45 be 14 3f
       0.060299337 0.3723568 -0.43601552 0.5810283
000040 69 23 9c 3e 75 8c 54 3e 2c 2d 39 3d eb 5a a0 3e
       0.30495766 0.20756705 0.045209095 0.31319365
000050 68 e4 48 3e 7c 6e 14 bf e5 d3 e2 3e a3 99 ad be
       0.1961838 -0.57981086 0.44302288 -0.33906278
000060 ed 1b e7 be 2d 70 1b bf 47 45 00 3f df 77 63 be
       -0.45138493 -0.6071804 0.5010571 -0.22213696
000070 29 ea 45 be 9a 9e cb 3e c2 ce 12 be 74 5d 19 3e
       -0.19327606 0.3976944 -0.14336684 0.14977056
000080 e4 8e 1d 3f 35 08 6f 3e f3 8e 8b 3e 30 df 28 3f
       0.6154616 0.23342974 0.272575 0.6596556
000090 fa e4 4b 3f 04 d4 22 be 23 32 60 3e 22 36 0e 3d
       0.79646266 -0.1590119 0.21894126 0.034719594
0000a0 e6 6f 39 3f 28 43 97 bd a2 b0 ca 3e d1 25 b5 bd
       0.7243637 -0.07385856 0.39587885 -0.088451035
0000b0 f8 5d de 3e e5 28 07 3f ec 37 18 3e 86 44 94 3e
       0.43431067 0.52796775 0.14865083 0.2895853
0000c0 5f 45 fb bd 61 3a e6 be 29 61 4c 3e 6f e2 c6 3e
       -0.12269091 -0.44966415 0.19958939 0.3884463
0000d0 5e 99 15 be 0b 7f f1 3e 26 74 2e be e7 f8 bb 3e
       -0.14609286 0.4716724 -0.17036495 0.36713335
0000e0 71 5c 5c 3e 52 80 5c 3e 27 d0 90 3e 88 13 f7 3e
       0.21519639 0.21533325 0.28283808 0.4825709
0000f0 53 e7 58 3e eb c2 86 3d 37 4a bb bd 9d 25 9d 3d
       0.21181993 0.065801464 -0.09145015 0.0767319
000100 eb 0e ac 3c 1b a7 eb 3c 60 87 1e 3f 33 79 ee be
       0.021003207 0.028766206 0.61925316 -0.46576843
000110 67 21 1c 3f 70 eb 21 3d 7f c9 eb 3b 7d 08 0b bf
       0.6098847 0.03953117 0.007195651 -0.5430983
000120 bc 86 98 3e 15 b1 a5 be e1 77 81 3e 3f f8 45 bd
       0.29790294 -0.32361665 0.25286773 -0.04833245
000130 2d 64 96 3d 23 91 b6 bb 54 22 04 3e 7d d0 19 3f
       0.07343326 -0.005571501 0.1290372 0.6008375
000140 b3 2a 9d bd 2c 14 db bd 75 ea e7 3d 7c 26 91 bd
       -0.0767416 -0.10697207 0.11324016 -0.070874184
000150 06 bf c5 3e 16 ae 93 be b1 01 c7 3b 41 ac a3 3e
       0.38622302 -0.28843755 0.0060731997 0.31967357
000160 4b f4 74 be 89 ab d5 3e ed ca 2a be bb e9 39 3f
       -0.23921315 0.41732433 -0.16678973 0.7262227
000170 15 0f 4b 3f aa 63 17 be e3 8c 27 be d7 d6 2f bd
       0.7931989 -0.14784113 -0.16362338 -0.042929497
000180 02 57 e2 3e f4 8e c0 3e d6 4a 06 3f f4 a1 9c 3e
       0.44207007 0.37609065 0.5245794 0.3059231
000190 1f d2 a0 bd 9a 3a 16 3f 6a 8f 66 3f 81 0c 50 3e
       -0.078525774 0.5868317 0.9006258 0.2031727
0001a0 e6 b9 14 3f 1a 72 a1 be 40 b1 57 3e 44 ae 99 3c
       0.5809616 -0.31532365 0.2106371 0.018759854
0001b0 19 b9 60 be 36 44 0b 3f b8 39 7e bd 32 45 db 3e
       -0.21945609 0.54400957 -0.062066764 0.4282623
0001c0 c9 fa d1 3e ec 72 bb 3e 47 b7 bb 3d 86 3c c0 3e
       0.41011646 0.36611116 0.09165817 0.37546176
0001d0 b8 64 92 3f 7c 1e 0e 3f b3 55 93 3e 26 5d d1 3e
       1.1436987 0.55515265 0.2877632 0.4089138
0001e0 0a 42 d3 3e 76 ea 65 3e fc 8b 21 3e 5c 64 ee 3e
       0.4126132 0.22452721 0.15776056 0.46560943
0001f0 bf 56 5e 3f d9 a3 ce 3e 76 39 18 be 88 c1 3d 3b
       0.86851114 0.4035938 -0.1486567 0.0028954465
000200 65 d3 42 3f 42 64 0b 3e b8 b0 d7 3d 53 52 5b be
       0.7610381 0.13612464 0.10531753 -0.21418123
000210 9d 4b 09 3f da ea 0c bf f6 ec 59 3f 40 3e 4b 3f
       0.53631 -0.55045855 0.851272 0.7939186
000220 66 44 16 be 96 8a f0 3e 5d 79 89 3d 03 02 c4 3e
       -0.1467453 0.46980733 0.06712601 0.38282785
000230 a2 62 a4 be 2b e9 56 be a5 71 93 bd 12 d6 b8 3e
       -0.321065 -0.20987384 -0.0719941 0.36100823
000240 63 2d 46 be 96 e1 27 3f 51 66 c1 3d d4 8b 25 3f
       -0.19353251 0.6557859 0.094433434 0.64666486
000250 db d6 99 be e9 92 47 3e dc 87 e1 3d ce 76 af bb
       -0.30046734 0.19489636 0.11012241 -0.005354739
000260 00 fb 32 bf 96 fc 06 bf 9f 0d a3 3d 3c ec 1c 3e
       -0.69914246 -0.52729166 0.079615824 0.15324491
000270 57 c1 f9 be 59 6a 71 3e b9 3d 7f 3e 2c cc f0 3c
       -0.4878032 0.23575725 0.24925889 0.029394232
000280 49 44 e4 bd c0 11 43 3f f7 b8 0a 3e 40 36 06 be
       -0.11145837 0.7619896 0.13547121 -0.13106632
000290 6b ec 59 3e e5 81 79 3e 8e 9f 7f 3d 4f a4 7c be
       0.21281593 0.24365957 0.062408023 -0.24672054
0002a0 e3 da 83 3e ce 60 a9 3e eb 2f bb be c5 4a 1a be
       0.25752935 0.3308167 -0.36559996 -0.15067585
0002b0 c0 86 f6 3e 20 19 11 3e 1b bc 98 3e d9 08 65 3d
       0.4814968 0.1416974 0.29831013 0.05591664
0002c0 1e 85 72 3e 15 67 7d 3e fb 03 de 3d 1a d0 bc 3d
       0.23683593 0.24746354 0.10840603 0.0921938
0002d0 71 de 9b be e5 27 83 bc e4 ce 00 3e c0 7e 9c be
       -0.30443147 -0.016010234 0.12578923 -0.30565453
0002e0 c6 ff 16 3f 87 9a f9 3d d4 80 1a 3e ca 14 5f 3e
       0.5898403 0.12187677 0.15088207 0.21785274
0002f0 68 75 37 3c 6e 6f 95 be ea a5 12 3f 55 24 00 bd
       0.011197425 -0.29186577 0.57284415 -0.03128465
000300 73 94 74 be 02 6a b5 3e c7 54 1e 3e 48 b7 25 be
       -0.23884754 0.3543244 0.15462027 -0.16183197
000310 df 27 43 3e bd 60 be 3d 0b 4c 55 3e 56 d6 92 3d
       0.19058178 0.09295795 0.2082979 0.071697876
000320 00 7e d8 3e 50 18 e7 3d 01 54 11 3e d8 a2 37 3f
       0.4228363 0.11283934 0.14192201 0.71732855
000330 1d 42 fd 3e a5 0a 84 3e 70 82 63 3e fe be d8 3d
       0.49464503 0.2578937 0.22217727 0.10583304
000340 4b 18 03 be 03 ee 2c 3e 66 bf af bd cc d1 b8 3e
       -0.12802236 0.1688767 -0.08581428 0.36097562
000350 36 82 22 3e 87 60 bf 3e d6 5b be 3e 6f e1 0b 3f
       0.15869984 0.37378332 0.3717944 0.5464086
000360 d0 05 4b 3e 38 2b 00 3f 5e be 08 3f 81 63 7f 3e
       0.19826436 0.50065947 0.5341548 0.24940301
000370 09 f9 3e 3e 12 98 0c 3e e2 dc 1b 3f ed fb 17 3e
       0.18649687 0.13729885 0.60883915 0.14842196
000380 e9 f0 29 3f 6b 72 d6 3c 4e 23 ba 3c 3e ef 18 bd
       0.66383225 0.026177606 0.022721913 -0.037337534
000390 51 cd 98 be ca 0b cf 3d 91 15 17 3f 64 0b 31 be
       -0.29844144 0.101096705 0.5901728 -0.17289501
0003a0 37 34 13 be d5 1b bc 3c 34 a4 a9 3e 6b e1 7e be
       -0.14375387 0.02296249 0.3313309 -0.24890678
0003b0 73 87 9f be d1 9a f3 be 8d be e9 3c 5a 43 d0 bd
       -0.31158027 -0.47579053 0.028533245 -0.10169096
0003c0 82 a7 46 3f 95 b9 a9 be c8 bc 2c 3d 3a c2 2e 3e
       0.77599347 -0.331494 0.042172223 0.17066279
0003d0 c3 61 14 bf a0 07 2f 3e 34 a9 5c 3e 79 5d 9d be
       -0.5796167 0.17092752 0.21548921 -0.30735376
0003e0 ba b3 ab 3e 19 bc 24 3e dc 33 4d 3d 76 64 0d 3f
       0.33535558 0.16087379 0.050098285 0.55231416
0003f0 97 09 f6 3d b8 c3 cf bd 7b 18 6e 3f 13 01 f2 3e
       0.12013548 -0.10144752 0.93006104 0.47266445

gru.weight_hh_l0 f4 [96, 32]
000000 4a ee d5 be d1 04 3b 3e f5 3a 41 3d 67 e3 8a 3e
       -0.41783363 0.18263556 0.047175366 0.2712662
000010 8a 6a b3 3d 61 fd c6 be 99 67 2f bf 4f 80 df bc
       0.08760555 -0.38865188 -0.6851745 -0.027282862
000020 09 27 f1 be 28 c9 00 3c 54 d4 73 3e d6 07 40 bf
       -0.47100094 0.007860459 0.23811466 -0.75011957
000030 e7 3b 16 3d ad 2a db 3e 2f cc 63 bf 93 61 3d 3e
       0.03667822 0.42805997 -0.88983434 0.18494253
000040 21 46 f5 3d 49 bb 94 be 3d d0 ff be 68 77 77 3e
       0.11976267 -0.29049137 -0.4996356 0.24166644
000050 32 c4 87 3d 8a 2d 52 bd e6 96 75 3f a6 8a 89 3e
       0.06629218 -0.05131296 0.9593338 0.26863593
000060 88 73 e0 3d 81 27 22 3e 50 bd 0e bf b9 74 14 be
       0.10959536 0.15835382 -0.5575762 -0.14497651
000070 d6 0b 9e 3e 91 dd 06 3f e5 1e df be cc 61 0d bf
       0.30868405 0.52681834 -0.43578258 -0.5522735
000080 b3 06 03 3f 34 b1 ed be 62 14 53 3f 8e a8 c8 3e
       0.511821 -0.46424258 0.82452977 0.39191097
000090 c4 51 89 bd 44 45 01 bf c2 46 17 3e ed 5e 2b bf
       -0.06705049 -0.50496316 0.14773086 -0.6694172
0000a0 2b ce 2f 3e 6c 7d 85 bc b8 8f 81 3d b9 69 78 3e
       0.1716849 -0.016295157 0.0632624 0.2425908
0000b0 6c 2a ab be 8f 52 93 be 82 42 ad 3d 73 0d 52 3f
       -0.33430803 -0.28773925 0.08459951 0.8205177
0000c0 48 78 e0 bd 32 c1 8e 3f c5 fc 92 be d1 d3 f9 3e
       -0.10960442 1.1152709 -0.28708473 0.48794416
0000d0 b1 49 8e 3e 39 f8 6e bf 91 2c e1 3e 75 bd 38 be
       0.27790597 -0.9334751 0.43979314 -0.18041022
0000e0 7c 8c ef 3d c6 d3 9c 3d d8 21 88 3e 66 b9 1e be
       0.11696717 0.0765758 0.2658832 -0.15500411
0000f0 db 44 ea be 39 a2 30 be 42 9e eb 3c 2b f6 95 3e
       -0.45755658 -0.17249383 0.028761987 0.29289374
000100 e1 ae c2 be 34 26 60 bc ba 19 a0 be cc 99 46 be
       -0.38024047 -0.013680983 -0.31269628 -0.19394606
000110 d7 99 d8 be e6 2b 84 bf 2a 89 b6 be a3 c4 49 3e
       -0.4230487 -1.0325897 -0.35651523 0.19703917
000120 fa c7 21 3f 5d 27 a4 be bf 88 4e 3e ab 74 88 be
       0.63195765 -0.32061282 0.20169352 -0.2665151
000130 98 7f b0 be b4 ef e4 be cf fd 6f bf 7f 25 66 3f
       -0.34472346 -0.4471413 -0.93746656 0.89900964
000140 4f 53 03 bd 52 72 64 3e e7 f1 da 3e 30 b9 40 3f
       -0.03206187 0.22309235 0.42762682 0.75282574
000150 b9 f1 03 bf 3b 02 52 be f1 aa 66 3f ee 5b 4d 3f
       -0.51540715 -0.20508663 0.90104586 0.802184
000160 55 47 99 3e 36 45 71 be f5 27 0f be 7a 7b 57 be
       0.29937235 -0.23561558 -0.13980086 -0.21043196
000170 0d 66 8f be c6 00 44 be b6 d9 88 be f1 29 39 bf
       -0.28007546 -0.1914092 -0.267286 -0.7232962
000180 b9 55 15 3f 38 3d df bd 31 97 c6 3e 7a 57 96 be
       0.5833393 -0.109003484 0.38787225 -0.29363614
000190 60 03 b3 be e9 51 eb be 5a e0 16 3f c8 9a 53 3f
       -0.34963512 -0.4596093 0.58936083 0.8265805
0001a0 56 98 28 3f 5f c9 25 bf 8c 7b a7 bd 0b d8 5e be
       0.65857446 -0.6476039 -0.081778616 -0.21762101
0001b0 63 03 9f 3e b4 a7 14 bf e5 ad 4c 3b dd 86 cb 3e
       0.3105727 -0.58068395 0.003123158 0.3975133
0001c0 26 8a 83 3c 3c e5 9f 3d a9 3d 0b 3f 53 c6 f3 3e
       0.016057085 0.07807395 0.5439096 0.47612247
0001d0 bc 4d d6 3e 9c 30 2d be bc 6f 6f 3e b5 c5 32 3f
       0.41856182 -0.16913074 0.23382467 0.69832927
0001e0 f5 3e 95 3f 4e 22 39 bc ab 13 9a be 24 c3 81 be
       1.1659838 -0.011299683 -0.3009313 -0.25344193
0001f0 2c 13 be 3e 3b e0 bd be e0 a9 22 bd 77 1b 0a 3f
       0.37124002 -0.37085137 -0.039712787 0.5394816
000200 80 2d 22 3f 49 03 18 3f 38 bd 82 be 03 99 3b 3f
       0.6335068 0.5938001 -0.25534987 0.7328035
000210 c0 19 b7 3c b3 1c 69 bf 5d d7 4b bf 87 41 69 3f
       0.022351146 -0.91059417 -0.79625493 0.9111561
000220 52 a2 db be 4e 43 2a bf 4b 5c 54 3d 70 6c 2b bf
       -0.42897278 -0.6650895 0.05184583 -0.6696234
000230 ff b4 02 bf 84 08 1d bd 0b 7e b2 be a6 32 e8 3e
       -0.5105743 -0.0383382 -0.34861788 0.45351142
000240 9b 34 38 3f bb 49 a2 be be 4c 49 be 0c b6 89 3e
       0.7195527 -0.31696877 -0.19658181 0.26896703
000250 34 f5 cb 3d a4 be 65 bc 75 5e b8 3e 2f 7d 3c 3f
       0.09958878 -0.014022503 0.36009565 0.73628515
000260 b3 84 0a bd 8b af 31 3d f5 58 a4 3e 78 20 a4 be
       -0.033817958 0.0433803 0.3209912 -0.32056022
000270 63 b1 06 3f 26 2f 6c be 46 d1 02 3e 7c 98 2f 3d
       0.5261442 -0.2306486 0.12775144 0.04287003
000280 f2 c9 f4 bd 5f 65 9a bd ac a4 79 3d 3e f2 e8 3d
       -0.119525805 -0.07538866 0.06094806 0.11374329
000290 4e 7d 0c be 24 3f 87 3e 3d 20 25 bf bf ad 08 3f
       -0.13719675 0.2641536 -0.64502317 0.53390115
0002a0 ee 21 5b 3e a6 c6 35 bf c3 06 08 be 1d 6b 99 be
       0.21399662 -0.7100624 -0.1328383 -0.29964533
0002b0 28 71 fd be a4 54 28 bf 6b 55 52 3f 6b 1b 6a 3e
       -0.49500394 -0.6575415 0.8216159 0.22862022
0002c0 e6 4b 60 3f 06 db 89 bd fb 86 84 be f3 5e ef 3e
       0.8761581 -0.067312285 -0.25884232 0.46752128
0002d0 06 42 2d bf db 58 2c bf 22 97 4f be 75 ce 30 be
       -0.6767887 -0.6732308 -0.20272496 -0.17266257
0002e0 84 0c a4 be f5 f0 c1 be 34 92 27 3e 68 78 67 3e
       -0.320408 -0.37879148 0.16364366 0.22604525
0002f0 4b 77 8f bd be 88 d3 be 5c c6 97 3e 23 90 14 3c
       -0.07005175 -0.41315264 0.29643524 0.009067568
000300 bc 4a 90 be ed 5c 26 be ff 3d 46 bd 8f 65 80 3e
       -0.28182018 -0.16246386 -0.048398968 0.25077483
000310 6f 4d 64 3f 68 0a 0a 3d 04 c8 33 bc 6d dc b2 3e
       0.89180654 0.03370133 -0.01097298 0.34933797
000320 54 ce 2e 3d 32 82 0a 3f e2 42 80 3e ea d7 18 3f
       0.04267724 0.5410491 0.25051028 0.5970446
000330 30 36 94 be 6d a9 a5 be d3 57 60 3e e7 9d cc 3e
       -0.28947592 -0.32355824 0.21908502 0.3996422
000340 c4 8e 2b be 4e fc a2 3e 5d 28 d8 be 85 b0 91 bf
       -0.1675368 0.31833118 -0.42218295 -1.1381994
000350 86 eb f7 3d a0 1a f5 bd 43 ef 04 bc f4 ba a3 be
       0.121054694 -0.11967969 -0.008113685 -0.3197857
000360 b7 a8 c9 3e 19 5b 29 bd ca ca e4 be ed c1 b7 be
       0.39386532 -0.041346643 -0.44685966 -0.3589014
000370 0d e7 10 3f 63 71 12 3f 78 6b f3 3d b6 a5 fc 3e
       0.56602556 0.57204264 0.118857324 0.49345177
000380 d5 83 bf 3c 2f 36 ba 3e c1 62 28 be a5 cb 39 3f
       0.023378292 0.36369464 -0.16443922 0.7257636
000390 d2 6b a3 be a8 fe b8 be 3d f4 eb 3d 62 42 d8 3e
       -0.31918198 -0.36131787 0.11521194 0.42238146
0003a0 c3 41 27 bf 00 89 98 3e 62 c3 ee 3e 85 9e 98 be
       -0.6533472 0.29792023 0.4663344 -0.2980844
0003b0 e6 80 f0 3e ac d6 c0 bc 32 3a fb 3e d7 66 03 bf
       0.46973342 -0.023539864 0.49067837 -0.51328796
0003c0 98 a7 12 bf a2 77 05 bf 51 c6 a5 3e 8c 35 a6 be
       -0.5728698 -0.5213567 0.32377866 -0.32462728
0003d0 41 8f b9 3e 5e eb 88 3e 80 b7 32 be 4b 0c 5a be
       0.36242107 0.2674207 -0.17452812 -0.21293752
0003e0 66 1f 8e bc 5a 37 e9 be 0e 01 0b bf 62 61 85 be
       -0.017348956 -0.45550042 -0.54298484 -0.2605086
0003f0 5a 9b ca 3d e7 94 3d bd 8f b4 a6 3d f3 a8 17 3f
       0.09892912 -0.046284582 0.081399076 0.5924217

gru.bias_ih_l0 f4 [96]
000000 d5 a9 31 3f 4a 7a f9 3e 88 5b 30 3f d3 9b 3d be
       0.6939977 0.48726112 0.68889666 -0.18516473
000010 5a 5b ec bd 80 0a 4a 3d 07 a9 59 be c7 e5 42 be
       -0.115408614 0.04932642 -0.21255885 -0.19032966
000020 ae bf ad 3e 28 fb 0d 3d 47 90 04 3f 6c 44 99 3e
       0.33935302 0.03466335 0.5178265 0.29935014
000030 69 f5 c7 3d fd 43 03 be 30 a1 4a 3d aa c6 39 be
       0.09763605 -0.12818904 0.049470127 -0.1814219
000040 b5 76 08 bf 86 2c 14 3d 99 61 76 be c0 13 28 3f
       -0.5330613 0.036175273 -0.24060668 0.65655136
000050 f0 fc 47 3f 4e 59 ef 3e f8 21 c0 3e 25 ad 25 3f
       0.78120327 0.46747822 0.37525916 0.6471732
000060 b1 90 00 3f 3f ad 6e 3f 7a da 37 3e 9a 45 ee bc
       0.5022078 0.932331 0.17954436 -0.029085923
000070 24 06 23 3f 31 29 a2 3e 80 ac f4 3e 02 e5 2e be
       0.63681245 0.31672052 0.47787857 -0.17079547
000080 9a 8f 03 bf a4 1d 5c bf 37 a5 79 bf bc 28 29 be
       -0.51390994 -0.8598273 -0.9751772 -0.16519445
000090 a7 10 19 bf 93 be 8e be ef de da be b7 f7 00 3f
       -0.59791034 -0.27879772 -0.4274821 0.5037798
0000a0 77 6c 14 3e 72 3c c9 be 83 12 0e bf 66 b2 74 bf
       0.14494501 -0.3930393 -0.55496997 -0.95584714
0000b0 33 90 e1 3e a9 6f 53 bf 87 1d 0a bf 89 3b fb be
       0.44055328 -0.82592255 -0.53951305 -0.4906886
0000c0 45 a2 60 bf 57 54 04 bf 70 a4 ca 3d 9a 35 2f bf
       -0.87747604 -0.5169119 0.09894645 -0.68441164
0000d0 4d 3c 34 be 60 92 cb 3b 88 52 93 3d a2 23 2b 3f
       -0.17601128 0.0062125176 0.07193476 0.66851246
0000e0 3d 25 9f 3e 22 d7 7d 3c ed 0a 91 be 79 1a 7b bf
       0.31083098 0.015493186 -0.28328648 -0.9808727
0000f0 af e3 09 3d 34 8b 3c 3e 42 2a 12 be a8 9b 5b 3e
       0.0336644 0.18412477 -0.14273933 0.21446097
000100 b4 c0 ee 3d 6d 0d 08 3e 7d af 0f bf d7 8d 00 3d
       0.11657849 0.13286372 -0.5612715 0.03138527
000110 f8 02 3b be 6d b3 89 bf ed c7 06 bf 61 55 94 be
       -0.18262851 -1.0757881 -0.5264881 -0.2897139
000120 f2 ef 5e be 75 df 54 bd 7f 0f b0 3e 18 25 13 3e
       -0.2177122 -0.051970918 0.34386823 0.14369619
000130 a2 8d 71 3e 88 a8 8f be 65 86 8d 3e 79 10 88 3e
       0.23589185 -0.28058267 0.27641597 0.26575068
000140 c4 8f 13 be 34 e9 a9 3f 0f 64 3d 3e 5c a5 8e 3d
       -0.14410311 1.3274293 0.184952 0.069651335
000150 9c 0c 6f 3d f1 3b e8 be 41 5b ec 3e 39 c4 25 3f
       0.058361635 -0.45358232 0.4616337 0.64752537
000160 47 d6 4e bc 67 db bd 3e a5 60 5b bf b4 c7 01 bf
       -0.01262433 0.37081453 -0.8569434 -0.5069535
000170 88 be a4 3e d2 92 67 be bf 2b 26 3f 8f db 33 bf
       0.32176614 -0.22614601 0.649105 -0.70256895

gru.bias_hh_l0 f4 [96]
000000 16 b6 4a 3f 4d 6e e2 3e 30 f0 2a 3f a6 31 cd bd
       0.7918409 0.44224778 0.6677275 -0.10019235
000010 8a d4 e2 3d b4 7b 27 3d 3f bc ab 3c d3 47 54 bb
       0.11075695 0.040889457 0.020963786 -0.0032391443
000020 57 d0 e1 3e 54 6d 3a be f0 09 06 3f 84 c9 42 3e
       0.44104263 -0.18205768 0.52358913 0.19022185
000030 de b4 82 3e 55 d7 a2 bd 87 c1 41 bc 55 75 63 3d
       0.25528616 -0.079512276 -0.011825926 0.05553182
000040 11 c3 07 bf 2a fa e7 3d ed d8 80 be 5d ce 43 3f
       -0.5303202 0.11327012 -0.251655 0.7648676
000050 30 0a 07 3f f3 45 7c 3e 86 76 48 3e fa a8 e6 3e
       0.5274992 0.24636059 0.19576463 0.45050794
000060 e7 77 1c 3f 0b 7d 60 3f 2a 51 ea 3e 78 a8 a8 3d
       0.61120456 0.876908 0.45765048 0.08235258
000070 0c f9 32 3f 6f db b9 3e 50 c1 dc 3e 41 36 e7 be
       0.69911265 0.36300227 0.43116236 -0.4515858
000080 3b 3d 33 bf 6e ee 1e bf ca 1e 2f bf d0 30 4f be
       -0.70015305 -0.62082565 -0.68406355 -0.20233464
000090 78 96 0d bf 77 b3 d1 be f8 67 80 be 06 b9 9c 3e
       -0.5530772 -0.40957233 -0.25079322 0.30609912
0000a0 0d df 55 3d e4 5a 2a bf fe 9d 07 bf ed f0 40 bf
       0.05221467 -0.6654494 -0.5297545 -0.75367624
0000b0 ff 07 94 3e b3 27 6c bf 48 24 3b bf ab 64 8b be
       0.2891235 -0.92248076 -0.73102236 -0.2722524
0000c0 f5 5f 4b bf b0 c1 cc be dc 23 c0 bb a8 6a 14 bf
       -0.79443294 -0.39991522 -0.00586365 -0.57975245
0000d0 3d 4d 1c be ad 52 00 be 68 af 70 bd 1c e3 e8 3e
       -0.15263839 -0.12531538 -0.05876103 0.4548577
0000e0 fb 43 d8 3d 7c 1c a8 bc 08 33 e1 be b2 ce 7a bf
       0.10559841 -0.020521395 -0.43984246 -0.9797164
0000f0 29 28 ba 3c eb 9b f0 3e 5e 32 74 be 87 25 95 3e
       0.022724228 0.46993956 -0.23847339 0.29130194
000100 13 86 f8 3d 94 fd 09 be c5 a5 52 be e3 55 b5 3c
       0.12134948 -0.13475639 -0.20571049 0.02213568
000110 8f f7 22 be 03 0f 51 bf f4 d4 f2 be b1 cf 17 be
       -0.15914749 -0.8166353 -0.47428095 -0.14825322
000120 ad 71 0e bf d3 78 9e 3d 3f 38 ca 3e 01 37 ce bd
       -0.55642205 0.07737889 0.39496037 -0.10069085
000130 a8 df 11 3e 1d 9c 5d bc bb aa b0 3e bf 08 1b 3f
       0.14245474 -0.01352599 0.34505257 0.6056022
000140 fb 2a be be b7 15 83 3f 81 1a 64 3e f9 d3 3f bd
       -0.37142166 1.0241002 0.22275735 -0.046833012
000150 b9 80 3e be 97 78 b5 be 33 fb a1 3e c6 74 31 3f
       -0.18603791 -0.35443565 0.31636962 0.6931881
000160 d4 b4 07 be cf 37 45 3f b3 78 79 bf c9 c5 1b bf
       -0.13252574 0.7703828 -0.974498 -0.6084867
000170 8e f0 d8 3e 32 01 a3 3d 22 6b fc 3d d5 1c 29 bf
       0.4237103 0.07959212 0.123251215 -0.6605962

gru.weight_ih_l1 f4 [96, 32]
000000 0d 9e e6 3d f8 34 6e be 13 8c 8b bd ed ac 8c bf
       0.112606145 -0.23262393 -0.068138264 -1.0990273
000010 eb 75 cf be ec 0d e4 be 19 16 9f bc 5b f3 07 3e
       -0.40519652 -0.44541872 -0.019419717 0.13276426
000020 fc 06 90 3e 32 53 b7 be 6d f8 09 bf 12 7a b9 3d
       0.2813033 -0.3580566 -0.5389469 0.09056486
000030 73 e8 97 3e 29 66 da be 45 81 2b bb 83 47 4d bc
       0.29669532 -0.42656067 -0.002616958 -0.012529257
000040 0c df 12 be a6 ad 4f 3f ca c5 78 be 2a 06 f9 3e
       -0.14342898 0.8112434 -0.242942 0.48637515
000050 4f 88 da be a7 3a 45 3d d2 cb 1c 3f 10 de 1c 3f
       -0.4268212 0.04815164 0.61248505 0.6127634
000060 d1 14 e3 be 07 a2 c5 3e 66 90 7d 3b 10 22 8b be
       -0.4435182 0.3860018 0.0038690805 -0.27174425
000070 ec 68 3a bd 88 0b 5f 3e cc 00 93 3d 59 3a 41 be
       -0.045510218 0.21781743 0.07177886 -0.18869914
000080 78 a5 36 3f 06 b4 38 3f 5e 2f bb bd b7 15 e8 3e
       0.71346235 0.72149694 -0.09139894 0.45329067
000090 69 a9 c6 3d a2 38 57 bf 84 b7 04 bf f5 e2 75 3f
       0.09700281 -0.8407079 -0.5184252 0.96049434
0000a0 6c 6c a7 be b9 f7 a6 bd a6 71 5a 3e a2 bf a4 3e
       -0.32699907 -0.08152718 0.21332416 0.32177454
0000b0 51 3f 87 be 42 3a 81 be 51 bc ad be 86 a9 0a bd
       -0.26415494 -0.2523976 -0.33932737 -0.033853076
0000c0 9e 90 c7 be d9 f8 cb 3e f1 23 bc 3e 5e a1 4d bd
       -0.38977522 0.39838293 0.3674617 -0.05020272
0000d0 b3 2d 41 3f af 3f 6d bf 79 f9 8f 3f be d4 c4 3d
       0.75460356 -0.926753 1.1248008 0.0961089
0000e0 bb 2c 00 3f bd d4 73 bd 97 95 a2 be f2 ef 34 bf
       0.50068253 -0.059529055 -0.31754753 -0.7067863
0000f0 75 b2 5e be d4 10 ed be 31 50 20 3e 81 fb 32 3c
       -0.21747763 -0.463019 0.1565559 0.010924221
000100 1d ae 2f be e3 ac 89 bf a8 a3 7d bf 0d 5b 05 3f
       -0.17156263 -1.0755886 -0.99077845 0.5209206
000110 58 33 b8 3d d8 cd 4a bf 96 b3 4a bf bf 8c d4 be
       0.08994168 -0.7922034 -0.79180276 -0.4151363
000120 fa 15 90 3e 03 75 3a bd 53 6a 4a 3b 1b 24 64 3b
       0.28141767 -0.045521747 0.0030886128 0.003481156
000130 f6 a3 b1 be 0b 62 ec 3d 24 4f 22 bd 9b 4d 32 3e
       -0.34695405 0.11542138 -0.039626256 0.17412417
000140 68 c9 eb 3e ff 27 9e 3e 28 cf 03 3f 2b 43 2e 3f
       0.46052098 0.3088989 0.5148797 0.6807124
000150 f0 cb e4 bd 91 bb 87 be e0 2c f9 bd 22 16 45 3d
       -0.111717105 -0.2651029 -0.12166762 0.04811681
000160 39 fa 81 3d 49 62 df 3e a7 ce b4 be 70 cd 84 3e
       0.06346554 0.43629673 -0.35313913 0.25937986
000170 0e 01 ac 3e b7 0e 8f 3e 96 f5 5b 3e 83 54 54 be
       0.33594555 0.27940914 0.21480402 -0.20735364
000180 89 1b 80 3e 31 c7 55 3f 49 61 60 3f 25 d6 d6 be
       0.25021008 0.83507067 0.87648445 -0.41960254
000190 ec a3 ee 3e 31 20 15 3e 39 ec ba be cb 96 98 be
       0.46609437 0.14563061 -0.3650835 -0.29802546
0001a0 62 55 8d 3e 94 f6 62 3e e4 9d 17 be fb 17 85 be
       0.27604204 0.22164375 -0.14806324 -0.25994858
0001b0 2f 62 7b be cb ff 46 bf 3e fa 8f 3e 12 63 40 3e
       -0.24549173 -0.7773406 0.28120607 0.18787792
0001c0 e2 16 83 3f f0 f6 d1 bc c2 12 0b bf 57 80 99 be
       1.0241358 -0.025630444 -0.543255 -0.29980728
0001d0 35 a2 1c 3f eb a6 d5 bd c5 74 b8 3d 08 3e 95 3e
       0.6118501 -0.10432228 0.09006647 0.2914889
0001e0 0c ce 30 3d 0f e8 a2 bd e4 0a a5 3e c8 89 39 3d
       0.04316525 -0.07954418 0.3223487 0.045297414
0001f0 eb dd dc 3d ba 31 2a be 66 a6 60 bf cd a7 cc bd
       0.10784515 -0.16620532 -0.87753904 -0.09992943
000200 20 38 f0 3e 4b 88 59 3d 62 10 54 3f 35 98 ab 3c
       0.4691782 0.053108495 0.828375 0.020946601
000210 9a 08 a3 be a6 af 5b bd c6 05 09 3f 4a 62 01 3f
       -0.318425 -0.05363431 0.53524435 0.505406
000220 84 bb 9e 3e 13 87 a3 be e3 51 7a 3c f5 7f a2 3e
       0.31002438 -0.3193899 0.015278312 0.31738248
000230 05 0c 58 bd f6 49 e8 be 2f 1e 47 3f 06 aa a3 3e
       -0.052745838 -0.45368928 0.7778043 0.31965655
000240 25 2e 82 3c 3f e1 1f bf 98 72 9a 3e da a8 28 bd
       0.015891144 -0.62453073 0.30165553 -0.041176654
000250 f3 2b ba 3c 76 76 2e 3e ba ae 8d be 16 eb 88 bd
       0.022726035 0.17037377 -0.27672368 -0.06685464
000260 d9 5b 45 bf 04 48 2e be 4b 3e 8e bc 68 15 d3 bb
       -0.77093273 -0.1701966 -0.017363688 -0.006441761
000270 88 84 df bb aa 33 a1 bf 60 6d e1 be 10 9e 8e 3e
       -0.006821219 -1.2593892 -0.4402876 0.27854967
000280 50 37 06 3f fb 42 06 bd 06 8a 6d bf 09 c2 4d 3e
       0.5242815 -0.03277872 -0.9278873 0.2009355
000290 1e 20 33 bf 72 5f 50 bf 87 71 cc bd 9a 11 ad bc
       -0.6997088 -0.8139564 -0.09982591 -0.021126557
0002a0 84 0b a9 3e 9c 89 fa 3c f7 87 5a 3f 42 a4 be 3e
       0.33016598 0.030583195 0.85363716 0.37234694
0002b0 f9 d4 9f be d7 bb 24 3e 53 ce a8 3f 48 84 9f be
       -0.31217173 0.1608728 1.3187965 -0.3115561
0002c0 7a 0b 00 bf d5 b9 80 3e 47 89 fc 3c 22 41 41 3e
       -0.5001751 0.2514178 0.030827178 0.18872502
0002d0 1c 74 36 3e 4a b4 02 bf 9d e2 8c 3c a6 b6 d8 3e
       0.1781773 -0.5105635 0.017197901 0.4232685
0002e0 90 07 eb ba 14 99 d0 be 04 62 0d bf 9e c9 b4 3d
       -0.0017931331 -0.4074179 -0.55227685 0.08827518
0002f0 39 f9 aa 3e 70 4b 12 be 55 9e f4 3e 32 05 51 3f
       0.33393267 -0.1428659 0.47777048 0.8164855
000300 c4 b6 30 be 11 43 9d bf d1 a4 17 bf 89 0f 6c be
       -0.1725722 -1.2286092 -0.59235865 -0.23052801
000310 10 a4 bc bd 3c 5c 11 be e1 f9 ac 3e 60 27 03 bf
       -0.0921098 -0.14195341 0.33784392 -0.51231956
000320 a3 8f 3b 3f 93 01 72 3e 06 b0 d3 be e4 63 e4 3e
       0.7326605 0.23633413 -0.41345233 0.4460746
000330 ff c4 ad 3e b0 72 16 be 85 1f a4 3d 96 c7 a6 3e
       0.3393936 -0.14692187 0.080138244 0.32574147
000340 b1 f7 29 be b1 4e f5 3e 28 01 f3 3e 46 ff 5a 3f
       -0.16598393 0.479116 0.4746182 0.85545766
000350 c5 2c 02 bd cf 3e d1 bd 5c 85 b1 bd 4f 78 50 3f
       -0.031780977 -0.10217058 -0.086680144 0.81433576
000360 e0 b6 6d 3e 27 f5 b8 3e c8 87 e0 be fd 5e 49 be
       0.23214293 0.36124536 -0.43853593 -0.19665141
000370 70 e5 a4 3e 05 e2 dc bd ed 6c d1 bc 80 69 36 bf
       0.32206297 -0.10785297 -0.025564635 -0.7125473
000380 8c 90 e3 be dc c8 dc be d3 51 67 bf ba bb 0d bf
       -0.44446218 -0.43121994 -0.9035923 -0.55364573
000390 a9 c5 e1 3e a9 1f 9a 3e ce 12 b1 3c b6 bb 6d 3d
       0.44096115 0.3010228 0.021615412 0.058040343
0003a0 3d 51 aa 3d 9b e4 dd 3e 1a a5 69 3d 2e 13 ab be
       0.08316276 0.43338475 0.05704222 -0.3341307
0003b0 af d4 cd be 1b bf ff 3e 5e fd a6 be e6 fe 1e 3e
       -0.40201327 0.4995049 -0.3261518 0.15526924
0003c0 ba bf 31 3d 0c c3 96 3f f3 ca cd 3d 97 55 3a bf
       0.043395735 1.1778274 0.10048475 -0.7278685
0003d0 93 4e a9 be 99 e8 09 3e 4f d4 a7 be a3 26 c1 be
       -0.3306776 0.13467635 -0.32779166 -0.3772479
0003e0 bc 0e b0 3d ae 30 71 3e a9 43 fb be a7 68 fb bd
       0.0859656 0.23553726 -0.49075058 -0.1227582
0003f0 ec 6f b1 3e 91 65 da 3e 39 e0 b1 be 31 a2 91 bf
       0.34655702 0.42655614 -0.3474138 -1.1377622

gru.weight_hh_l1 f4 [96, 32]
000000 11 27 0f bd 0a b8 4d 3f 8f 8f c2 bd 49 63 2e 3e
       -0.034949366 0.80358946 -0.09500038 0.17030062
000010 9c 7f 4d 3e e6 f4 04 3f 99 7f a4 bf 97 8d 5c bd
       0.2006821 0.51936185 -1.285144 -0.053845968
000020 49 94 45 3d da 83 0e 3f cc 81 09 be 35 0b 0b bd
       0.04823712 0.5566994 -0.1342842 -0.033946235
000030 6c ea ec 3e e6 68 fe 3e dd cc 22 bf d2 53 7a 3d
       0.462726 0.49689406 -0.63593847 0.061115094
000040 44 99 0f 3f 20 83 aa be da d8 54 3e 06 2e 79 3c
       0.5609324 -0.33303165 0.20785847 0.015208727
000050 91 7f fd be f1 15 26 3f 70 d1 3e bf 7d 6b 22 3f
       -0.49511388 0.6487723 -0.74538326 0.63445264
000060 08 9d 35 bf a2 84 cd 3e a9 ef ee 3e 27 4f c4 3e
       -0.70942736 0.40140253 0.4666722 0.38341638
000070 9b 33 32 bf c8 8b 38 bf 00 aa e7 bc 89 7c 55 3e
       -0.69609994 -0.7208829 -0.028279305 0.20848288
000080 0e 75 7d be 74 57 2e bf 9f 29 7b bd 3c 02 cd be
       -0.24751684 -0.6810219 -0.06131899 -0.40040767
000090 2e 15 79 be 31 d6 d6 be 21 df ad 3e 02 14 09 3f
       -0.24324486 -0.4196029 0.33959296 0.53546154
0000a0 79 e2 26 3e 40 f8 55 bf bc 87 98 be 84 7c 9c be
       0.1629733 -0.83581924 -0.29791057 -0.30563748
0000b0 30 c1 7a bd 49 93 b7 3d ac 3f 38 b9 4e 49 09 3f
       -0.061219394 0.08963639 -0.00017571327 0.5362748
0000c0 a7 52 66 bd ab 74 f4 be 01 ac 3c 3f ce dd b7 3e
       -0.056231167 -0.4774526 0.7369996 0.3591141
0000d0 3d f7 9b 3c 92 20 95 3f f4 4a 4b be 22 a0 a7 3d
       0.01903879 1.1650565 -0.19852811 0.0818484
0000e0 38 c6 2a be 51 99 c1 3e 9b 8a e1 3d 2b 23 f1 bc
       -0.16677177 0.37812284 0.11012765 -0.029435715
0000f0 29 da 51 3e 5e ff 1b 3f 11 f7 d1 bc bb 30 9f 3e
       0.20493378 0.60936534 -0.025630506 0.31091866
000100 a3 09 7f be 02 5f 21 3e ef 64 82 bd 4f 12 81 3f
       -0.2490602 0.15758899 -0.06366908 1.0083712
000110 c5 59 48 3e 42 55 01 3e ba 35 33 3e f3 50 bf bd
       0.19565494 0.1263018 0.17500964 -0.09341612
000120 29 20 d4 3e 49 b0 9d be 70 da 15 be c7 6d 06 be
       0.41430786 -0.30798557 -0.14634109 -0.13127814
000130 c2 ca 55 3f ec 28 04 3f 53 1d 19 be 8c b9 1d bf
       0.8351251 0.5162494 -0.14952593 -0.6161125
000140 1e 6e 16 bf 6b 6b a3 3e 97 6f 13 bf 57 3b 27 bd
       -0.58761775 0.3191789 -0.5759215 -0.040828075
000150 02 24 4f 3e cc ee 6b 3e 81 db a1 be e7 f5 d2 3d
       0.2022858 0.23040313 -0.3161278 0.103008084
000160 3b a6 2d bf 79 54 1f 3f 86 8c bc be 44 35 40 3f
       -0.6783177 0.6223827 -0.3682596 0.75081277
000170 e1 b6 1e 3f 2e e9 cc bd 07 13 62 3e 46 f4 f1 3d
       0.619978 -0.10005413 0.22077571 0.118141696
000180 d9 87 e9 bd 4b ca c6 be 63 08 f0 be 42 0f c7 3e
       -0.11402864 -0.38826212 -0.468814 0.38878828
000190 6b 99 80 3e 87 65 c8 be bb 99 f8 be 46 8b 86 3d
       0.2511705 -0.3913996 -0.48554787 0.06569533
0001a0 9a f4 2d 3f c8 3c 03 3d d0 1f 2f 3e c0 f1 e1 3d
       0.6795136 0.032040387 0.1710198 0.11032438
0001b0 e2 28 e1 be 2c b6 57 3e e2 19 8c 3e 4f 72 c7 3e
       -0.43976504 0.21065587 0.27363497 0.38954398
0001c0 1a c8 55 3e 5b 20 0c bf 33 33 6c 3e 6c e7 94 3e
       0.20877114 -0.5473687 0.23066406 0.2908281
0001d0 41 aa d1 3e f1 24 59 3e a6 3c 03 be ad 5e e3 be
       0.40950206 0.21205498 -0.12816104 -0.4440817
0001e0 15 e6 e8 be 27 65 0f bf 0a 8b 9a bf cb ae 0d bf
       -0.4548804 -0.5601372 -1.2073681 -0.5534484
0001f0 93 ce b9 3c b2 93 ed 3d 4c 14 15 bf 6e 46 f2 3e
       0.02268151 0.11600436 -0.58234096 0.4731936
000200 ba c2 c9 3e c2 22 b3 3e 96 4c 22 3e 70 5b b3 be
       0.39406377 0.34987456 0.15849528 -0.350307
000210 a1 88 1f be 55 a5 a3 3e a1 79 64 be a6 a2 22 be
       -0.15579464 0.31962076 -0.22312023 -0.15882358
000220 e0 12 56 bd de 53 54 3d 54 66 c6 be f9 58 c2 be
       -0.052264094 0.051837794 -0.38749945 -0.37958506
000230 69 9c 2c bd 84 59 80 3e 7c 34 03 be 63 d5 2a bf
       -0.04214135 0.25068295 -0.1281299 -0.6673185
000240 e6 4b d4 3c 85 ef fd 3e 6a fc 26 bf 5e 6c b5 3e
       0.025915097 0.495968 -0.65228903 0.3543424
000250 fd 7d 38 3e e9 88 28 be e2 84 90 be 80 41 79 be
       0.1801681 -0.16458477 -0.28226382 -0.24341393
000260 f4 9f 86 be 7a 07 98 3d 26 7c 12 be 3e 7a c0 be
       -0.2629391 0.07423301 -0.14305171 -0.37593263
000270 d2 95 67 3e 7e 13 5b bf e6 8b c1 be 0e 45 81 3f
       0.22615746 -0.8557662 -0.37802047 1.0099199
000280 37 88 a8 3e 83 95 dd 3d 2e 37 b0 be 2b 94 ee 3e
       0.32916424 0.10819533 -0.344171 0.46597418
000290 50 c1 e2 3e 2a 9b 18 be 34 71 00 3f f8 5f 14 be
       0.4428811 -0.1490294 0.50172734 -0.14489734
0002a0 88 5c 88 bd 40 50 f8 bb ba e5 72 3e 99 63 17 bf
       -0.06658274 -0.007577926 0.23720446 -0.5913635
0002b0 6b 06 19 3e 7b 35 ff 3e 47 be f7 3d c4 e4 0d bf
       0.14943855 0.4984549 0.120968394 -0.55427194
0002c0 b6 6a 94 bf 60 ab 9e 3e 9a 74 12 bf e4 1a 9a 3e
       -1.1595066 0.30990124 -0.5720917 0.3009864
0002d0 77 e9 a2 3d 24 46 3f bc 28 ee b1 bd 97 0a ec bd
       0.07954686 -0.011674438 -0.08688003 -0.11525457
0002e0 4a e8 d0 3d 00 74 27 3f b1 87 73 3f 37 6c 4a be
       0.102005556 0.65411377 0.95128924 -0.19767843
0002f0 b5 0d 7d ba 61 05 ab be e3 c9 d1 bd 2a a2 c7 3d
       -0.00096532266 -0.3340254 -0.10243585 0.09747727
000300 db 34 ed be c1 5e a0 bd f9 d9 75 3e 11 36 47 3f
       -0.46329388 -0.07830573 0.24008931 0.77816874
000310 25 5b 2f 3f 1d df 9e 3d db f3 c6 3c 71 e3 b4 be
       0.6849845 0.07757399 0.024286201 -0.35329774
000320 9e 73 dc 3d 92 a5 e4 3c 79 15 07 bf 2f 3b 2a 3f
       0.1076424 0.027910981 -0.5276714 0.66496557
000330 9e a7 8c 3f 98 d5 08 3f a1 1f 6e 3c 87 11 0d bf
       1.0988653 0.5345092 0.014533908 -0.5510487
000340 e2 61 10 bf 9a 22 f4 3e b1 3a 14 3e cd 11 b5 3e
       -0.5639936 0.4768265 0.14475514 0.35365143
000350 b8 f8 58 be c1 5b 19 3d 96 47 f2 3e 3a c4 cd be
       -0.21188629 0.03744102 0.4732024 -0.4018877
000360 c3 81 6f bf 46 6a f8 be 76 e5 41 be f2 86 1e 3f
       -0.93557376 -0.4851858 -0.18935189 0.6192466
000370 68 0b c7 3c d9 a8 37 bf 92 da 22 be ae 5b 36 3f
       0.024297431 -0.71742016 -0.1590369 0.7123364
000380 39 b7 95 bd 6a 24 ca 3e fd 40 8c 3d 04 5c 94 3e
       -0.073103376 0.39480907 0.06848333 0.28976452
000390 b7 1e 9e 3d 84 86 24 3f 59 8d fc be 45 cf ec be
       0.07720702 0.64267755 -0.4932659 -0.46251884
0003a0 5f b3 97 3d 99 c3 ad 3e a0 55 ed 3e 30 ce 26 3f
       0.07407259 0.33938292 0.4635439 0.6515837
0003b0 0c 78 22 3e 75 63 ea 3e 01 f7 59 3e 26 e4 6c 3e
       0.15866107 0.45779005 0.21285631 0.23133907
0003c0 e8 61 51 3d 5b a3 9f bf 12 0a a2 3d f6 89 48 3e
       0.05111876 -1.2471727 0.07912077 0.19583878
0003d0 e4 fd 20 3f 07 46 09 3f 08 90 b9 be 67 a1 44 be
       0.62887406 0.5362248 -0.362427 -0.19202195
0003e0 e0 59 c8 be a2 43 c3 3e 50 02 0c bf 5a 29 78 3f
       -0.3913107 0.38137537 -0.5469103 0.969381
0003f0 f5 ea b5 be 1f b9 96 3e 09 d0 e4 3e 9a 70 f6 3d
       -0.3553082 0.2943811 0.44689968 0.12033196

gru.bias_ih_l1 f4 [96]
000000 d9 74 ae 3e 90 84 42 3e db 0f c9 3e e0 20 66 3e
       0.34073523 0.18995881 0.3926991 0.22473478
000010 8f 6c 71 bf 17 6b 6c 3e bd 6f 93 3e e0 c8 41 3e
       -0.9430627 0.23087727 0.28796187 0.18924284
000020 bc a8 99 bf c9 5d 70 be 48 07 1a 3f 70 5f ca be
       -1.2004619 -0.23473276 0.6016736 -0.39525938
000030 59 58 b3 3d 42 63 92 be 24 f3 03 be 68 e6 f7 3e
       0.08757085 -0.28591353 -0.1288572 0.48417974
000040 57 e2 db bd ba 0e 49 3e 9b d7 4a 3e 3a ff 35 3e
       -0.1073653 0.19634524 0.1980881 0.17773142
000050 cd 63 a5 bd 75 c8 c6 3e b6 5e 0c 3f 07 85 f8 3d
       -0.08075676 0.38824812 0.5483202 0.12134748
000060 07 d6 ea bc 0e ea 45 be 88 c0 3b be b5 80 4b be
       -0.02866651 -0.19327566 -0.18335164 -0.19873317
000070 94 7d 1e 3f 7a b3 0d be 2d 4a 1d be af 30 ec 3d
       0.61910367 -0.13837996 -0.15360327 0.11532723
000080 51 f1 0e bf 43 f2 78 3d f4 38 55 be 3e 97 4a 3d
       -0.5583697 0.060777914 -0.20822507 0.049460642
000090 a4 3a 11 3f 4c 4a dd 3c 1e 9a 6b be 04 f9 22 be
       0.56730103 0.027012967 -0.2300801 -0.15915304
0000a0 85 44 9b 3f 6e 73 82 bf d2 98 25 3e 2c d2 11 be
       1.2130286 -1.0191476 0.16171578 -0.1424033
0000b0 5b 3f 44 3c dd 71 fd be 12 fe 8d be 89 33 12 be
       0.011977996 -0.49500933 -0.27732903 -0.14277472
0000c0 c6 e4 ee 3d f2 5b bc be 6a 67 21 3d e9 d3 20 bf
       0.11664729 -0.367889 0.039405264 -0.6282335
0000d0 f1 36 f3 bc 4e ec 9d be 79 b6 dd be c1 d9 c9 3d
       -0.029689284 -0.3084435 -0.43303278 0.098559864
0000e0 75 45 01 3f 2b 54 3c be 4e fe 37 be 71 85 30 bf
       0.5049661 -0.18391483 -0.17968103 -0.68953615
0000f0 29 df 0b 3f a2 d5 d9 be 18 a7 13 bf 0f 2d 32 3f
       0.5463739 -0.425458 -0.5767684 0.69600004
000100 74 f6 6f be ef d1 df 3c c5 15 49 3d 82 f4 ca 3e
       -0.23433858 0.027321784 0.049093027 0.3963967
000110 6a 22 97 bd 9d c2 29 be 8e 6a 23 be ba db 4d be
       -0.07379611 -0.16578145 -0.15958616 -0.2010335
000120 9b 82 d4 be 99 10 8e 3e 17 e1 1d bb 1f 66 82 be
       -0.41505894 0.27747038 -0.0024090463 -0.25468537
000130 f6 4b 8b bc c5 6a 2a bc 61 2c a6 3d b7 9d ca be
       -0.017003994 -0.010401432 0.08113933 -0.39573452
000140 08 40 57 be 71 f8 f7 bd 46 f8 50 3e 3d 75 69 bc
       -0.2102052 -0.12107933 0.20407209 -0.014249143
000150 af f0 5f 3e 6c 85 09 3e 1c cd 00 be 07 7e c7 3d
       0.21869157 0.13429803 -0.12578243 0.09740835
000160 d8 7c 6f 3c af cb c8 bc 56 d3 b7 be c4 d4 51 3e
       0.014617167 -0.024511186 -0.35903424 0.2049132
000170 82 1c 8d 3d 9d 6c 82 3e 3d a0 0e 3e 03 5b d7 be
       0.06890203 0.2547349 0.13928314 -0.42061624

gru.bias_hh_l1 f4 [96]
000000 44 6d 7b 3e f6 e4 96 3e c6 c8 a7 3e c8 23 b0 3e
       0.245534 0.29471558 0.32770365 0.344023
000010 ec b6 75 bf c1 5f 8f 3e b2 02 f9 3d 54 d3 49 3e
       -0.9598224 0.28002742 0.12158717 0.19709522
000020 30 ac 8e bf 76 aa 02 bf e9 83 da 3e f6 a3 d2 be
       -1.1146297 -0.5104135 0.42678764 -0.41140717
000030 8f 0d 88 3e 15 19 6b be 70 4a 56 be aa 87 3e 3e
       0.26572844 -0.22958787 -0.20926833 0.18606439
000040 44 eb af bd ac 2d 53 3e 17 5f c6 3d 35 29 5b 3c
       -0.08589795 0.20622891 0.09686106 0.013376524
000050 51 b8 f8 3d 84 77 d6 3e af 3a 01 3f 53 99 17 3e
       0.121445306 0.41888058 0.5048017 0.14804582
000060 a4 b6 34 3e 02 f2 8f be 1b af f0 be f3 10 a6 be
       0.17647797 -0.28114325 -0.47008595 -0.32434806
000070 5d 73 52 3f a5 da ef bd 32 eb 6f be e0 88 3a 3e
       0.8220728 -0.11711625 -0.23429564 0.18216276
000080 1c 2a 41 bf b6 87 d6 3d 7b d5 4c be 7c 84 24 3e
       -0.7545488 0.104751036 -0.20003311 0.16066164
000090 5f 42 f8 3e 46 0d 2d be b9 fd e8 be 3b 22 d9 bd
       0.48488137 -0.16899595 -0.45506075 -0.10602232
0000a0 0c 90 92 3f 05 a7 81 bf 1c 27 db 3d 26 f7 14 be
       1.145021 -1.0129095 0.10700819 -0.14547405
0000b0 51 0e 7f be ea 50 05 bf 44 9e 6b be 6c 89 d6 be
       -0.24907805 -0.5207659 -0.23009592 -0.4190172
0000c0 a4 cc 88 3e c2 ba ab be 01 1e 99 3c 5d 4e 33 bf
       0.26718628 -0.33540922 0.018691065 -0.7004145
0000d0 69 dc 2e bd 73 24 b5 bd 98 fd 14 bf 2a 96 d7 3d
       -0.04269067 -0.08844843 -0.58199453 0.105266884
0000e0 b5 d7 e9 3e 0f 48 3a bd 3c dd a9 3c 38 a9 61 bf
       0.45672384 -0.045478877 0.020735376 -0.8814883
0000f0 f2 88 1f 3f 78 bb 83 be 21 19 51 bf 96 8d 31 3f
       0.62318337 -0.25728965 -0.8167897 0.6935667
000100 d9 2e 46 be 7e ea 0f 3d a3 c9 cd bd d8 65 ed 3d
       -0.19353808 0.03513574 -0.10048225 0.11591691
000110 33 1b 68 3e 13 fe aa be 6d 5e c7 3e 62 0e 9c bc
       0.22666626 -0.33396968 0.3893923 -0.019049827
000120 f3 ca 05 be 52 92 d5 3d 4d 8b 9c 3e 6d f7 7c be
       -0.130657 0.10428299 0.30575028 -0.2470376
000130 00 af 06 be 39 ff 42 be 99 ca ce 3d f9 34 4e 3d
       -0.13152695 -0.19042672 0.10097236 0.050343487
000140 24 08 9b 3d 23 52 30 3f 06 9b f5 3e e0 93 e1 bc
       0.07569912 0.6887533 0.47969836 -0.027536333
000150 f1 84 f2 3e 2c 16 5d 3e d5 03 63 3e 26 a4 06 be
       0.4736705 0.21590489 0.2216943 -0.13148555
000160 7d e2 01 be b0 1a 25 be bd 30 0a be 27 a7 44 3e
       -0.12684055 -0.16123462 -0.13495155 0.19204389
000170 4a ba 9d bd df 3a 29 bd 6c c6 8e bd 83 98 cd be
       -0.077015474 -0.04131591 -0.0697144 -0.4015542

linear.weight f4 [15, 32]
000000 7b e2 f1 bf 6c b0 0e 40 a0 29 d1 bf 91 73 fb 3f
       -1.8897241 2.229518 -1.6340828 1.9644643
000010 b7 10 fb 3f 36 2a ba 3f e5 77 c1 bf 77 a2 fd 3f
       1.9614476 1.4544132 -1.5114714 1.9815205
000020 8b 32 df 3f 62 fc 13 40 d3 0b 09 40 52 dd 12 40
       1.74373 2.3122792 2.1413467 2.2947583
000030 17 2d b4 3f 18 78 14 c0 a3 01 0e 40 58 1c e0 3f
       1.407626 -2.31983 2.21885 1.750865
000040 9c 5e 93 bf 98 53 25 c0 ce 9a 43 c0 f7 61 f6 3f
       -1.1513247 -2.5832272 -3.0563235 1.9248646
000050 be 58 e8 bf 86 a9 06 c0 7e 85 07 c0 79 75 cd bf
       -1.8152082 -2.104097 -2.1175227 -1.6051475
000060 b4 6f fd bf 18 82 2e c0 ad 73 f1 bf df 2c ec 3f
       -1.9799714 -2.7266903 -1.8863426 1.8451194
000070 1e 32 a9 3f 96 03 d2 3f 28 7f ef bf fb 20 dd 3f
       1.321842 1.6407344 -1.871068 1.727569
000080 ac 9b 16 40 c1 55 db bf 1e 03 fc bf 5a f6 fd 3f
       2.3532515 -1.7135545 -1.9688451 1.9840806
000090 81 58 2c 40 08 86 2b c0 9b 70 bf be 89 3e 22 c0
       2.6929018 -2.6800556 -0.373906 -2.5350668
0000a0 b4 93 2c 40 c7 d3 e7 3f 6d 1d 30 c0 54 43 37 c0
       2.696515 1.8111504 -2.751796 -2.8634844
0000b0 4a 05 0b 40 e8 1f 17 40 70 4c 25 40 f9 c9 e0 bf
       2.1721978 2.3613224 2.5827904 -1.7561637
0000c0 44 d1 22 c0 e0 25 24 40 9a fa 1e c0 de 13 15 c0
       -2.5440226 2.5648117 -2.4840455 -2.3293376
0000d0 eb 96 9e 3f 13 62 1d c0 1f 17 50 40 c8 0a 2c c0
       1.2389807 -2.459111 3.2514112 -2.688158
0000e0 de 7b 18 c0 06 6c 05 40 2b ac 10 40 a6 4d 70 3f
       -2.3825603 2.0847182 2.2605083 0.9386848
0000f0 8f cb 20 40 c2 a1 29 c0 14 7a c8 bf 92 8f a9 3f
       2.5124242 -2.650498 -1.5662255 1.3246939
000100 c9 c9 f9 bf 16 e3 42 c0 e9 c7 20 c0 9f 6d 34 40
       -1.9514705 -3.0451102 -2.5122015 2.8191907
000110 04 66 92 bf 53 cc 6f 3e 13 87 10 c0 43 61 e4 3f
       -1.1437383 0.23417787 -2.2582443 1.7842182
000120 29 89 53 bf 94 68 88 3f 08 89 1c c0 d8 cb d6 bf
       -0.82631165 1.0656915 -2.4458637 -1.6780958
000130 06 97 21 40 05 a8 32 40 1b f7 0f c0 64 c2 21 c0
       2.5248427 2.791505 -2.2494571 -2.5274897
000140 4d 5e 33 3f c0 33 f4 3f eb 3f 4d 40 b8 3c 9d 3f
       0.70065767 1.9078293 3.2070262 1.2284155
000150 d3 f2 f8 3f 7d 75 1a 40 7a 45 3c c0 72 1d 0d 40
       1.9449104 2.413421 -2.9417405 2.2049222
000160 37 09 58 c0 e6 d3 3e 40 46 d4 11 c0 fb 1f 13 40
       -3.3755624 2.9816833 -2.2785811 2.298827
000170 33 55 0e 40 7e b9 3c 3f 09 d7 44 40 1f 83 58 40
       2.2239501 0.7372054 3.0756247 3.383003
000180 ac 78 c4 3f f7 1b 51 c0 1f 80 a4 3f ce 7c 78 bf
       1.5349326 -3.2673318 1.28516 -0.97065437
000190 23 1c 1c bf 5d 4f d1 bf 9a 4a 79 3f 96 e8 3e c0
       -0.60980433 -1.6352345 0.9737946 -2.982946
0001a0 b0 e6 8c bf 39 e8 e7 3f 18 60 61 40 ef 69 c9 bf
       -1.10079 1.8117744 3.52149 -1.5735453
0001b0 6f d7 65 40 69 ed 3d 40 41 79 f1 bf 05 39 13 c0
       3.591274 2.9676154 -1.8865129 -2.3003552
0001c0 ef 5b 4b 40 ef 32 a0 be 33 07 20 c0 a9 49 40 c0
       3.1774862 -0.3128886 -2.5004394 -3.0044959
0001d0 09 77 0e 40 15 ff 10 c0 4e 6d 09 c0 bf 00 62 3f
       2.2260153 -2.265569 -2.1472964 0.8828239
0001e0 5b 39 00 3f 76 b3 20 40 48 c5 4d 3f 35 71 38 c0
       0.5008752 2.5109534 0.8037915 -2.8819096
0001f0 96 a4 5e bf 3f 62 45 c0 5e 4d 50 c0 8f a8 cf bf
       -0.8696989 -3.0841215 -3.254722 -1.6223315
000200 a6 b8 06 bf 4b ed 9b bd 0b b8 5a 3f 5a b1 f6 bf
       -0.526255 -0.076136194 0.8543708 -1.9272873
000210 86 e1 4c 3f d5 a6 09 3e 2d 6b fd be 21 7f ac bf
       0.8003162 0.13442548 -0.4949583 -1.3476297
000220 61 25 5d 3e 04 d1 b3 bf 2b d5 85 3f 66 a7 fb 3f
       0.2159629 -1.4048162 1.0455679 1.9660461
000230 09 6b 46 bf 72 ff 0a 3f 9c 81 a3 3f 7a 5c c9 3f
       -0.7750707 0.5429603 1.2773929 1.5731347
000240 be 1f d7 3f 39 32 cf bf 78 fc be be c7 be 94 3e
       1.6806562 -1.6187202 -0.37301993 0.29051802
000250 35 14 45 bf 2f 47 3e 3f 75 d3 b8 3f 0b 85 ef bd
       -0.7698396 0.7432737 1.4439532 -0.11695298
000260 93 01 0e 3f ed 59 b8 bf 28 1a 1d c0 c2 13 99 3f
       0.5547115 -1.4402443 -2.4547215 1.1959155
000270 4b b5 0a bf 34 80 45 3f 85 d2 53 3f a1 93 a2 bf
       -0.5418288 0.7714875 0.827431 -1.2701303
000280 3a aa dc bf 39 c4 bf bf 84 04 cd bf 26 dc 0a c0
       -1.7239449 -1.4981757 -1.6017003 -2.1696868
000290 98 6f 43 c0 97 04 1d c0 68 48 fd 3f f8 00 16 40
       -3.0536861 -2.4534051 1.9787722 2.3438091
0002a0 f0 48 2f 40 39 30 1a c0 51 18 1b c0 17 4f 11 c0
       2.7388268 -2.4091933 -2.4233592 -2.2704523
0002b0 91 13 2b c0 9f 8b 37 c0 e3 53 3a 40 11 65 0d c0
       -2.6730692 -2.8678968 2.91137 -2.2092936
0002c0 81 d6 1a c0 1e 49 55 40 55 4f 3a c0 d6 9f 15 40
       -2.4193423 3.3325877 -2.911092 2.3378806
0002d0 40 bd f2 3f eb 7e 9e 3c ef af b7 bf 2b a5 f3 3f
       1.8964005 0.019347629 -1.4350566 1.903478
0002e0 ae 57 4c 40 47 3d 6f 3f 06 2d f5 3f 68 5f 2e c0
       3.1928515 0.93452877 1.9154365 -2.7245731
0002f0 06 20 17 40 ba 7c 0e 40 c4 49 07 40 20 4b cf bf
       2.3613296 2.2263627 2.1138773 -1.6194801
000300 cc 4a b5 bf 5f e6 40 c0 9c dd 0b 3f 3d c4 fd bf
       -1.4163451 -3.0140607 0.54635024 -1.9825512
000310 d2 dc bd 3f a3 82 28 c0 43 00 24 40 b8 4f 10 c0
       1.4833014 -2.6329734 2.562516 -2.2548656
000320 6a 25 17 40 61 46 21 c0 af 2b 30 c0 f3 7c 04 40
       2.3616586 -2.5199206 -2.7526662 2.0701263
000330 26 4c b1 3f ab 1f 26 40 bd e5 df 3f 9e 97 3c 40
       1.3851364 2.5956829 1.7491986 2.946754
000340 bb 75 c1 bf 96 14 2a c0 ee d4 cd 3f 92 3f e3 3f
       -1.5114053 -2.6575065 1.6080606 1.7753775
000350 17 9b 26 40 66 c9 d6 3f dd ec 36 40 2c 8b 3c c0
       2.603216 1.6780212 2.858207 -2.9459944
000360 ac f4 14 c0 60 af 2f c0 01 be a9 bf a0 f8 f6 3f
       -2.3274336 -2.745079 -1.326111 1.9294624
000370 2c ec f8 bf e7 d6 b1 3f 19 c1 03 40 6e a3 ef bf
       -1.9447074 1.3893708 2.0586607 -1.872175
000380 87 68 54 40 1c 0e 34 3f 2b eb 89 3f 87 95 04 c0
       3.3188798 0.7033403 1.0774893 -2.0716264
000390 eb 87 c4 bf 06 67 b9 bf 5a ae 1c c0 b8 72 0e c0
       -1.5353979 -1.4484565 -2.4481416 -2.2257519
0003a0 fe c8 ca bf 66 08 18 40 fd 51 ce 3f 65 9e d4 bf
       -1.5842588 2.3755126 1.6118771 -1.6610838
0003b0 80 6e 29 c0 b9 e3 1b 3e d2 99 37 40 45 9e 4e 40
       -2.6473694 0.15223588 2.8687634 3.22841
0003c0 0e a0 36 40 0d 0e 20 c0 82 35 ed 3f 83 b2 4e c0
       2.853519 -2.5008576 1.8531954 -3.2296455
0003d0 e1 3f dd 3f c1 4c 1a 40 61 d9 4c 40 3a e2 36 3f
       1.7285119 2.4109347 3.2007678 0.71438944
0003e0 31 8a 0d 40 b2 e3 28 40 31 9d fe bf df f2 3c 40
       2.2115595 2.6388974 -1.9891721 2.9523237
0003f0 71 13 fd bf 29 e9 87 3e 85 81 25 40 58 8c ed bf
       -1.9771558 0.26545075 2.5860302 -1.8558455

linear.bias f4 [15]
000000 2a b0 36 3f c2 1e c7 bc 81 d6 1b 3f 7b a6 90 3e
       0.71362555 -0.024306659 0.6087418 0.28252015
000010 be 57 7f bf 5f af 8a 3d a4 0a bb 3d a8 ad 63 3e
       -0.9974326 0.06771731 0.09132889 0.22234213
000020 b9 39 8c 3e 52 b9 7b bf f3 ce 43 3e 74 c5 e4 bf
       0.2738779 -0.9832965 0.19121914 -1.7872758
000030 09 5e 7d 3e 62 79 d6 bd 6d 8e a2 3e
       0.24742903 -0.10472371 0.31749287
