RNN_GRU_Att.pt (torch, 314907 bytes, 12 tensors)

gru.weight_ih_l0 f4 [96, 300]
0	0x3f26c539	0.6514469
1	0x3eaf044e	0.34182972
2	0x3db088e3	0.08619859
3	0xba149cea	-0.0005669134
4	0xbeb92ef6	-0.3616864
5	0xbdb66872	-0.0890664
6	0xbe0efe82	-0.13964275
7	0x3e8ff362	0.28115374
8	0x3ced0cf8	0.028936848
9	0x3bfe25ab	0.007755955
10	0x3e6d1ac6	0.23154745
11	0x3e81a3c5	0.2532026
12	0x3e1deba9	0.15421928
13	0x3d13ad95	0.036054213
14	0x3d965ebe	0.073422894
15	0xbea80a66	-0.32820433
16	0x3dedc604	0.11610034
17	0xbe8134a5	-0.25235477
18	0xbcca933d	-0.024728412
19	0x3ed08ba0	0.40731525
20	0x3ea2d4e7	0.31803057
21	0x3ea548e2	0.32282168
22	0xbd514523	-0.051091325
23	0x3eea20a8	0.4572804
24	0xbe963ba9	-0.29342392
25	0x3db11783	0.08647063
26	0x3ed9b77c	0.425228
27	0xbdf824f8	-0.12116426
28	0x3da2d134	0.079500586
29	0xbe88d786	-0.2672693
30	0xbf1b2df9	-0.60617024
31	0x3c65ca5f	0.0140253
32	0xbdf76f05	-0.12081722
33	0x3ef47aac	0.4774984
34	0xbedb0a0b	-0.427811
35	0x3d4dcaae	0.05024212
36	0x3e7303c1	0.23731901
37	0x3f12f8c5	0.5741084
38	0xbe84e87c	-0.25958622
39	0x3e7cb13b	0.24676983
40	0x3e9c200c	0.304932
41	0xbe2d7801	-0.16940309
42	0x3ea99c95	0.33127275
43	0xbda831a2	-0.08212592
44	0xbf000648	-0.50009584
45	0x3bae20bb	0.0053139604
46	0xbe3a98d9	-0.18222369
47	0xbee35bba	-0.4440592
48	0x3f086a60	0.53287315
49	0x3f4310cf	0.7619752
50	0xbe4237b1	-0.18966557
51	0x3ec567c4	0.3855573
52	0x3ee19286	0.440571
53	0x3d9a29ac	0.075274795
54	0x3ba22d0b	0.004949217
55	0xbecf8bb8	-0.40536284
56	0x3c15b851	0.009138183
57	0x3f0a018d	0.53908616
58	0xbe3305f3	-0.17482738
59	0x3e19ef08	0.1503259
60	0xbe0f04ba	-0.13966647
61	0xbbabb3a4	-0.0052399207
62	0x3e977b37	0.29586193
63	0xbe7b42b4	-0.24537164
64	0xbe9e2e9a	-0.3089493
65	0xbe53d413	-0.20686369
66	0xbf04b3a4	-0.5183661
67	0xbed8002b	-0.42187628
68	0xbe205875	-0.15658744
69	0xbe0da524	-0.13832527
70	0xbecd950c	-0.40152776
71	0xbeab8c34	-0.33505404
72	0x3e2c326b	0.16816108
73	0xbeff17ef	-0.49822947
74	0x3f6ca764	0.9244292
75	0xbdaed9eb	-0.08537658
76	0x3dd1b156	0.10238902
77	0xbeb0ed15	-0.3455588
78	0x3dd01c49	0.10161645
79	0x3e282621	0.16420795
80	0xbea0336e	-0.31289238
81	0xbed5cd02	-0.4175797
82	0xbf1fb409	-0.62384087
83	0xbebb7c23	-0.36618146
84	0xbd9f932d	-0.077917434
85	0x3de0e3ea	0.10980971
86	0x3d33a251	0.04385597
87	0xbf468b6f	-0.7755651
88	0x3d46b035	0.048507888
89	0x3de13642	0.10996677
90	0x3ec19823	0.37811384
91	0x3f49ceb6	0.7883104
92	0x3e2e51a8	0.17023337
93	0x3f0db58d	0.5535515
94	0x3d6b5598	0.057454675
95	0xbdaf66ee	-0.08564554
96	0xbcf489d7	-0.029850883
97	0xbe8a7d27	-0.2704861
98	0xbe8259db	-0.2545918
99	0x3e31ab83	0.17350583
100	0xbedff772	-0.43743473
101	0x3e65bc93	0.22435217
102	0xbe85fc6c	-0.26169145
103	0x3e3951f7	0.18097673
104	0x3f362408	0.7114873
105	0xbec0db8a	-0.37667495
106	0x3f1999d5	0.60000354
107	0x3d45dc7f	0.048305985
108	0xbe42c85e	-0.19021747
109	0xbdc85a52	-0.09782852
110	0xbe92e275	-0.28688398
111	0xbd68dc42	-0.05685068
112	0xbdf38bb3	-0.1189188
113	0xbdfeeae3	-0.12447145
114	0xbede4874	-0.43414652
115	0x3d94754e	0.072489366
116	0x3e57791d	0.21042295
117	0xbd809dce	-0.06280099
118	0xbe355cf6	-0.17711243
119	0x3e0e4381	0.13892938
120	0x3ece0fb0	0.40246344
121	0x3eda696d	0.42658558
122	0x3e3d9db1	0.18517186
123	0xbe40a0ad	-0.18811293
124	0xbef59fd0	-0.4797349
125	0xbf08f737	-0.5350222
126	0x3f09a8c5	0.53773147
127	0x3e612b42	0.21989158
128	0x3ce571ef	0.02800843
129	0x3f2a9d28	0.6664605
130	0xbe8315a8	-0.2560246
131	0x3dfb4f68	0.12271005
132	0x3e8b4dfe	0.2720794
133	0xbe8cf358	-0.27529407
134	0x3f4a8ebf	0.79124063
135	0x3d0c7a59	0.034296367
136	0xbe2f1f96	-0.17101893
137	0x3d70d4db	0.058796745
138	0x3e564094	0.20923072
139	0xbc2be501	-0.0104916105
140	0xbdabb689	-0.08384425
141	0xbebe83f7	-0.37210056
142	0x3f0739bf	0.5282249
143	0x3d1989fe	0.037485115
144	0x3e16e58c	0.14736003
145	0x3dc0e8ef	0.094194286
146	0x3e27a690	0.16372132
147	0xbeb6c27b	-0.35695252
148	0xbe2adf4f	-0.16686748
149	0x3ef8fb9c	0.48629463
150	0x3edb8ad5	0.42879358
151	0x3df7eb6d	0.12105451
152	0xbe8a05d2	-0.26957566
153	0x3e152f38	0.14568794
154	0xbf90f1de	-1.1323812
155	0x3dd1842c	0.10230288
156	0xbe9f05d1	-0.31059125
157	0xbf0cdd1f	-0.55024904
158	0x3d32c5b3	0.043645572
159	0x3e772d8e	0.24138471
160	0xbf04fabe	-0.519451
161	0xbecf63c4	-0.40505803
162	0xbe8f7ac1	-0.2802334
163	0x3eadc561	0.3393965
164	0xbf4070fd	-0.75172406
165	0xbf02e5bf	-0.51131815
166	0xbd1b89d4	-0.03797324
167	0xbe0325f1	-0.12807442
168	0xbe0e0cd1	-0.13872077
169	0xbd09c1b0	-0.03363198
170	0x3e8b4f5f	0.27208993
171	0x3d85a3ae	0.0652536
172	0x3dc85c75	0.0978326
173	0xbf18285f	-0.594366
174	0xbd8632c1	-0.06552649
175	0x3d9412c2	0.0723014
176	0x3f153050	0.58276844
177	0xbd9bc224	-0.07605389
178	0xbf1fb2ca	-0.62382185
179	0x3db8fdb2	0.090327635
180	0x3d022a79	0.031778786
181	0x3d88dafb	0.06682392
182	0x3ea2ccac	0.31796777
183	0x3e811101	0.25208285
184	0x3e2afa9f	0.16697167
185	0x3f0028ce	0.50062263
186	0xbe1ead56	-0.1549581
187	0x3ec3cf29	0.38243988
188	0x3f614442	0.8799478
189	0x3eb00728	0.3438046
190	0xbd9f73e7	-0.077857785
191	0xbd853186	-0.065035865
192	0xbe14fee9	-0.14550366
193	0x3f3aa1e8	0.729033
194	0x3f5feefe	0.8747405
195	0x3eaff069	0.34363106
196	0xbde25f43	-0.11053326
197	0x3e676af3	0.22599392
198	0xbbd78390	-0.006576963
199	0x3f1881e6	0.5957321
200	0x3f55322c	0.8327968
201	0x3ddf92cb	0.109166704
202	0xbf51896d	-0.8185032
203	0x3e67516f	0.22589658
204	0xbe03cf4d	-0.12872048
205	0xbef32319	-0.47487715
206	0x3eea903f	0.45813176
207	0x3eb53823	0.3539439
208	0xbe978820	-0.29596043
209	0x3e819e41	0.2531605
210	0x3eb8ede5	0.36119
211	0xbeb80c41	-0.3594685
212	0x3ec0783b	0.3759173
213	0xbe137105	-0.14398582
214	0xbe54987a	-0.2076129
215	0x3b842d00	0.0040336847
216	0xbf3fff29	-0.7499872
217	0xbeeca504	-0.46219647
218	0xbd517afd	-0.05114268
219	0x3c5126e8	0.012765624
220	0xbedd72d7	-0.43251678
221	0xbf08566a	-0.5325686
222	0xbeab1144	-0.3341161
223	0xbec6a04c	-0.38794172
224	0x3e2e2aa8	0.1700846
225	0x3e840edd	0.2579259
226	0x3e13b0a9	0.14422859
227	0x3cf5e7a2	0.030017678
228	0x3d5aa8f9	0.0533838
229	0xbec00987	-0.3750727
230	0x3ebce287	0.36891577
231	0x3e956c2c	0.2918409
232	0x3b2a6522	0.0026000221
233	0xbfa18bb7	-1.2620763
234	0xbe66b9f4	-0.22531873
235	0xbd04c48d	-0.032414008
236	0x3e513135	0.20428927
237	0xbf9bd92e	-1.2175653
238	0x3ccbd739	0.0248829
239	0x3dc7a478	0.09748167
240	0x3d74306b	0.059616487
241	0x3d819322	0.063268915
242	0xbde2c1f0	-0.11072147
243	0x3e8138e4	0.25238717
244	0xbf93a7c2	-1.1535571
245	0x3e9dfc96	0.3085677
246	0xbef61771	-0.4806476
247	0xbf01c59e	-0.50692165
248	0xbf2d3535	-0.6765931
249	0x3e90edb2	0.28306347
250	0xbe9f2117	-0.31079933
251	0x3e96c5bc	0.29447734
252	0xbf9f3ad5	-1.2439829
253	0x3e45499f	0.19266365
254	0xbf1ae040	-0.6049843
255	0x3f3b6f10	0.7321634

gru.weight_hh_l0 f4 [96, 32]
0	0xbf4de6b3	-0.80430144
1	0x3e6ecbc9	0.23319925
2	0xbe80772f	-0.2509093
3	0xbe9e9583	-0.30973443
4	0xbe52f0ef	-0.20599721
5	0x3ee2b341	0.44277385
6	0xbef1c75a	-0.47222406
7	0xbec69415	-0.38784853
8	0xbf038088	-0.51368
9	0x3e718a73	0.2358797
10	0x3f2eab6f	0.68230337
11	0x3e6d119d	0.2315125
12	0xbf2dd421	-0.6790181
13	0x3c357597	0.011075399
14	0x3d6c5630	0.057699382
15	0x3ecaf9f5	0.39643827
16	0xbe8b0f80	-0.27160263
17	0xbe0125cf	-0.12612079
18	0x3e9818c9	0.2970641
19	0xbd354322	-0.044253476
20	0x3eeb3ff7	0.4594724
21	0x3f52dc52	0.8236743
22	0x3ce74551	0.028231295
23	0xbee63277	-0.44960377
24	0xbe7fa32d	-0.2496459
25	0x3e826030	0.2546401
26	0x3e1da9cb	0.15396802
27	0x3e2e994d	0.17050667
28	0x3dc2eca6	0.09517793
29	0x3f8270b8	1.0190649
30	0x3e0eaddc	0.1393351
31	0xbe73a539	-0.23793496
32	0x3ac4de2f	0.0015019829
33	0x3e7c890a	0.24661651
34	0xbdfad715	-0.12248055
35	0xbe21681f	-0.15762375
36	0x3e0f37ca	0.13986126
37	0x3ebc3164	0.36756432
38	0x3e37e14c	0.17957038
39	0x3f070b4d	0.5275162
40	0xbd658b56	-0.056041084
41	0xbef10073	-0.47070655
42	0xbf80d810	-1.0065937
43	0xbf19ee56	-0.60129297
44	0x3e5bbf59	0.21459712
45	0xbebfa702	-0.37432104
46	0x3f18be88	0.5966573
47	0x3db35da2	0.087580934
48	0x3f205d7d	0.6264265
49	0x3e97d87f	0.2965736
50	0xbef9a197	-0.48756096
51	0x3e050fe3	0.12994342
52	0xbdf45c49	-0.119316645
53	0xbe0da0c3	-0.13830857
54	0x3eecc979	0.4624746
55	0xbee4881f	-0.44635102
56	0xbf51000e	-0.8164071
57	0x3ea22eae	0.3167624
58	0x3ea46c7b	0.32114014
59	0xbe7cda33	-0.24692611
60	0x3e14212b	0.14465778
61	0xbf527090	-0.82203007
62	0xbe6245a7	-0.22096883
63	0x3c8dabe8	0.017293885
64	0x3eaf7ec1	0.34276393
65	0xbeb3e350	-0.35134363
66	0x3ef1d631	0.47233728
67	0x3f4a9dd4	0.79147077
68	0x3f3adbdf	0.72991747
69	0xbefb2c41	-0.490572
70	0xbe3e8ad2	-0.18607643
71	0x3e9b979f	0.30389115
72	0xbed3c86e	-0.41363853
73	0x3dd6c687	0.10487085
74	0xbef8d97a	-0.4860342
75	0xbf5134ef	-0.81721395
76	0x3ee13eb3	0.43993148
77	0xbee3b32d	-0.44472638
78	0xbeb9a5f6	-0.3625943
79	0x3d5c9f9b	0.05386315
80	0xbe8b203d	-0.27173033
81	0x3dacd86b	0.08439716
82	0xbf548c57	-0.8302664
83	0x3cd5e30f	0.026109247
84	0xbec7fe2c	-0.39061105
85	0x3e113f2c	0.14184254
86	0x3ecb781e	0.3974008
87	0x3f00b4d7	0.5027594
88	0x3f13212e	0.57472503
89	0x3d37451b	0.04474364
90	0xbdc747f0	-0.09730518
91	0x3f297275	0.6619027
92	0x3f5238aa	0.8211771
93	0xbe90d377	-0.28286335
94	0xbe89233c	-0.26784694
95	0x3edcdc86	0.43136996
96	0x3e5fdf0b	0.21862428
97	0xbf393183	-0.72341174
98	0xbeb2e384	-0.34939206
99	0xbdfed455	-0.12442843
100	0xbdc9fdf7	-0.09862893
101	0xbee45b12	-0.4460073
102	0xbe670f43	-0.22564416
103	0xbee75c98	-0.4518783
104	0xbe29f264	-0.16596371
105	0x3ebb846e	0.36624473
106	0x3eb9077a	0.36138517
107	0xbea049ac	-0.31306207
108	0x3f5a4413	0.85260123
109	0xbf1faf19	-0.6237655
110	0xbeeedba8	-0.4665196
111	0x3e63b515	0.22237046
112	0xbf5ac364	-0.8545439
113	0xbe931129	-0.2872403
114	0x3e8c3503	0.27384195
115	0xbda07d93	-0.078364514
116	0xbea78044	-0.32715046
117	0x3f085245	0.53250533
118	0x3d59da7d	0.053186882
119	0x3f563825	0.8367942
120	0x3e4e24fc	0.20131296
121	0xbe5436d8	-0.20724046
122	0xbf68fbbb	-0.9100911
123	0x3e8045d4	0.25053275
124	0x3d885e65	0.06658629
125	0x3e2bc132	0.16772917
126	0xbcd31820	-0.02576834
127	0xbee6d889	-0.45087078
128	0x3cc20ea3	0.02368862
129	0xbd9abfce	-0.07556115
130	0x3e88bcd3	0.2670656
131	0x3e933530	0.28751516
132	0xbe6aa0e1	-0.22912933
133	0x3ec85ce0	0.39133358
134	0x3e0136ed	0.12618609
135	0x3de9fbdd	0.11424992
136	0xbde04ff6	-0.10952751
137	0xbdb89411	-0.090126164
138	0xbd6e5489	-0.058186088
139	0xbed64b53	-0.41854343
140	0x3ec3f87c	0.38275516
141	0xbd94e424	-0.07270077
142	0xbd2c9393	-0.042132925
143	0xbe393d5c	-0.18089813
144	0xbe05d64c	-0.13070029
145	0x3d445115	0.04792889
146	0xbea4163a	-0.32048208
147	0xbe854ad8	-0.26033664
148	0x3d9f94e2	0.07792069
149	0xbd8dd2b2	-0.069249526
150	0x3f023dd4	0.5087559
151	0xbe8ebf1d	-0.27880183
152	0xbe902fef	-0.2816157
153	0x3f4a74b1	0.79084307
154	0xbed99b8c	-0.42501485
155	0x3e8c9413	0.27456722
156	0x3dd59f26	0.10430746
157	0xbf1ffeb6	-0.62498033
158	0x3f0cb1ef	0.54959005
159	0x3d9407a1	0.072280176
160	0x3de494be	0.11161183
161	0x3f2b0bd0	0.668149
162	0x3edc5edf	0.4304113
163	0x3f53a7af	0.8267774
164	0xbe966367	-0.29372713
165	0xbec9ef6e	-0.39440483
166	0x3f18e471	0.59723574
167	0x3df8ecf0	0.12154567
168	0xbefc282d	-0.49249402
169	0xbcc34959	-0.023838686
170	0xbf898748	-1.074441
171	0xbee2c55c	-0.44291198
172	0x3eb3e6c2	0.35136992
173	0xbdfd9529	-0.12381966
174	0x3eb97adc	0.36226547
175	0x3e656fab	0.22405879
176	0xbe5dc1e8	-0.21656
177	0x3f0c5496	0.5481657
178	0x3dbf7a3a	0.09349485
179	0x3e55d355	0.20881398
180	0xbe14c55f	-0.14528416
181	0xbef58e86	-0.479603
182	0x3e26efa5	0.16302355
183	0xbf0e365f	-0.55551714
184	0x3e1638d9	0.14670123
185	0xbd991f84	-0.07476714
186	0xbda78400	-0.08179474
187	0xbe9c5879	-0.3053625
188	0xbe54afdb	-0.20770209
189	0x3e63dd61	0.22252418
190	0xbd3521ab	-0.04422156
191	0x3f2f7237	0.68533653
192	0xbd3332fc	-0.043749794
193	0xbdb33e92	-0.08752169
194	0x3e61c669	0.22048344
195	0x3ea89ece	0.32933658
196	0x3f570d0c	0.8400428
197	0xbf255ff2	-0.64599526
198	0x3f3d11c4	0.73855233
199	0xbf554190	-0.83303165
200	0xbf44ec59	-0.7692314
201	0xbed8fcb7	-0.42380306
202	0x3ec05f58	0.37572742
203	0xbe408ccd	-0.18803711
204	0x3e4fc2d6	0.20289168
205	0x3da81a80	0.082081795
206	0xbecc5055	-0.39905038
207	0x3e8169b4	0.25275958
208	0xbf175f67	-0.5912995
209	0xbc4229ee	-0.011850817
210	0x3e303a4f	0.17209743
211	0xbdb6257c	-0.08893868
212	0x3c4d3e3f	0.012527048
213	0xbec549ca	-0.3853286
214	0xbdab8bb7	-0.08376258
215	0x3f42d8a9	0.7611185
216	0x3f17e90e	0.5933999
217	0xbeacab81	-0.33724597
218	0xbe15e5cd	-0.14638443
219	0xbd535d9a	-0.051602937
220	0xbe90831a	-0.28225023
221	0x3ed7d916	0.4215781
222	0xbea25a67	-0.31709597
223	0xbdaa28a8	-0.08308536
224	0x3e322144	0.17395502
225	0xbf5ab974	-0.8543923
226	0xbeb65a78	-0.35615897
227	0x3f344b37	0.7042727
228	0x3f3155c0	0.6927147
229	0x3d331bd9	0.04372773
230	0x3e5628f7	0.20914064
231	0x3ec7c334	0.39016116
232	0x3b57ba12	0.0032917303
233	0xbdb127c6	-0.08650164
234	0x3d60b960	0.054864287
235	0xbeed5282	-0.4635201
236	0x3e1e0351	0.15430953
237	0xbf38912f	-0.7209653
238	0xbe606d08	-0.21916592
239	0xbcfb420b	-0.03067114
240	0xbe98e1b5	-0.298597
241	0xbe90307f	-0.28162
242	0xbf355e2b	-0.70846814
243	0xbf0fabd6	-0.56121576
244	0xbe36e8c4	-0.1786223
245	0x3e1fa9cc	0.15592116
246	0x3f494908	0.7862706
247	0x3e8e82b2	0.27834088
248	0x3eabb232	0.3353439
249	0xbe66ee0d	-0.22551747
250	0xbdb40932	-0.08790816
251	0x3d60ac98	0.0548521
252	0x3eeb2989	0.45930126
253	0xbeaf3c1f	-0.34225556
254	0x3cc0b458	0.023523495
255	0xbeb3a2bf	-0.35085103

gru.bias_ih_l0 f4 [96]
0	0xbe5d6228	-0.21619475
1	0x3de4c294	0.11169925
2	0xbec39860	-0.3820219
3	0xbeb1d838	-0.34735274
4	0xbd8e1a5a	-0.0693862
5	0x3d24bea0	0.040220857
6	0xbe0e52bc	-0.13898748
7	0xbc73d899	-0.014883184
8	0xbe87db97	-0.2653472
9	0xbf1976c3	-0.5994684
10	0x3e803066	0.25036925
11	0x3e8e9992	0.2785154
12	0xbdf6d0ce	-0.12051545
13	0x3e64df73	0.22350864
14	0x3c56db7b	0.013113852
15	0xbf10f12c	-0.56618
16	0x3c31b63d	0.010846672
17	0xbeec2fda	-0.46130258
18	0xbe2c3359	-0.16816463
19	0xbe3b3cd5	-0.18284924
20	0xbe9e8e28	-0.30967832
21	0x3e796d51	0.24358107
22	0x3e92d0af	0.28674838
23	0x3f6888da	0.9083382
24	0xbd460ec7	-0.048353937
25	0xbf443019	-0.7663589
26	0xbf15b656	-0.5848135
27	0xbf1bf2ef	-0.6091756
28	0xbe0fbe91	-0.14037539
29	0xbdf83883	-0.12120154
30	0xbdeb0078	-0.11474699
31	0x3c9fdd0d	0.019514585
32	0x3e81cde4	0.25352395
33	0xbe0fca6f	-0.14042066
34	0xbdc245c8	-0.09485966
35	0xbe90c073	-0.28271827
36	0xbf139a3a	-0.57657206
37	0x3d7badd9	0.06144509
38	0xbe0e292a	-0.1388289
39	0xbe72f311	-0.23725535
40	0x3e68bf97	0.22729336
41	0x3e876f07	0.26451895
42	0xbdaca45e	-0.08429788
43	0x3e4d75e7	0.20064507
44	0xbf62d758	-0.8860984
45	0xbf19e57c	-0.6011579
46	0xbeda39fb	-0.4262236
47	0x3df91ce3	0.12163713
48	0xbf07f26d	-0.5310429
49	0x3e3758ba	0.1790494
50	0xbecd5c6a	-0.4010957
51	0xbe579be2	-0.21055558
52	0xbe6484ba	-0.22316256
53	0xbe2b7e2d	-0.16747351
54	0xbf061934	-0.52382207
55	0x3e4a93d8	0.1978296
56	0xbd1c1e72	-0.038114972
57	0x3f13183f	0.5745887
58	0xbeb5b960	-0.35492992
59	0xbf481d9b	-0.78170174
60	0x3f363ec1	0.71189505
61	0x3e1956ec	0.14974564
62	0xbec673a7	-0.3876011
63	0x3e4a46b0	0.19753528
64	0x3d16fa6b	0.03685991
65	0x3e1adc38	0.1512307
66	0x3e8ae2f5	0.2712628
67	0x3d5ad6f8	0.053427666
68	0x3da1dc03	0.07903292
69	0xbd70519d	-0.058671582
70	0x3dc7462f	0.09730183
71	0x3e32698e	0.17423078
72	0x3c6e4c1c	0.014544513
73	0x3e2fd98e	0.17172834
74	0xbd905d12	-0.07049002
75	0x3df2642f	0.11835515
76	0x3e3b11d1	0.18268515
77	0x3e91bf34	0.2846619
78	0xbdc28547	-0.09498077
79	0xbcf76ee8	-0.030204251
80	0x3e1c5674	0.15267354
81	0x3e479b58	0.19492853
82	0xbe639d2f	-0.2222793
83	0x3e830c4a	0.25595313
84	0x3e25b76d	0.16183253
85	0x3dcbfe48	0.0996061
86	0xbe5ce509	-0.21571745
87	0x3d83ef3d	0.064421155
88	0xbdcbc36f	-0.099493854
89	0x3df35350	0.11881125
90	0x3db90dae	0.09035812
91	0x3e0eb9ee	0.13938114
92	0xbd82e3b3	-0.063910864
93	0xbe1d55a0	-0.15364695
94	0x3eb58aec	0.3545755
95	0x3d79e52c	0.06100957

gru.bias_hh_l0 f4 [96]
0	0xbe5a00b9	-0.21289338
1	0x3e32eab9	0.17472352
2	0xbea88b6f	-0.3291888
3	0xbef2d0b5	-0.47424856
4	0xbe9beabc	-0.30452526
5	0xbdc610a1	-0.096711405
6	0xbbff8bbd	-0.0077986405
7	0xbe6e4ac9	-0.23270716
8	0xbdfbae01	-0.12289048
9	0xbeb472b0	-0.3524375
10	0x3eb21a97	0.3478591
11	0x3eabb3da	0.33535653
12	0xbd877542	-0.06614162
13	0x3e948e6c	0.2901491
14	0x3d25314c	0.040330216
15	0xbf1433a4	-0.578913
16	0xbd1248ee	-0.035714082
17	0xbecee0a2	-0.40405756
18	0xbe032b1c	-0.12809414
19	0xbe812a40	-0.25227547
20	0xbe8bd221	-0.27308753
21	0x3e9373c0	0.28799248
22	0x3ec5bb59	0.38619497
23	0x3f627a49	0.8846784
24	0xbcf33130	-0.02968654
25	0xbf2b859a	-0.67000735
26	0xbf0fa917	-0.56117386
27	0xbf445ce0	-0.76704216
28	0xbc233f79	-0.0099638635
29	0xbe1187cb	-0.14211957
30	0xbe029c90	-0.12755036
31	0xbe849f1c	-0.2590264
32	0x3e532167	0.2061821
33	0xbe01517a	-0.12628737
34	0xbd944c2e	-0.072410926
35	0xbf0de810	-0.55432224
36	0xbf56d609	-0.8392034
37	0xbe05e710	-0.13076425
38	0xbe7bd13b	-0.24591534
39	0xbea9cb18	-0.3316276
40	0x3e832aac	0.25618494
41	0x3cde8674	0.027163722
42	0xbeb40045	-0.35156456
43	0x3dfae6bb	0.122510396
44	0xbf721d63	-0.9457609
45	0xbf15d4a6	-0.585276
46	0xbeb81792	-0.35955483
47	0xbd8341d1	-0.06409038
48	0xbef5a8ff	-0.47980496
49	0x3e912b63	0.28353414
50	0xbe1dd913	-0.15414838
51	0xbe1beb68	-0.15226519
52	0xbe43c2ad	-0.19117232
53	0xbf0410f3	-0.5158836
54	0xbeabd309	-0.33559445
55	0x3d699e7f	0.05703592
56	0xbe89e0c9	-0.2692931
57	0x3eb91a68	0.3615296
58	0xbe7acee1	-0.2449298
59	0xbf105d0b	-0.5639197
60	0x3f57ca28	0.8429284
61	0x3e661bc3	0.22471528
62	0xbe8b38cf	-0.2719178
63	0x3ed1c432	0.40969998
64	0x3e2f2958	0.17105615
65	0x3e605f70	0.21911407
66	0x3ea59df7	0.3234708
67	0xbca370fb	-0.019951334
68	0xbdabb09f	-0.08383297
69	0x3d79d652	0.060995407
70	0x3e52eedc	0.2059893
71	0x3edf8644	0.43657124
72	0xbe6e65bf	-0.23281
73	0xbcf141a4	-0.029450245
74	0xbd8fe453	-0.07025971
75	0xbd27f9e6	-0.041009806
76	0x3e1657a7	0.14681874
77	0x3dd9d6c8	0.106366694
78	0xbd894e96	-0.06704442
79	0xbadb3143	-0.0016723055
80	0x3e3e1d50	0.1856587
81	0x3e7dcac9	0.24784388
82	0xbe9ff8f0	-0.31244612
83	0x3e5c238a	0.21497932
84	0x38e805ef	0.00011063727
85	0x3e32d003	0.17462163
86	0xbd8128e7	-0.0630663
87	0xbe7b9f29	-0.24572434
88	0xbf1c5daa	-0.6108042
89	0x3d3b2547	0.045689847
90	0x3daa2fdf	0.08309912
91	0x3e7a9c35	0.24473651
92	0xbca97d3a	-0.020689595
93	0xbe91d740	-0.28484535
94	0x3e4480e7	0.19189797
95	0x3e1763b7	0.14784132

gru.weight_ih_l1 f4 [96, 32]
0	0xbee576ec	-0.44817293
1	0x3e4aec52	0.19816712
2	0xbef36a0d	-0.47541848
3	0xbd99ad61	-0.075037725
4	0x3eed72c9	0.46376637
5	0xbda8e82a	-0.08247407
6	0x3f6b979a	0.920282
7	0x3bbe4472	0.005806499
8	0xbe8267e7	-0.25469896
9	0x3ed173b5	0.4090859
10	0x3f290f4e	0.6603898
11	0xbdcf77c9	-0.10130269
12	0xbe60842d	-0.21925421
13	0x3e1c82f3	0.15284328
14	0xbd460856	-0.048347794
15	0xbd88c447	-0.06678062
16	0xbe8df2dc	-0.2772435
17	0x3ee7132b	0.45131811
18	0x3f0554d3	0.52082556
19	0x3d46bbf3	0.048519086
20	0xbe3e1df8	-0.1856612
21	0x3b8647dd	0.0040979222
22	0x3eab750b	0.33487734
23	0xbd556ffc	-0.05210875
24	0x3e9e8da9	0.30967453
25	0xbf59c05c	-0.8505914
26	0xbd08e816	-0.03342446
27	0x3de4baba	0.11168428
28	0xbc920fc4	-0.017829783
29	0xbec67847	-0.3876364
30	0xbf35efca	-0.71069014
31	0x3db25c2b	0.08708986
32	0x3f146514	0.5796673
33	0xbd9b0666	-0.0756958
34	0x3ee8f0f1	0.45496324
35	0x3f08092e	0.5313901
36	0x3f18fb37	0.59758323
37	0xbeb44433	-0.35208282
38	0x3bd0c293	0.0063708513
39	0x3e08b6ad	0.13350935
40	0x3edffb74	0.4374653
41	0xbdba84ff	-0.09107398
42	0x3d3afec1	0.04565311
43	0x3b9ac773	0.004723483
44	0x3e68dda3	0.22740798
45	0x3f14f3c6	0.5818447
46	0xbf4a5cd8	-0.7904792
47	0xbf143fad	-0.5790966
48	0xbf415530	-0.7552061
49	0x3e78c608	0.24294293
50	0xbefc9937	-0.49335644
51	0xbe842725	-0.25811115
52	0x3e893c79	0.2680395
53	0xbda63073	-0.0811471
54	0xbe0ba25f	-0.13636158
55	0x3eb5d202	0.35511786
56	0x3e6e3b4b	0.23264806
57	0x3eba7f38	0.36425185
58	0xbea61cd9	-0.32443884
59	0xbcbfaf10	-0.023398906
60	0xbdc54f9d	-0.09634326
61	0x3e542346	0.20716581
62	0x3d923eef	0.0714091
63	0x3c286253	0.010277349
64	0xbeaecab5	-0.34139028
65	0x3e76e27d	0.24109836
66	0xbf28d96b	-0.65956753
67	0xbf034839	-0.5128208
68	0xbe8b51c6	-0.27210826
69	0xbc423fea	-0.011856059
70	0x3eb354e5	0.35025707
71	0xbefbd94b	-0.4918922
72	0x3ed44ffe	0.4146728
73	0x3f08a3ac	0.53374743
74	0x3d7a7f66	0.061156653
75	0xbe1782ab	-0.1479594
76	0xbcd0fe3b	-0.025511852
77	0xbe356bfd	-0.17716976
78	0x3f035f94	0.51317716
79	0xbd92dca8	-0.07170993
80	0x3f7b3e17	0.98141617
81	0xbe3b3faf	-0.18286012
82	0x3f3499eb	0.7054736
83	0x3f18debb	0.5971486
84	0x3d5c573b	0.053794127
85	0xbdb80f00	-0.08987236
86	0xbe05669d	-0.13027425
87	0xbe7baebb	-0.24578373
88	0xbe1a9844	-0.15097147
89	0xbedf7f7e	-0.43651956
90	0x3e3fe196	0.18738398
91	0xbebd2a2b	-0.36946234
92	0xbd2b96cb	-0.041891854
93	0x3d80a106	0.06280713
94	0xbe94f08d	-0.29089776
95	0xbe498916	-0.196812
96	0xbe74cfc9	-0.23907389
97	0x3e8aa01a	0.27075273
98	0x3e145ab7	0.1448773
99	0xbef6df96	-0.48217458
100	0xbe3fffd1	-0.1874993
101	0x3ea397b2	0.31951672
102	0xbf046cf8	-0.51728773
103	0xbf43d929	-0.76503235
104	0xbe5b48a4	-0.21414429
105	0xbe3710eb	-0.17877547
106	0x3d950b66	0.07277565
107	0x3d174b0c	0.036936805
108	0x3e64d6ae	0.22347519
109	0x3cafea10	0.021473914
110	0xbe9054a7	-0.28189585
111	0xbe6b011d	-0.22949643
112	0x3f3b9163	0.7326872
113	0xbeaa1337	-0.33217785
114	0xbe3ae8a2	-0.18252805
115	0xbdc00906	-0.09376721
116	0xbe1e9490	-0.1548636
117	0xbf913a9f	-1.1346015
118	0x3e9b09af	0.30280825
119	0x3ea5b005	0.32360855
120	0x3e6327c2	0.22183135
121	0x3f1ba065	0.6079162
122	0x3eb11ce3	0.3459235
123	0xbe1fd798	-0.15609586
124	0xbeee5fdc	-0.4655751
125	0x3e5c98f8	0.21542728
126	0x3ed10c18	0.4082954
127	0xbe72cba3	-0.23710494
128	0xbbd1c78b	-0.006401961
129	0xbee0a4ca	-0.43875724
130	0xbd0492e7	-0.03236666
131	0xbe7f186f	-0.24911664
132	0x3ef1c529	0.47220734
133	0xbe9f9174	-0.3116566
134	0xbe69e5ac	-0.22841519
135	0xbe07c88a	-0.13260093
136	0x3ed581f5	0.41700712
137	0x3e5e8ac7	0.21732627
138	0xbd76d3d5	-0.060260613
139	0xbc55a706	-0.01304031
140	0x3ee87804	0.45404065
141	0x3e6fed79	0.23430432
142	0xbe704678	-0.23464382
143	0xbebb0adb	-0.3653172
144	0x3e83b28d	0.2572216
145	0x3da61ebc	0.08111331
146	0xbd7b641f	-0.06137478
147	0x3e87e399	0.2654083
148	0xbdf83095	-0.12118641
149	0xbed8b886	-0.4232828
150	0x3ec0ccfd	0.37656394
151	0x3dbf0dc2	0.09328796
152	0x3dfc9a12	0.12334074
153	0xbe1f782f	-0.1557319
154	0xbe7fc66e	-0.24978039
155	0xbf075058	-0.5285697
156	0xbe8ce59a	-0.27518922
157	0x3d0efa24	0.03490652
158	0xbe5f3bed	-0.21800204
159	0xbd296645	-0.041357297
160	0x3e5c726c	0.21528023
161	0xbe9bc3bb	-0.30422768
162	0xbed68e67	-0.4190552
163	0x3e21eb62	0.15812448
164	0x3ea80287	0.32814428
165	0xbeaeea5f	-0.34163186
166	0x3e52e8f6	0.2059668
167	0x3ec48a67	0.38386843
168	0xbe302b8b	-0.1720411
169	0x3df8c44e	0.12146817
170	0x3e900be6	0.28134078
171	0x3d10cccf	0.03535157
172	0xbfa38b9d	-1.2776982
173	0xbe8f3bac	-0.27975214
174	0x3d6e203a	0.058136202
175	0x3f2cb890	0.6746912
176	0xbd8c2f7e	-0.06844996
177	0xbed2b144	-0.41150868
178	0x3dce3d40	0.10070276
179	0xbb3457fb	-0.002751826
180	0x3bf860b3	0.007579887
181	0x3eebb5d4	0.4603716
182	0xbf4e466b	-0.805762
183	0xbe0858b1	-0.13315083
184	0xbed2f4b1	-0.4120231
185	0x3e56ad91	0.20964648
186	0xbda3d917	-0.08000391
187	0xbe38714e	-0.18011972
188	0x3f33ac38	0.7018466
189	0xbec5cfdd	-0.3863515
190	0x3e408f08	0.18804562
191	0x3e944e17	0.28965828
192	0xbf0b41a7	-0.5439705
193	0x3e5c1753	0.21493272
194	0xbeb737e9	-0.35784844
195	0x3dc69722	0.09696795
196	0xbe20870c	-0.15676516
197	0x3f1d9d1d	0.6156786
198	0xbeed2c92	-0.46323067
199	0xbdf60054	-0.12011781
200	0x3d575c63	0.05257834
201	0xbf348038	-0.70508146
202	0xbecb5fc0	-0.3972149
203	0xbcbacd4b	-0.02280297
204	0xbf7d8d73	-0.9904396
205	0x3e38b874	0.18039113
206	0x3ec21a8d	0.37910882
207	0xbd5da82e	-0.054115467
208	0xbed6f782	-0.41985708
209	0xbf72e55a	-0.9488121
210	0x3ef9241a	0.48660356
211	0x3e5cc3d2	0.21559075
212	0xbee14991	-0.4400144
213	0xbf2eeec2	-0.68333066
214	0x3f13e927	0.5777764
215	0xbea7f443	-0.32803544
216	0x3ea29b8d	0.317593
217	0x3d41f418	0.047351927
218	0xbe88ec31	-0.267427
219	0x3e1dc360	0.15406561
220	0x3ee6824f	0.45021293
221	0x3ea8a2e0	0.32936764
222	0x3e2e3dac	0.17015713
223	0x3f0cbea1	0.54978377
224	0x3e55e32b	0.20887439
225	0x3e93e504	0.28885663
226	0xbf10f724	-0.56627107
227	0xbf19414d	-0.59865266
228	0x3e4b3602	0.19844821
229	0x3e80cca5	0.2515613
230	0xbf7b2289	-0.9809957
231	0xbf00de07	-0.50338787
232	0xbe38284c	-0.17984122
233	0x3db50360	0.08838534
234	0x3e929a72	0.28633457
235	0xbb8a6b41	-0.0042242114
236	0xbebafc7b	-0.36520752
237	0x3d8f52bc	0.06998202
238	0x3dbdf361	0.092749365
239	0x3c7632ca	0.0150267575
240	0xbe24b7aa	-0.16085687
241	0xbe2cb63e	-0.16866395
242	0xbdfdd3ed	-0.12393937
243	0x3e83948d	0.25699273
244	0x3e53fce3	0.20701937
245	0xbec58d27	-0.38584253
246	0x3ebf0a50	0.37312555
247	0x3eb124be	0.34598345
248	0x3f351ee6	0.7075027
249	0x3ee84ecc	0.45372617
250	0xbe9f64c7	-0.31131575
251	0x3eb965bf	0.3621044
252	0xbe3b395d	-0.18283601
253	0xbedec4aa	-0.43509418
254	0xbdfcb11a	-0.12338467
255	0x3ed008e5	0.40631786

gru.weight_hh_l1 f4 [96, 32]
0	0x3eb3b17f	0.35096356
1	0x3f4695e2	0.77572453
2	0xbe954611	-0.2915502
3	0xbdbdc476	-0.092659876
4	0x3e5f900d	0.21832295
5	0xbd84c574	-0.06482974
6	0xbf4899fc	-0.7835996
7	0xbe76cb5c	-0.24101013
8	0x3e449798	0.19198453
9	0xbead981e	-0.3390512
10	0x3d989a38	0.0745129
11	0x3db8b0a5	0.09018067
12	0x3e8adb19	0.27120283
13	0x3f41204d	0.7543991
14	0xbea407cb	-0.32037196
15	0x3e4f1ad7	0.20225082
16	0xbed44c31	-0.4146438
17	0x3ecc66a6	0.39922065
18	0x3b8830c5	0.0041562044
19	0xbf1d463f	-0.6143531
20	0xbe42b86e	-0.19015667
21	0x3f10e1ef	0.5659475
22	0xbecc458e	-0.39896816
23	0xbd105e82	-0.03524638
24	0x3ea3a36f	0.31960627
25	0xbd67e43f	-0.056614157
26	0xbee031ba	-0.43787938
27	0x3de0536c	0.109534115
28	0x3f28d149	0.65944344
29	0xbeca5572	-0.39518315
30	0x3f1da928	0.61586237
31	0x3ebcec23	0.36898908
32	0x3dc01b6f	0.093802325
33	0xbdbb2831	-0.09138525
34	0x3d07685c	0.03305851
35	0xbe9de5e1	-0.30839446
36	0x3ccb48e2	0.024815027
37	0xbdb79515	-0.08963982
38	0x3e8b0035	0.27148595
39	0x3e955df7	0.29173252
40	0xbdfd6bf4	-0.12374106
41	0x3ef35674	0.47526896
42	0xbecd7242	-0.40126234
43	0xbf144e31	-0.5793181
44	0xbcbac0cd	-0.022797013
45	0x3ed0a84e	0.40753406
46	0x3de6629d	0.11249278
47	0xbe03eec7	-0.12884055
48	0x3e2580b4	0.16162378
49	0xbf8bedd0	-1.093195
50	0x3e8ab0ec	0.27088106
51	0xbe5a481a	-0.21316567
52	0x3e1b70dc	0.15179771
53	0x3e571d18	0.21007192
54	0x3f1168a0	0.5680027
55	0x3e95f7e2	0.29290682
56	0xbee92234	-0.45533907
57	0xbc0baf89	-0.008525738
58	0xbe8af6c1	-0.27141383
59	0xbd9c7a83	-0.07640555
60	0xbdaa68b0	-0.08320749
61	0x3e5530fc	0.20819467
62	0xbe21a7a1	-0.15786602
63	0xbe8005b0	-0.2500434
64	0x3ebf0883	0.3731118
65	0xbdc69fce	-0.09698449
66	0xbda0789b	-0.07835504
67	0x3e48368b	0.19552056
68	0xbb4d7aa0	-0.0031353608
69	0x3e4d8a62	0.2007232
70	0xbec42b94	-0.38314497
71	0xbe57d7a7	-0.21078359
72	0xbc4877b6	-0.012235573
73	0xbe9ad928	-0.30243802
74	0x3f1a40eb	0.60255307
75	0x3ecd9757	0.40154526
76	0xbebe7f33	-0.3720642
77	0xbe1f2304	-0.15540701
78	0xbe55c102	-0.20874408
79	0x3ee1b863	0.44085988
80	0xbc8e20a0	-0.017349541
81	0x3e987b1b	0.29781422
82	0x3eeb8395	0.45998827
83	0xbee061ee	-0.43824714
84	0xbe9b4767	-0.30327913
85	0xbdb815bd	-0.08988521
86	0xbe7936a2	-0.24337247
87	0xbf1f2fcd	-0.62182313
88	0x3ec31fce	0.38110203
89	0xbf230415	-0.63678104
90	0x3e641420	0.22273302
91	0xbe7f5c18	-0.24937475
92	0x3e927229	0.28602722
93	0xbcf83147	-0.030296935
94	0x3dd4ff7b	0.104002915
95	0x3eda6fa7	0.4266331
96	0xbec7cd83	-0.3902398
97	0xbe032687	-0.12807666
98	0x3da7263a	0.08161588
99	0xbf3ce074	-0.7377999
100	0xbf029fe1	-0.51025206
101	0x3be17253	0.0068800836
102	0xbdb091ab	-0.08621534
103	0xbdacaf38	-0.08431858
104	0x3ee53a9b	0.44771275
105	0xbe2c09c7	-0.16800605
106	0xbe79264a	-0.24331012
107	0x3e11377e	0.14181325
108	0x3dc81c7a	0.097710565
109	0xbc8c2078	-0.017105326
110	0x3f3035d2	0.68832123
111	0x3eb3ca2d	0.35115185
112	0xbf20f331	-0.6287108
113	0xbead169e	-0.33806318
114	0xbdd49f82	-0.10381986
115	0x3e5a8884	0.21341139
116	0xbe81e83e	-0.253725
117	0xbec0fc6d	-0.37692586
118	0x3ee4d7e4	0.4469596
119	0xbebce125	-0.36890522
120	0xbeb262bf	-0.34840962
121	0xbe17fdba	-0.14842883
122	0xbe8e1f49	-0.27758244
123	0xbde9f5a0	-0.114238024
124	0xbec5b3df	-0.38613793
125	0x3e7f2e34	0.24919969
126	0x3e2f75f3	0.17134838
127	0xbe80e7a2	-0.25176722
128	0xbe672193	-0.22571401
129	0xbe9d0a09	-0.3067172
130	0x3f0fbdfb	0.5614926
131	0x3f6bf94c	0.9217727
132	0x3eb1f9ce	0.34760898
133	0x3ec793a3	0.38979825
134	0x3f403b56	0.7509054
135	0xbf0a34fc	-0.539871
136	0xbe685569	-0.22688831
137	0xbe565abb	-0.20933048
138	0x3f443f10	0.76658726
139	0x3ed79624	0.42106736
140	0xbf025279	-0.50907093
141	0xbf203c76	-0.62592256
142	0x3d5b3706	0.05351927
143	0x3ed2c1a6	0.41163367
144	0xbe17e093	-0.14831762
145	0x3e54625c	0.20740646
146	0x3e80b8ca	0.25140983
147	0xbe309ff6	-0.1724852
148	0xbf6063c5	-0.87652236
149	0xbf126290	-0.57181644
150	0x3ec97d56	0.39353436
151	0x3db7f65f	0.089825384
152	0x3f0219e8	0.5082078
153	0xbc815b79	-0.015790688
154	0x3d931adf	0.0718286
155	0xbee7f842	-0.45306593
156	0xbef59ea1	-0.47972587
157	0x3e77c08e	0.24194548
158	0xbf2d9c0e	-0.67816246
159	0x3ca1d429	0.019754486
160	0x3ea93bab	0.33053336
161	0x3f2b6b3e	0.66960514
162	0xbf160a70	-0.58609676
163	0xbd816f98	-0.06320113
164	0x3e37bb91	0.17942645
165	0xbf32ca73	-0.69840163
166	0xbde893aa	-0.1135629
167	0x3ef954c4	0.48697484
168	0x3dc782d7	0.097417526
169	0x3db9ad70	0.09066284
170	0xbd97460c	-0.07386407
171	0xbddca92d	-0.10774455
172	0x3c5cbf36	0.013473323
173	0xbf1e3ba6	-0.61809766
174	0xbec75cab	-0.38937888
175	0x3e22924e	0.15876123
176	0xbef116d0	-0.47087717
177	0x3e59c6b2	0.21267202
178	0xbe7e8e2c	-0.24858922
179	0xbd01abe5	-0.031658072
180	0x3dd4c82d	0.10389743
181	0x3e58cbe8	0.21171534
182	0xbea7b5cc	-0.32755888
183	0x3d764324	0.060122624
184	0xbddab9e6	-0.106799886
185	0xbb30948d	-0.0026944012
186	0x3e7737f6	0.24142441
187	0x3f07a4e2	0.52985966
188	0x3eb06b81	0.3445702
189	0xbea794b7	-0.32730648
190	0x3eb3cd93	0.35117778
191	0xbd2d841e	-0.042362325
192	0xbf840e0d	-1.0316788
193	0x3e7f58fa	0.24936286
194	0xbea720d3	-0.3264223
195	0x3e81d7e4	0.25360024
196	0xbe7e1295	-0.24811776
197	0x3dab86fb	0.08375355
198	0x3d0bf1b1	0.03416604
199	0x3eefd8d1	0.46845105
200	0x3eba3ce3	0.36374578
201	0xbcda39dc	-0.026638918
202	0x3e997f6e	0.29980034
203	0x3ca37544	0.019953378
204	0x3e92b414	0.28653014
205	0xbed90c66	-0.42392272
206	0xbe2bd4b4	-0.16780359
207	0x3cb83f1a	0.022491027
208	0xbf083acc	-0.53214717
209	0xbbfce636	-0.007717873
210	0x3dbda452	0.09259857
211	0x3d574a0a	0.052560844
212	0x3ced4191	0.028961929
213	0x3ebd7143	0.37000474
214	0x3ea84cc4	0.32871068
215	0xbdaceee5	-0.08444003
216	0x3e8ab7f0	0.27093458
217	0x3d48bd9b	0.049008947
218	0xbcfd459f	-0.030916987
219	0x3ebb297f	0.36555097
220	0xbe8c76a2	-0.2743426
221	0xbe13b04b	-0.14422719
222	0xbe723427	-0.23652707
223	0x3d26dda1	0.040738706
224	0x3e82bffe	0.25537103
225	0x3e0a111b	0.13483088
226	0x3e867fe0	0.26269436
227	0xbea5b9fe	-0.32368463
228	0xbedef9d9	-0.43549994
229	0x3f8d7695	1.1051813
230	0x3dd95dae	0.10613571
231	0x3e67e841	0.22647192
232	0x3e50de5b	0.20397322
233	0x3e0f4716	0.13991961
234	0x3d98c718	0.07459849
235	0x3e9e4eb6	0.30919427
236	0xbea196bf	-0.31560323
237	0xbee7d074	-0.45276225
238	0xbf267df9	-0.6503597
239	0x3f303b5f	0.68840593
240	0xbe9cfe40	-0.30662727
241	0x3d3fe4d2	0.04684908
242	0x3d410075	0.047119576
243	0xbd00bc9b	-0.03142987
244	0x3d11e4c8	0.035618573
245	0xbf6e5670	-0.93100643
246	0xbe6cbb14	-0.2311824
247	0x3cf20da4	0.02954752
248	0x3c8fd8ee	0.017559495
249	0xbdf0d560	-0.11759448
250	0x3e7d7f30	0.2475555
251	0x3e311a62	0.1729522
252	0xbf1b5c11	-0.6068736
253	0xbf0b7a75	-0.5448373
254	0xbe6bcc01	-0.2302704
255	0xbca961f9	-0.0206766

gru.bias_ih_l1 f4 [96]
0	0xbe36c343	-0.17847924
1	0xbe736e88	-0.23772633
2	0xbe83baf0	-0.2572856
3	0xbf008078	-0.5019603
4	0xbf4b2a86	-0.7936176
5	0xbe30beb9	-0.17260255
6	0xbe7715b6	-0.24129376
7	0xbf0234f4	-0.5086205
8	0x3e0d9cf6	0.13829407
9	0xbea4174f	-0.32049033
10	0xbe40b27c	-0.18818086
11	0xbddd280f	-0.10798656
12	0xbdd822c5	-0.10553507
13	0xbeeeda3a	-0.4665087
14	0x3df96cdb	0.12178966
15	0xbee24b8d	-0.44198266
16	0xbf0ea997	-0.55727524
17	0xbd1c202f	-0.03811663
18	0xbf03f8ee	-0.5155171
19	0xbdc4b482	-0.09604742
20	0xbf02693b	-0.5094182
21	0x3d4b662a	0.049657978
22	0xbdbe979b	-0.0930626
23	0xbe54620a	-0.20740524
24	0xbe000723	-0.12502722
25	0xbe841cd0	-0.25803232
26	0xbf1adf1a	-0.60496676
27	0xbed48acd	-0.41512147
28	0xbe9f417c	-0.31104648
29	0xbe842ee7	-0.25817034
30	0x3e8a6bba	0.27035314
31	0xbe3cc652	-0.18435028
32	0x3ec0368e	0.37541622
33	0x3da2ace2	0.07943131
34	0xbed6a726	-0.419244
35	0x3e3ab237	0.18232046
36	0xbdb65af8	-0.0890407
37	0xbf0b3764	-0.54381394
38	0xbe4b13c8	-0.19831765
39	0xbd95a8e0	-0.07307601
40	0xbef01380	-0.46889877
41	0xbf1bf412	-0.60919297
42	0xbefc633c	-0.4929446
43	0x3ed9125f	0.4239683
44	0x3d845f9b	0.06463548
45	0xbe3bd40d	-0.1834261
46	0x3ed11874	0.4083897
47	0x3e7c4787	0.2463666
48	0xbe915171	-0.28382447
49	0xbe8e65da	-0.27812082
50	0xbf8aa2e9	-1.0830966
51	0xbf2754f9	-0.65364033
52	0x3e9bd807	0.30438253
53	0xbe1851c6	-0.14874944
54	0x3c890a1a	0.01672845
55	0x3c60236f	0.013680323
56	0xbcd3e36f	-0.025865285
57	0xbf9bbd56	-1.2167156
58	0xbea2caad	-0.31795254
59	0xbf12ce40	-0.5734596
60	0xbdf1cbfa	-0.118064836
61	0xbe4383c7	-0.19093238
62	0xbe15007e	-0.14550969
63	0x3e18ccd2	0.14921883
64	0x3dce0e85	0.10061363
65	0xbde4ed48	-0.1117807
66	0x3c4fb1d6	0.012676677
67	0xbd9b5936	-0.07585375
68	0xbd2b8149	-0.041871343
69	0x3d108ded	0.0352916
70	0x3c0f95e0	0.00876376
71	0x3dc699f1	0.09697331
72	0x3e0e72d8	0.13910997
73	0xbe02e391	-0.12782122
74	0xbc9449fa	-0.018101681
75	0x3da9eeab	0.082974754
76	0x3db4488a	0.08802898
77	0x3de98c16	0.114036724
78	0x3e20b69f	0.15694664
79	0x3d8cc5a4	0.068736345
80	0xbdef8e32	-0.116970435
81	0xbd0fc0d3	-0.035096
82	0xbdaad5f7	-0.08341592
83	0x3cfdb6b9	0.030970918
84	0xbcb9a377	-0.022660954
85	0x3d8567cc	0.06513938
86	0xbda8aa2e	-0.08235584
87	0xbc291224	-0.0103192665
88	0xbdc95416	-0.09830491
89	0x3c32c30a	0.010910759
90	0x3e3f415a	0.18677273
91	0xbd093500	-0.03349781
92	0xbdd35d86	-0.103205726
93	0x3db462b0	0.08807886
94	0xbe2f6083	-0.1712666
95	0xbd599fa3	-0.053130757

gru.bias_hh_l1 f4 [96]
0	0xbe604925	-0.21902902
1	0xbe86e049	-0.2634299
2	0xbe5842c4	-0.21119219
3	0xbeca4500	-0.39505768
4	0xbf2bd295	-0.671182
5	0xbe25e940	-0.16202259
6	0xbe268c3d	-0.16264434
7	0xbebc9e8a	-0.36839706
8	0x3ed77e3e	0.42088503
9	0xbecab79c	-0.39593208
10	0xbc89b396	-0.016809266
11	0xbe987148	-0.29773927
12	0xbebcfeaa	-0.36913043
13	0xbeacb7cf	-0.33733985
14	0xbbdf507d	-0.006815015
15	0xbea97b7c	-0.33102024
16	0xbe84d511	-0.25943807
17	0x3e329cb0	0.17442584
18	0xbf08deb8	-0.5346484
19	0x3c49055c	0.012269344
20	0xbe85d9c5	-0.26142707
21	0x3bdf5dfb	0.0068166233
22	0x3da06819	0.07832355
23	0xbe064e62	-0.13115838
24	0xbed68b7f	-0.41903302
25	0xbe059a87	-0.13047229
26	0xbf468b08	-0.77555895
27	0xbf1b28f8	-0.6060939
28	0xbeb896c7	-0.36052534
29	0xbec07603	-0.37590036
30	0x3bb87352	0.0056289816
31	0xbe6f7b97	-0.2338699
32	0x3f07abc8	0.5299649
33	0x3e064444	0.13111979
34	0xbee652e6	-0.4498512
35	0x3e33415d	0.17505403
36	0xbebf249e	-0.37332624
37	0xbf3c5ac3	-0.7357599
38	0xbead6d7e	-0.33872598
39	0xbdfa4c0e	-0.122215375
40	0xbf2f6e31	-0.68527514
41	0xbf0df483	-0.5545122
42	0xbf2b5804	-0.66931176
43	0x3e187c34	0.1489113
44	0x3d3d4500	0.04620838
45	0xbe44ed20	-0.19231081
46	0x3f08da69	0.5345827
47	0xbd7ba745	-0.061438818
48	0x3d50238e	0.050815158
49	0xbe190bc4	-0.14945894
50	0xbf91f073	-1.1401504
51	0xbf03b04f	-0.514409
52	0x3df4408b	0.11926373
53	0x3d95ddba	0.073176816
54	0x3c2559ce	0.010092212
55	0xbe4e74a9	-0.2016169
56	0xbe23de06	-0.16002664
57	0xbf9d72fa	-1.2300713
58	0xbe3bfa0d	-0.18357106
59	0xbee120be	-0.43970293
60	0x3cefee7d	0.029288525
61	0xbe996458	-0.2995937
62	0xbe932b37	-0.28743908
63	0xbcd80f45	-0.026374469
64	0x3d67147c	0.05641602
65	0xbda6b156	-0.08139293
66	0xbdab9dd7	-0.08379715
67	0xbe313a31	-0.17307355
68	0xbd836a33	-0.0641674
69	0xbdaf3b56	-0.08556239
70	0xbc88008e	-0.016601827
71	0xbdccf852	-0.10008301
72	0x3d20f6cf	0.039297875
73	0xbe1fcb3e	-0.15604874
74	0x3d763e94	0.060118273
75	0xbe4e1476	-0.20124993
76	0x3cd6d64b	0.02622523
77	0xbcc280cb	-0.023743054
78	0xbd52b79f	-0.051444646
79	0xbd2cd735	-0.042197425
80	0x3d354d5f	0.04426324
81	0xbca4b1f5	-0.020104388
82	0x3db4505a	0.08804388
83	0x3c8e836e	0.017396655
84	0xbd00bd4b	-0.031430524
85	0xbea09d83	-0.31370172
86	0xbea1d4d1	-0.3160768
87	0xbe22aacd	-0.15885468
88	0xbd656999	-0.05600891
89	0xbe8e7c9e	-0.2782945
90	0x3e3c5f47	0.1839572
91	0x3dd8a496	0.10578267
92	0xbd2fbd7e	-0.042905323
93	0xbbe59b67	-0.007007051
94	0x3e682200	0.2266922
95	0x3e2a59da	0.16635838

linear.weight f4 [15, 32]
0	0x3febd2e6	1.8423736
1	0x3ff5b83c	1.9196849
2	0xc00fcdab	-2.246928
3	0xc01ca319	-2.4474547
4	0xc007acd5	-2.1199238
5	0x3fd4b10d	1.6616532
6	0xc018c8b5	-2.3872502
7	0x4017e291	2.3732035
8	0x4003b445	2.0578778
9	0x40009e5f	2.0096662
10	0xc0126277	-2.2872598
11	0xbfb8011b	-1.4375337
12	0x4011631a	2.2716737
13	0x40149398	2.3215084
14	0x3fcd3180	1.6030731
15	0xc009ac27	-2.1511323
16	0x4026e580	2.6077576
17	0xc005d13a	-2.0908952
18	0x400b0613	2.1722457
19	0x40171fb4	2.36131
20	0x3fbfa7ca	1.497308
21	0xbff3e5b7	-1.9054478
22	0x4011bce3	2.2771537
23	0xbfff2637	-1.9933537
24	0xc0105976	-2.2554603
25	0xc013d4de	-2.3098674
26	0x40054bfa	2.0827622
27	0xbfea6be1	-1.8314172
28	0xc00c4e9e	-2.1922984
29	0x401b7081	2.4287417
30	0xbfb26b2b	-1.3938955
31	0xc01762ac	-2.3653975
32	0x3ef35606	0.47526568
33	0xc038cfd8	-2.8876858
34	0x404b7a83	3.1793525
35	0xbf6e8559	-0.9317222
36	0x40315173	2.7705963
37	0xc0242acb	-2.5651119
38	0x40008164	2.0078974
39	0xc0583d95	-3.3787587
40	0xc048f3f4	-3.1398897
41	0xc03ede18	-2.9823055
42	0xc005df58	-2.0917568
43	0xbfa3c27b	-1.2793726
44	0x3f6dbee5	0.92869407
45	0x404bfbba	3.1872392
46	0x4017fe30	2.3748894
47	0xc01d373d	-2.4564965
48	0xbe352f9b	-0.17693941
49	0xc0147ae8	-2.3200016
50	0xc02b6b2d	-2.6784165
51	0x40291ba8	2.642313
52	0x3ff665cc	1.9249816
53	0x4020d17b	2.5127857
54	0x402f7353	2.7414138
55	0x402c1203	2.6885993
56	0xc00353e1	-2.0519946
57	0x3ffe24ea	1.9855015
58	0xc03a8d18	-2.9148617
59	0x3f9b40f7	1.2129201
60	0x402c5154	2.6924639
61	0x4034e082	2.8262029
62	0x4029d682	2.6537175
63	0x4040f150	3.0147285
64	0xc021c5c2	-2.5276952
65	0x403d8c1b	2.9616764
66	0xc0509662	-3.2591786
67	0x4020ccf1	2.5125086
68	0xbab6f779	-0.0013959251
69	0xc04378c0	-3.054245
70	0xc04d488b	-3.2075527
71	0xbfe0ddae	-1.7567651
72	0x40326ee6	2.7880187
73	0xc030999f	-2.7593763
74	0x4030b7c2	2.7612157
75	0x401f0335	2.4845707
76	0x402d4562	2.7073598
77	0x403f54cd	2.9895508
78	0xbfcfdc19	-1.6239043
79	0xbfc7631e	-1.5577123
80	0xc0164732	-2.3480954
81	0x40292bd6	2.6433005
82	0xc016a3dc	-2.3537512
83	0xc01277a8	-2.2885532
84	0xc02278a6	-2.5386138
85	0x402f4047	2.7382982
86	0xc02b0835	-2.672376
87	0x401cd945	2.450761
88	0x40345d72	2.8182034
89	0xbe698b00	-0.2280693
90	0xc0434385	-3.050996
91	0x403b8e4f	2.9305608
92	0x40379c55	2.8689167
93	0xc015196e	-2.329677
94	0x404b025f	3.1720197
95	0x401601e8	2.3438663
96	0xc05f75dc	-3.4915686
97	0x4013eb64	2.311242
98	0xc01ea95d	-2.479087
99	0xc0591207	-3.3917253
100	0x3e3ffd7e	0.18749043
101	0xc03f7ce3	-2.9919975
102	0xc012fe7f	-2.2967832
103	0x3f9d8565	1.2306334
104	0x3f30431b	0.68852395
105	0xc03feb46	-2.998735
106	0xc035d07b	-2.8408496
107	0xc0165ed8	-2.3495388
108	0x3f76bf88	0.96386003
109	0xc01ee53b	-2.482741
110	0x3ff96ea8	1.9486895
111	0x40327cf1	2.7888758
112	0xbffcf71d	-1.9762913
113	0xc02d79d0	-2.7105598
114	0xbe9f4204	-0.31105053
115	0xc0517e8f	-3.2733495
116	0x3fac6888	1.34694
117	0x3ff359c3	1.9011768
118	0x3f807bfe	1.003784
119	0xbffee8e3	-1.9914821
120	0xc00493d3	-2.0715225
121	0x403f51a0	2.989357
122	0xc01b0d01	-2.4226687
123	0x3e397807	0.18112193
124	0x3e65ece6	0.22453651
125	0xbf6bb691	-0.9207545
126	0x4036dbfa	2.8571763
127	0xbfdb6893	-1.7141289
128	0xbf986824	-1.1906781
129	0x40422fd5	3.0341694
130	0xc00a86ad	-2.16447
131	0x3f2c2c99	0.6725555
132	0xc0487364	-3.132043
133	0x3f36f93f	0.7147407
134	0x404a0571	3.156582
135	0x3e7c7945	0.24655636
136	0x400ffd36	2.2498298
137	0x3f0afe00	0.54293823
138	0x403e7bb5	2.9763005
139	0xc05efe6b	-3.4842784
140	0xbff0c8a6	-1.8811233
141	0x3fe96616	1.8234279
142	0xc01fae95	-2.4950306
143	0xbf27eda6	-0.65597
144	0x3ed99031	0.42492822
145	0x40566abe	3.350265
146	0xc071f2e8	-3.7804508
147	0xc013b626	-2.3079925
148	0x3f808c93	1.00429
149	0xbfb5142d	-1.4146782
150	0x3ff6302a	1.9233449
151	0x407a9fa6	3.9159942
152	0x4039ba30	2.901989
153	0xc0389961	-2.8843615
154	0xc04d13e3	-3.2043388
155	0xc052c655	-3.2933552
156	0x3ef8b39d	0.48574534
157	0x3fe3a24b	1.7783903
158	0xc04881c9	-3.1329215
159	0xc00e4fdb	-2.223624
160	0xc01dbc41	-2.464615
161	0xc0175508	-2.364565
162	0x4028cce6	2.637506
163	0x3fe1ca6e	1.7639902
164	0x401c45b3	2.441754
165	0x400f377c	2.2377615
166	0x401ebd0b	2.4802883
167	0xc02d05f6	-2.7034888
168	0xc0232600	-2.5491943
169	0xc019448a	-2.3948083
170	0x400f1b62	2.2360463
171	0x3ff3490d	1.9006668
172	0xc0320d6f	-2.78207
173	0xc03d017b	-2.9532154
174	0x400382c4	2.0548563
175	0x4011eebf	2.280197
176	0x403682dc	2.851737
177	0xbeafbfec	-0.34326112
178	0x400261f2	2.037228
179	0x404c0cb8	3.1882763
180	0xbfc54d96	-1.5414302
181	0xc00f8bb5	-2.242902
182	0x40195e76	2.3963904
183	0xc002c57b	-2.0433033
184	0x402c097e	2.6880794
185	0xbff3c939	-1.9045783
186	0x40188a0f	2.3834264
187	0xc003fb77	-2.0622232
188	0xc03bd158	-2.9346523
189	0x40030330	2.0470695
190	0xc01e2cf8	-2.4714947
191	0x3fce586b	1.6120733
192	0x401a5e87	2.4120195
193	0xc01c0ba8	-2.4382114
194	0x402ab24f	2.667133
195	0xc02c623a	-2.6934953
196	0x4033de28	2.8104343
197	0x3fe479b0	1.7849636
198	0x402c8147	2.6953905
199	0x4030d138	2.7627697
200	0x3fb2e72d	1.3976799
201	0x402f3aac	2.737956
202	0xc0140722	-2.3129354
203	0xbfe49ec4	-1.7860951
204	0xc061e14b	-3.5293758
205	0xc03c036d	-2.937709
206	0xc01875d2	-2.3821912
207	0xc00b4bdd	-2.1765053
208	0xc0056de6	-2.0848327
209	0xbf6eefab	-0.93334454
210	0xbffb8cc0	-1.9652328
211	0x40169279	2.35269
212	0x4010c3f2	2.2619596
213	0xc0011d1e	-2.0174022
214	0xc03ff33e	-2.9992213
215	0x40046dfa	2.0692124
216	0xc0127d16	-2.2888846
217	0x402996b9	2.6498244
218	0x3f8a8b29	1.0823718
219	0x401760ad	2.3652756
220	0xbffcf512	-1.976229
221	0xc0403a77	-3.0035684
222	0x400b2ef4	2.1747408
223	0xc01d8848	-2.461443
224	0xc04b2279	-3.173979
225	0xc0389a3f	-2.8844144
226	0xbe3c2dd3	-0.18376856
227	0x403e4f81	2.9736025
228	0xc0186d7c	-2.3816824
229	0xbfc5fef3	-1.5468429
230	0x4021ff98	2.5312252
231	0xc0318143	-2.7735145
232	0x40240edf	2.5634077
233	0xc018fddd	-2.3904946
234	0x402ad089	2.668978
235	0x40520744	3.2816935
236	0x3f8add0d	1.0848709
237	0xc012ff65	-2.296838
238	0xbf45ff0b	-0.7734229
239	0xc01a0bd3	-2.4069717
240	0xbfd1ab85	-1.6380469
241	0x3e3bce9d	0.18340535
242	0xc040666c	-3.0062513
243	0xbf2fa75a	-0.68614733
244	0xc0540b8d	-3.313205
245	0xc0292ef1	-2.64349
246	0xbe52d326	-0.20588359
247	0x4032ef30	2.7958488
248	0xc037cd7b	-2.8719165
249	0x40125f14	2.287053
250	0x3ffec015	1.9902369
251	0x402ff028	2.749033
252	0xc02b29b8	-2.6744213
253	0xbdf3a591	-0.11896814
254	0xc0233658	-2.5501919
255	0xc03c8b86	-2.9460158

linear.bias f4 [15]
0	0x3f715e24	0.9428427
1	0x3e9f2310	0.31081438
2	0xbe1033be	-0.14082238
3	0x3ea4721f	0.32118317
4	0xbd62e3bc	-0.055392966
5	0xbd1e3cf3	-0.038632344
6	0xbe33b27f	-0.1754856
7	0x3e9acfca	0.30236655
8	0xbf100f73	-0.56273574
9	0xbe889a0f	-0.26680037
10	0x3e1f7366	0.15571365
11	0xbe8aa3a0	-0.2707796
12	0xbe76a4bc	-0.24086279
13	0xbd9a73d3	-0.07541623
14	0x3d9665d4	0.07343641

attention.context f4 [198, 198]
0	0x3e85ec6f	0.26156947
1	0x3efb8e9a	0.49132234
2	0x3e571a24	0.21006066
3	0x3ea8c2dc	0.32961166
4	0x3f0d0d55	0.5509847
5	0x3ec9db81	0.3942528
6	0x3ea79a26	0.32734793
7	0x3e4d2ca4	0.2003656
8	0x3e46e7e9	0.19424404
9	0x3e23b14d	0.15985604
10	0xbc6e35bf	-0.014539181
11	0xbbe126a1	-0.00687106
12	0xbe1f0e73	-0.15532856
13	0xbe5eb08b	-0.21747033
14	0xbe12e7e5	-0.14346273
15	0xbe3d6e99	-0.18499221
16	0xbd686699	-0.05673847
17	0x3d353d12	0.044247694
18	0x3e3d36c9	0.1847793
19	0x3d5407a8	0.051765114
20	0x3e49fe19	0.19725837
21	0x3e266c55	0.16252263
22	0x3e93b76c	0.28850877
23	0x3e0645c7	0.13112555
24	0x3dca4989	0.09877307
25	0x3da500d4	0.080567986
26	0x3ddfd990	0.10930169
27	0xbd3db9be	-0.046319716
28	0xbcdbcdc1	-0.02683151
29	0xbde2704a	-0.11056574
30	0xbe7a5987	-0.24448214
31	0xbe9d45f1	-0.30717424
32	0xbe499aef	-0.19688009
33	0xbd7fc6ac	-0.062445328
34	0x3d9dadb6	0.07699148
35	0x3e0333a9	0.12812676
36	0x3dca727d	0.09885118
37	0xbe28bc6c	-0.16478127
38	0xbe030282	-0.12793925
39	0xbe2435ee	-0.16036198
40	0xbeb56f21	-0.35436347
41	0xbe56f973	-0.20993595
42	0x3d357fac	0.04431121
43	0xbc11698a	-0.00887526
44	0x3ddd0601	0.10792161
45	0x3cfa8704	0.030581959
46	0x3d977ee2	0.07397248
47	0xbdf70c9c	-0.12062952
48	0xbd72d70f	-0.059287127
49	0xbda8e037	-0.082458906
50	0x3ca39212	0.019967113
51	0xbdef3623	-0.11680248
52	0xbb0bf5b9	-0.002135618
53	0x3d81a3c3	0.06330063
54	0xbd0dfede	-0.03466689
55	0x3bd6c6ef	0.0065544765
56	0xbe654d88	-0.22392857
57	0xbda72468	-0.08161241
58	0xbd9a795b	-0.07542678
59	0x3d9528a1	0.0728314
60	0x3b4257e0	0.0029654428
61	0xbdbc3967	-0.09190636
62	0x3da96c7d	0.082726456
63	0xbe3f09a5	-0.18656023
64	0xbe666a28	-0.22501433
65	0xbe863934	-0.26215518
66	0xbe816218	-0.25270152
67	0xbe7b8892	-0.24563816
68	0xbe0070eb	-0.12543075
69	0xbe1c2869	-0.1524979
70	0xbe13fedd	-0.14452691
71	0xbdd5caff	-0.10439109
72	0x3d75e280	0.06003046
73	0x3da56f1e	0.080778345
74	0x3dda9325	0.10672597
75	0x3e66e324	0.22547585
76	0x3e8c0f4b	0.27355418
77	0x3e2584d7	0.16163956
78	0xbd8c0487	-0.06836801
79	0xbcd77d76	-0.026304942
80	0xbe3b5286	-0.18293199
81	0xbe6b373e	-0.22970292
82	0xbea5c4c6	-0.3237669
83	0xbe418b56	-0.18900809
84	0xbec04788	-0.37554574
85	0xbeaf26b7	-0.34209225
86	0xbe76c8d5	-0.24100049
87	0xbd3fc3ff	-0.046817776
88	0xbdd3aa31	-0.10335196
89	0xbe361a4a	-0.17783466
90	0xbd8f59ba	-0.06999536
91	0xbdfc9d0f	-0.12334644
92	0xbe3d4ffe	-0.18487546
93	0xbe37a042	-0.17932227
94	0xbe947da0	-0.29002094
95	0xbe8d5aca	-0.2760833
96	0xbe56dc78	-0.2098254
97	0xbda6b362	-0.08139683
98	0x3b1601a4	0.0022889161
99	0xbd0490bf	-0.032364603
100	0xbd87e52e	-0.066355094
101	0x3c1496d0	0.00906916
102	0x3d2135dc	0.039358005
103	0x3e0058cf	0.12533878
104	0x3e62a64a	0.22133747
105	0x3e49962a	0.1968619
106	0x3e94466a	0.28959972
107	0x3dfaa53d	0.12238548
108	0xbde494d7	-0.111612014
109	0xbd5295cc	-0.05141239
110	0x3ba721c6	0.0051004617
111	0x3d55174d	0.052024174
112	0x3c480c96	0.012210032
113	0xbda4d662	-0.08048703
114	0xbdfb3b94	-0.12267223
115	0xbe970767	-0.29497835
116	0xbe5bbe3a	-0.21459284
117	0xbe935def	-0.28782603
118	0xbec226e7	-0.37920305
119	0xbe540390	-0.20704484
120	0xbdc67cf7	-0.09691804
121	0x3c4a4f69	0.012348034
122	0xbdd198dc	-0.10234234
123	0xbd7fcb22	-0.062449582
124	0xbbd44487	-0.0064778957
125	0x3d495c6a	0.0491604
126	0x3e187129	0.14886917
127	0x3e77b604	0.24190527
128	0x3ea455b0	0.32096624
129	0x3e246e04	0.16057593
130	0x3c914a77	0.017735703
131	0xbc345368	-0.011006214
132	0x3d1fbceb	0.038998526
133	0xbdb48d08	-0.08815962
134	0xbe7b0f96	-0.24517664
135	0xbecf5807	-0.40496847
136	0xbedb21c7	-0.42799208
137	0xbef9acbe	-0.48764604
138	0xbee5344c	-0.44766462
139	0xbebf3581	-0.37345508
140	0xbebb83cc	-0.3662399
141	0xbe82b141	-0.2552586
142	0xbea31cd8	-0.31857944
143	0xbda5e8e5	-0.08101062
144	0xbe68af3b	-0.22723095
145	0xbe2137a1	-0.15743877
146	0xbded53db	-0.1158826
147	0xbdbabb0d	-0.09117708
148	0xbdcc2326	-0.099676415
149	0x3d33155c	0.04372154
150	0x3e528378	0.20557964
151	0x3dba8571	0.09107483
152	0x3d996ce3	0.074914716
153	0x3ec24fca	0.379515
154	0x3e0677d7	0.13131653
155	0x3e7bd5ae	0.24593231
156	0x3dc77bc0	0.097404
157	0x3d89c528	0.06727058
158	0x3e3fe048	0.187379
159	0x3e240a42	0.16019538
160	0x3e321050	0.17389035
161	0x3e70851f	0.23488282
162	0x3e3670b9	0.17816438
163	0x3e804683	0.25053796
164	0x3e8696b7	0.2628686
165	0x3e2bc623	0.16774802
166	0x3e7feff4	0.24993879
167	0x3e6ab87e	0.2292194
168	0x3e8fbd28	0.28074002
169	0x3e3c8d93	0.18413381
170	0x3dfb89c2	0.122821346
171	0x3e6e54a2	0.23274472
172	0x3dfce9c9	0.123492785
173	0x3e3b98fb	0.18320076
174	0x3e0375b6	0.12837872
175	0x3dced686	0.10099511
176	0x3dba6fad	0.09103332
177	0x3e63c0f6	0.22241578
178	0x3eba2764	0.36358178
179	0x3eee47ce	0.46539158
180	0x3f02a517	0.5103316
181	0x3e97a10f	0.29615065
182	0x3e8931fd	0.2679595
183	0x3e876e79	0.2645147
184	0x3dc06c41	0.09395648
185	0xbe0f6d74	-0.14006597
186	0xbe389a31	-0.1802757
187	0xbe224004	-0.15844733
188	0xbe441dad	-0.19151945
189	0xbe5d160b	-0.2159044
190	0x3c772f7d	0.015087006
191	0x3aad058a	0.0013200503
192	0x3dda8995	0.10670773
193	0x3e4c7100	0.19964981
194	0x3db4664a	0.088085726
195	0x3e419013	0.18902616
196	0xbd749288	-0.059710056
197	0x3d39fb56	0.04540571
198	0x3e8e270a	0.2776416
199	0x3ddd152b	0.10795053
200	0xbdd99e66	-0.10625915
201	0xbef314d0	-0.47476816
202	0xbee1eb19	-0.44124678
203	0xbeb313e1	-0.34976104
204	0xbea716a0	-0.3263445
205	0xbe312893	-0.17300634
206	0xbd3e0a95	-0.04639681
207	0xbde6602e	-0.112488136
208	0xbd46859c	-0.048467264
209	0xbd95802b	-0.07299837
210	0xbe9a62a8	-0.30153394
211	0xbe86ba8e	-0.26314205
212	0xbebd4f62	-0.36974627
213	0xbe218657	-0.15773903
214	0xbe4d1c38	-0.20030296
215	0x3da3dd93	0.08001246
216	0x3c38a297	0.011269233
217	0x3dc865ce	0.09785043
218	0x3e9c2ef0	0.3050456
219	0x3e3e484c	0.18582267
220	0x3e89d1a9	0.2691777
221	0x3ece9143	0.403452
222	0x3f1f4a96	0.62223184
223	0x3f09d890	0.53846073
224	0x3eea8a79	0.4580877
225	0x3eee8d86	0.4659235
226	0x3ec94228	0.39308286
227	0x3e66373c	0.22482008
228	0x3e4743a0	0.1945939
229	0x3eaee7a4	0.34161103
230	0x3ea02411	0.31277516
231	0x3e0c3b80	0.13694572
232	0x3e168a11	0.14701106
233	0x3cda7a27	0.026669575
234	0xbc982e10	-0.018576652
235	0xbbe7ef5f	-0.007078096
236	0xbe385166	-0.17999801
237	0xbe76f063	-0.24115138
238	0xbe3f41ed	-0.18677492
239	0xbe382560	-0.17983007
240	0xbe7eaafe	-0.24869916
241	0xbe2f5487	-0.17122088
242	0xbd88f269	-0.06686861
243	0xbe13840f	-0.14405845
244	0xbdc3815e	-0.09546159
245	0xbe3a3528	-0.1818434
246	0xbe4b9989	-0.19882788
247	0xbdea5cdf	-0.11443495
248	0xbda84d05	-0.08217815
249	0x3bd7a1b2	0.006580555
250	0xbd33e2a6	-0.04391732
251	0x3d934215	0.071903385
252	0x3da01cb6	0.07817976
253	0xbd7f1b06	-0.06228163
254	0xbd19655b	-0.037450176
255	0x3d4456f3	0.047934484
